checkpoint_critic.pth (torch_old, 895373 bytes, 15 tensors)

bn0.weight f4 [24]
0.08191532 0.49113744 0.4032933 0.38591993 0.8813223 0.8810988 0.7242474 0.50327474
0.8248672 0.26343465 0.31124347 0.5947853 0.10917938 0.621307 0.73503256 0.9898247
0.91649735 0.32460862 0.87149894 0.8874531 0.9035546 0.22035605 0.3995868 0.23293042
00000000: 38c3 a73d 5e76 fb3e 767c ce3e 4c97 c53e
00000010: 579e 613f b18f 613f 4768 393f 9dd6 003f
00000020: 7f2a 533f e8e0 863e 4e5b 9f3e d943 183f
00000030: 7099 df3d fa0d 1f3f 182b 3c3f 2765 7d3f
00000040: 929f 6a3f 1a33 a63e 8e1a 5f3f 2030 633f
00000050: 5b4f 673f 04a5 613e a496 cc3e 5085 6e3e

bn0.bias f4 [24]
0.0 0.0 0.0 0.0 0.0 0.0 0.0 0.0
0.0 0.0 0.0 0.0 0.0 0.0 0.0 0.0
0.0 0.0 0.0 0.0 0.0 0.0 0.0 0.0
00000000: 0000 0000 0000 0000 0000 0000 0000 0000
00000010: 0000 0000 0000 0000 0000 0000 0000 0000
00000020: 0000 0000 0000 0000 0000 0000 0000 0000
00000030: 0000 0000 0000 0000 0000 0000 0000 0000
00000040: 0000 0000 0000 0000 0000 0000 0000 0000
00000050: 0000 0000 0000 0000 0000 0000 0000 0000

bn0.running_mean f4 [24]
0.0 0.0 0.0 0.0 0.0 0.0 0.0 0.0
0.0 0.0 0.0 0.0 0.0 0.0 0.0 0.0
0.0 0.0 0.0 0.0 0.0 0.0 0.0 0.0
00000000: 0000 0000 0000 0000 0000 0000 0000 0000
00000010: 0000 0000 0000 0000 0000 0000 0000 0000
00000020: 0000 0000 0000 0000 0000 0000 0000 0000
00000030: 0000 0000 0000 0000 0000 0000 0000 0000
00000040: 0000 0000 0000 0000 0000 0000 0000 0000
00000050: 0000 0000 0000 0000 0000 0000 0000 0000

bn0.running_var f4 [24]
1.0 1.0 1.0 1.0 1.0 1.0 1.0 1.0
1.0 1.0 1.0 1.0 1.0 1.0 1.0 1.0
1.0 1.0 1.0 1.0 1.0 1.0 1.0 1.0
00000000: 0000 803f 0000 803f 0000 803f 0000 803f
00000010: 0000 803f 0000 803f 0000 803f 0000 803f
00000020: 0000 803f 0000 803f 0000 803f 0000 803f
00000030: 0000 803f 0000 803f 0000 803f 0000 803f
00000040: 0000 803f 0000 803f 0000 803f 0000 803f
00000050: 0000 803f 0000 803f 0000 803f 0000 803f

fcs1.weight f4 [400, 24]
0.18987766 -0.496203 -0.0123272985 0.024878187 -0.28618246 -0.09664305 -0.013155774 0.04393562
0.2454496 -0.5342807 0.012294398 0.10981756 -0.2631035 -0.084981956 0.029122591 0.1415193
0.27653924 -0.50872624 0.039696258 0.032004934 -0.292511 -0.19981663 0.05515415 0.109921925
1.1008713 0.5797407 -0.086398415 -0.19628888 0.37903547 -0.27050936 -0.07440277 -0.24166848
0.13710387 0.46486238 0.08371427 -0.08226223 0.1529588 -0.54626244 0.085374184 -0.054512247
-0.010119361 0.36266714 0.009548008 -0.23946407 -0.3517299 0.07588375 0.021414863 -0.24935457
-0.16766983 0.6422946 -0.047242127 0.019652795 0.083978936 -0.3031193 0.0046044937 0.033570986
-0.20376214 0.51032007 0.009240331 0.0309985 0.047397207 -0.620567 0.0106493775 -0.0032136987
-0.16745126 0.41412473 -0.029924592 0.0757567 0.040836275 -1.1993098 0.030498547 -0.007701009
0.43417943 -0.37045398 -0.04597337 0.06901165 0.19022173 -0.49893516 0.0076718433 0.03025666
0.33636943 -0.2991563 -0.02567438 -0.09457474 0.15177073 -0.28477222 -0.06973187 -0.054919556
0.38004962 -0.17017329 0.016211078 0.078473866 0.46021327 -2.2069302 -0.036920294 0.056860857
-0.1139412 0.6791447 0.04118423 0.11681003 -0.01387187 -0.34887582 -0.03549399 0.1426647
-0.14389426 0.65231615 0.010638849 -0.027115393 0.06580092 -0.5027765 0.006611499 -0.10763262
-0.14914195 0.66046244 -0.10793574 -0.10948447 0.25620335 -1.3889945 -0.033735406 -0.08760619
-0.035263993 0.068593286 0.0068766694 -0.0155251445 -0.08340053 -0.22279182 -0.008217201 0.00031042116
0.044243243 0.12166477 -0.030157756 0.03324638 -0.09351224 0.025905358 0.022478685 0.009905938
0.1095767 0.09535242 0.01567188 0.03193668 0.10914494 0.090446115 -0.03162176 -0.027164355
0.08491498 0.29247057 -0.02489187 0.16316167 -0.040889766 -0.31088635 0.015420263 0.14386123
0.05681608 0.54591763 -0.09700619 0.17144783 0.025649037 -0.5160788 -0.026514966 0.091848336
0.24535349 0.4527033 0.049916774 -0.3748538 0.13535501 -0.460589 0.022559816 -0.37084007
-0.054223157 0.97472787 0.059719626 0.047134615 -0.021830633 -0.2798407 0.003101696 -0.011775143
-0.11001839 1.018848 0.08513841 0.16612235 -0.04444779 -0.5475784 0.03181264 0.18734129
-0.0974795 1.0743862 -0.021804249 0.08283821 0.06209084 -1.4947451 -0.102954544 0.039275356
0.024515577 0.07207754 0.0005940132 -0.051138565 -0.27296352 -0.5642706 0.08352145 -0.084398486
0.1777514 -0.019636994 -0.022463314 -0.16585219 -0.16583954 -0.7381678 0.0041344953 -0.11220833
0.15908206 -0.045937587 0.11849778 0.0059594475 0.05399226 -0.9119765 0.12361405 -0.016033065
0.10544495 0.03530047 -0.070833474 -0.058260508 0.018674703 -0.3123772 0.017526766 -0.01496393
0.13065644 0.14236373 0.008258862 0.07281376 -0.025706798 -0.2914743 0.023390697 0.00029611145
0.15756857 0.2481373 -0.032459434 0.041532487 -0.27952495 -0.25698808 0.05330154 -0.05400592
0.016787004 0.35936746 -0.025061166 -0.0659699 -0.1618563 -0.1948896 0.017236283 -0.026559418
0.054054968 0.54186726 -0.029268522 0.0152914 -0.07289656 -0.14948638 0.010921987 -0.046569463
00000000: 4a6f 423e 520e febe 70f8 49bc 57cd cb3c
00000010: 8286 92be cbec c5bd 518b 57bc d6f5 333d
00000020: 2457 7b3e 9fc6 08bf 716e 493c 07e8 e03d
00000030: 80b5 86be 050b aebd 8092 ee3c 6fea 103e
00000040: 8d96 8d3e e23b 02bf 8b98 223d 9b17 033d
00000050: 00c4 95be bb9c 4cbe 51e9 613d bf1e e13d
00000060: 5ae9 8c3f e369 143f a7f1 b0bd f4ff 48be
00000070: f010 c23e 3480 8abe 7b60 98bd f177 77be
00000080: f564 0c3e 7102 ee3e 6372 ab3d 1a79 a8bd
00000090: 3ba1 1c3e dbd7 0bbf a9d8 ae3d 3c48 5fbd
000000a0: adcb 25bc 82af b93e 406f 1c3c 1236 75be
000000b0: f115 b4be f168 9b3d 396e af3c ce56 7fbe
000000c0: a4b1 2bbe 6b6d 243f f680 41bd e6fe a03c
000000d0: 26fd ab3d 7432 9bbe 4be1 963b bb81 093d
000000e0: 06a7 50be 56a4 023f c264 173c 91f0 fd3c
000000f0: 9323 423d 7bdd 1ebf ba7a 2e3c eb9c 52bb
00000100: 5878 2bbe 2808 d43e 6b24 f5bc 5426 9b3d
00000110: f043 273d fc82 99bf 17d8 f93c bf58 fcbb
00000120: c44c de3e 25ac bdbe 934e 3cbd fb55 8d3d
00000130: 7cc9 423e 6e74 ffbe 1664 fb3b d1dc f73c
00000140: 9d38 ac3e 042b 99be 1453 d2bc 67b0 c1bd
00000150: c969 1b3e aacd 91be 95cf 8ebd 54f3 60bd
00000160: dd95 c23e e841 2ebe 18cd 843c e8b6 a03d
00000170: 13a1 eb3e 583e 0dc0 bc39 17bd eee6 683d
00000180: 015a e9bd 6ddc 2d3f ccb0 283d 193a ef3d
00000190: d746 63bc da9f b2be 2562 11bd b216 123e
000001a0: 0459 13be 31fe 263f 914e 2e3c 1a21 debc
000001b0: a2c2 863d f6b5 00bf 46a5 d83b 7e6e dcbd
000001c0: abb8 18be 1114 293f 6a0d ddbd 6539 e0bd
000001d0: 162d 833e 92ca b1bf 232e 0abd e06a b3bd
000001e0: fa70 10bd a37a 8c3d af55 e13b 2d5d 7ebc
000001f0: e6cd aabd 8a23 64be 70a1 06bc 06c0 a239
00000200: 6738 353d 612b f93d 660d f7bc 5b2d 083d
00000210: 5883 bfbd 7937 d43c 3825 b83c 844c 223c
00000220: c069 e03d 2148 c33d 5162 803c 09d0 023d
00000230: 6287 df3d d03b b93d d285 01bd c887 debc
00000240: e8e7 ad3d b4be 953e 09ea cbbc da13 273e
00000250: 077c 27bd 7f2c 9fbe 45a5 7c3c 5c50 133e
00000260: fab7 683d 42c1 0b3f 2eab c6bd 0590 2f3e
00000270: ee1d d23c be1d 04bf ea35 d9bc fb1a bc3d
00000280: f23d 7b3e bac8 e73e 8875 4c3d d6ec bfbe
00000290: 819a 0a3e 52d2 ebbe 5dcf b83c c0de bdbe
000002a0: 1a19 5ebd c487 793f 919c 743d 3a10 413d
000002b0: 28d6 b2bc 4847 8fbe d345 4b3b 88ec 40bc
000002c0: 5251 e1bd 9c69 823f 0c5d ae3d fa1b 2a3e
000002d0: e30e 36bd 192e 0cbf f94d 023d 65d6 3f3e
000002e0: 55a3 c7bd 7d85 893f d39e b2bc 14a7 a93d
000002f0: f752 7e3d cf53 bfbf d5d9 d2bd 32df 203d
00000300: e4d4 c83c 649d 933d 8db7 1b3a ac76 51bd
00000310: e0c1 8bbe 0a74 10bf 4b0d ab3d 1dd9 acbd
00000320: 7704 363e c3dd a0bc fc04 b8bc 28d5 29be
00000330: d7d1 29be 91f8 3cbf a97a 873b 7bcd e5bd
00000340: 68e6 223e 0d29 3cbd f7ae f23d 7847 c33b
00000350: fd26 5d3d 4b77 69bf 5d29 fd3d c657 83bc
00000360: 86f3 d73d 3a97 103d 2411 91bd 92a2 6ebd
00000370: b1fb 983c e8ef 9fbe 4b94 8f3c 452b 75bc
00000380: cdca 053e ccc7 113e 2e50 073c 611f 953d
00000390: 1097 d2bc 1f3c 95be d99d bf3c 683f 9b39
000003a0: a859 213e b417 7e3e 2ff4 04bd f81d 2a3d
000003b0: e51d 8fbe f193 83be b752 5a3d 5035 5dbd
000003c0: e684 893c 03ff b73e 134d cdbc 3a1b 87bd
000003d0: a8bd 25be 2491 47be 1b33 8d3c 2393 d9bc
000003e0: be68 5d3d d0b7 0a3f 8ac4 efbc c888 7a3c
000003f0: cb4a 95bd f512 19be 22f2 323c 9fbf 3ebd

fcs1.bias f4 [400]
-0.15911059 -0.062061995 0.045735635 -0.2909753 -0.20834051 -0.42346525 -0.24425079 0.0112215895
-0.081705555 -0.50487506 -0.299111 0.2640989 0.051861376 -0.12772931 -0.15280393 -0.29807138
-0.261809 0.43745998 -0.17228839 -0.029622283 -0.731088 -0.604947 -0.07342801 0.42590824
-0.14089917 -0.65310943 -0.741347 -0.3230773 -0.59606916 -0.15354748 -0.5721139 -0.17534322
-0.6438206 0.2930613 -0.7095459 -0.6018173 -0.27178082 -0.58274037 -0.23468305 -0.5414957
-0.031260565 -0.78416157 -0.6342821 -0.59377426 -0.4836901 0.14444156 0.43865612 -0.09413545
-0.059475757 -0.16659349 -0.74326664 0.09685014 -0.14235336 -0.65033484 -0.11678035 -0.29700357
-0.558148 -0.3861188 -0.4215776 -0.3148473 -0.44560632 -0.018273314 0.109013565 -0.061716206
-0.4179756 -0.13452975 -0.58629745 0.014799867 0.0064273644 0.092450954 -0.16985323 0.122246295
-0.46509597 -0.1475099 -0.14240958 -0.93743783 -0.40371436 -0.19461785 -0.20160995 -0.14367372
-0.14523488 0.11742514 -0.3700899 -0.56746435 -0.30491826 -0.26654664 -0.42600465 -0.08819421
0.3391218 -0.009966911 -1.0725253 0.028571181 -0.47270644 -0.56461877 0.018265108 -0.06345517
-0.22959495 0.16804647 -0.25922826 0.028748276 -0.57556 -0.6998723 0.20164803 -0.32299373
-0.37242025 0.027322927 0.6513137 -0.52575874 0.4534043 -0.30952254 -0.35765246 -0.02147359
-0.4848286 0.058668144 -0.23685198 -0.4016385 -0.37242752 -0.110277414 -0.3257332 -0.19907305
-0.55823326 -0.40841427 -0.079588465 -0.5961461 -0.42724606 -0.42358205 0.034365095 0.06799763
-0.79119617 -0.8040005 -0.3858179 -0.410157 -0.62173444 -0.1777041 -0.64627534 -0.39139947
0.17893836 -0.10361546 -0.7593641 0.21539247 0.008238647 -0.6043344 0.098345354 -0.47592986
-0.44230354 -0.78986484 0.19710493 -0.6282833 -0.68457085 -0.5176102 0.053248405 -0.1302825
0.106865674 -0.10477939 -0.28178242 0.1562899 -0.08611934 -0.5710253 -0.5229727 -0.73682654
-0.14687252 -0.17389807 -0.55186915 0.14230433 -0.031933967 -0.45524794 -0.1798133 0.18233617
0.031451106 -0.40790805 -0.635198 -0.20963916 -0.60463935 -0.033595465 -0.12982026 -0.25159562
0.06427159 -0.6144413 -0.43142882 -0.27671328 0.028074797 -0.31608266 -0.14722098 -0.17977996
-0.44948947 -0.670134 -0.19932014 -0.12790766 -0.110828556 -0.85102576 0.08466868 0.019716468
-0.3394129 0.021205265 -0.7201565 -0.014106369 -0.121946864 -0.1091471 0.2447992 -0.021308567
0.058731396 0.119398475 -0.23261978 0.07621361 -0.5174654 -0.51376486 -0.6230938 0.24099576
-0.3768547 0.20877853 0.054004252 -0.30310896 0.15305185 -0.48828906 -0.2441115 -0.31234246
0.09433627 0.049039476 -0.36166316 0.16196609 -0.029031841 -0.30585182 -0.51353455 -0.709467
0.059134766 -0.61685467 -0.7079306 0.21531151 -0.0106561165 0.09854338 0.14743859 -0.1941009
-0.7626337 0.12441923 -0.08587888 -0.40911862 0.29922673 0.14552015 -0.5307615 -0.46735412
0.14151457 -0.17850432 -0.353889 -0.59571785 -0.26090297 -0.32456884 0.1472248 -0.53644633
-0.59594846 -0.5711676 0.02671924 -0.17056347 -0.7646583 -0.601695 0.28756925 0.35998777
00000000: e3ed 22be b834 7ebd 4a55 3b3d b7fa 94be
00000010: 3757 55be 70d0 d8be e11c 7abe c2da 373c
00000020: 3e55 a7bd 7e3f 01bf 1425 99be f937 873e
00000030: 986c 543d 79cb 02be a278 1cbe d09c 98be
00000040: d40b 86be c1fa df3e 5e6c 30be 6eaa f2bc
00000050: 9528 3bbf cedd 1abf 6d61 96bd a510 da3e
00000060: df47 10be 2e32 27bf ebc8 3dbf 636a a5be
00000070: fd97 18bf 8d3b 1dbe 0e76 12bf 2c8d 33be
00000080: 6dd1 24bf 210c 963e cda4 35bf b310 1abf
00000090: db26 8bbe 792e 15bf c150 70be 769f 0abf
000000a0: 140b 00bd d0be 48bf 5060 22bf 9701 18bf
000000b0: 3ba6 f7be 7de8 133e 8997 e03e 16ca c0bd
000000c0: da9c 73bd 7c97 2abe b946 3ebf 5e59 c63d
000000d0: 14c5 11be 587c 26bf 892a efbd da10 98be
000000e0: cae2 0ebf 5db1 c5be 05d9 d7be aa33 a1be
000000f0: 8326 e4be ebb1 95bc 8142 df3d 22ca 7cbd
00000100: e600 d6be 2bc2 09be 9717 16bf 247b 723c
00000110: a49c d23b ed56 bd3d 01ee 2dbe 445c fa3d
00000120: 0f21 eebe d60c 17be d1d3 11be edfb 6fbf
00000130: a6b3 cebe e749 47be d772 4ebe 341f 13be
00000140: 74b8 14be 987c f03d 6c7c bdbe 5845 11bf
00000150: 3f1e 9cbe cd78 88be 481d dabe 2a9f b4bd
00000160: 5fa1 ad3e 414c 23bc 8248 89bf 1c0e ea3c
00000170: 9406 f2be db8a 10bf b5a0 953c c9f4 81bd
00000180: f01a 6bbe 6014 2c3e 91b9 84be 8181 eb3c
00000190: e657 13bf d52a 33bf d27c 4e3e 6f5f a5be
000001a0: dead bebe 55d4 df3c 7fbc 263f 2098 06bf
000001b0: 9c24 e83e bd79 9ebe 391e b7be 62e9 afbc
000001c0: 743b f8be 024e 703d 5389 72be 90a3 cdbe
000001d0: d2ae bebe 20d9 e1bd 81c6 a6be ced9 4bbe
000001e0: 60e8 0ebf ad1b d1be 47ff a2bd 089d 18bf
000001f0: ffbf dabe bfdf d8be 6ac2 0c3d 5742 8b3d
00000200: d58b 4abf fad2 4dbf ec89 c5be 1900 d2be
00000210: fd29 1fbf 10f8 35be 4d72 25bf 8365 c8be
00000220: 9e3b 373e 5834 d4bd b065 42bf d88f 5c3e
00000230: 64fb 063c a9b5 1abf 4a69 c93d 14ad f3be
00000240: 9c75 e2be 9534 4abf e0d5 493e 2dd7 20bf
00000250: 0940 2fbf 1a82 04bf 001b 5a3d c768 05be
00000260: 64dc da3d 9496 d6bd c945 90be 760a 203e
00000270: 565f b0bd b72e 12bf 8ae1 05bf aaa0 3cbf
00000280: c065 16be 5612 32be 4c47 0dbf 3ab8 113e
00000290: 31cd 02bd 4216 e9be fa20 38be 55b6 3a3e
000002a0: e0d2 003d 53d9 d0be 569c 22bf a6ab 56be
000002b0: a5c9 1abf 669b 09bd 9aef 04be 24d1 80be
000002c0: d3a0 833d 064c 1dbf 3de4 dcbe 5dad 8dbe
000002d0: 1efd e53c 96d5 a1be 19c1 16be 3d18 38be
000002e0: 7c23 e6be e78d 2bbf 941a 4cbe 3afa 02be
000002f0: 15fa e2bd d3dc 59bf c666 ad3d 6e84 a13c
00000300: 87c7 adbe aab6 ad3c 2d5c 38bf 661e 67bc
00000310: 47bf f9bd 8488 dfbd a4ac 7a3e 4e8f aebc
00000320: 5590 703d 3087 f43d e133 6ebe e215 9c3d
00000330: 9d78 04bf 1886 03bf 1383 1fbf 98c7 763e
00000340: 19f3 c0be 0aca 553e 9033 5d3d 1931 9bbe
00000350: a0b9 1c3e 0601 fabe 5df8 79be 5aeb 9fbe
00000360: 6033 c13d 9edd 483d ea2b b9be 70da 253e
00000370: 2fd4 edbc 9c98 9cbe 0077 03bf a19f 35bf
00000380: 4c37 723d 30ea 1dbf f13a 35bf 9f7a 5c3e
00000390: fe96 2ebc 1dd1 c93d 24fa 163e 63c2 46be
000003a0: f63b 43bf 82cf fe3d 44e1 afbd ff77 d1be
000003b0: 3f34 993e 3c03 153e fcdf 07bf 0a49 efbe
000003c0: 32e9 103e d6c9 36be f030 b5be f780 18bf
000003d0: 1395 85be e32d a6be 19c2 163e 8c54 09bf
000003e0: 1490 18bf 0a38 12bf 4fe2 da3c 31a8 2ebe
000003f0: a5c0 43bf af08 1abf 473c 933e 5150 b83e

bn1.weight f4 [400]
0.8455011 0.95424646 0.51061445 0.2966352 0.605431 0.15487659 0.1872285 0.6025792
0.48874128 0.14499742 0.8928745 0.030125916 0.07397473 0.8440561 0.67721593 0.61642057
0.71504056 0.7260629 0.9047199 0.69200593 0.49221206 0.12209302 0.8913239 0.63434434
0.7042327 0.05962938 0.5611307 0.49429864 0.33096445 0.009378016 0.8528089 0.30940074
0.68911666 0.61972755 0.22301489 0.2731412 0.94064724 0.8166119 0.106386185 0.933464
0.7424066 0.39605683 0.29300702 0.06173873 0.4053958 0.57581246 0.81332463 0.65687233
0.8462678 0.5767027 0.9169348 0.1777811 0.8856094 0.35370928 0.6839877 0.5314822
0.71294385 0.6934781 0.08808613 0.24788475 0.6925622 0.65854156 0.3015046 0.35959834
0.49485117 0.43922114 0.2089504 0.66114867 0.7080679 0.36725765 0.41783983 0.7726939
0.44325382 0.9432705 0.07135296 0.35173792 0.93032694 0.7157799 0.11289376 0.90833956
0.75393575 0.7356225 0.6259368 0.22810996 0.5928955 0.11412656 0.9583483 0.90141034
0.98301584 0.62440467 0.8001134 0.27931964 0.78578085 0.80911154 0.8060905 0.3305025
0.5299849 0.75273925 0.75445944 0.97003204 0.8745628 0.107744694 0.14484698 0.93351555
0.98980236 0.740862 0.59655714 0.80133575 0.3271888 0.3603434 0.7826615 0.114409685
0.63628536 0.89629304 0.26917303 0.27031088 0.21270919 0.11552584 0.8063652 0.57541543
0.9771504 0.06941521 0.7904401 0.31158555 0.24740988 0.38755715 0.6832642 0.5438605
0.35315174 0.9188739 0.19275266 0.27313417 0.981348 0.20100021 0.24659199 0.70234066
0.92815983 0.73083353 0.6405836 0.7046679 0.9920439 0.480048 0.56619537 0.7058029
0.0598222 0.46089315 0.18411797 0.25399405 0.018686712 0.6384151 0.28278732 0.051844895
0.2804913 0.4007213 0.7734518 0.6399077 0.27717346 0.047732353 0.80876666 0.12742996
0.019507527 0.36517727 0.15615273 0.6838777 0.8248643 0.7614196 0.18837905 0.83373004
0.98198617 0.71619946 0.17004174 0.77798665 0.3448214 0.8191273 0.47618252 0.40499347
0.5711416 0.39355272 0.85027313 0.8027575 0.07837176 0.46780664 0.85053813 0.67739516
0.94816744 0.12953031 0.7399061 0.010508716 0.22678769 0.5339433 0.42690045 0.9859716
0.20660341 0.87253094 0.487548 0.8722797 0.20527059 0.8988091 0.39602327 0.49635446
7.8976154e-05 0.7335735 0.15320349 0.7760852 0.4199779 0.37576038 0.78281766 0.16173863
0.65599936 0.9331494 0.50856394 0.3767525 0.20510226 0.45487303 0.07851243 0.2261138
0.4026401 0.2458368 0.6572654 0.22270334 0.1936683 0.7618637 0.2915851 0.38814908
0.39077073 0.9399524 0.8526918 0.52024853 0.5957788 0.5153647 0.5831109 0.86292696
0.5411653 0.6409114 0.7238548 0.083479345 0.9591966 0.7448957 0.39915735 0.17573029
0.8986844 0.0572837 0.27319807 0.49130166 0.16860348 0.61793363 0.8435048 0.24810201
0.9338345 0.5381381 0.22002935 0.94192576 0.3397771 0.82340664 0.2223751 0.70968425
00000000: c372 583f 7f49 743f a1b7 023f 92e0 973e
00000010: 87fd 1a3f f897 1e3e d4b8 3f3e a142 1a3f
00000020: 4c3c fa3e 347a 143e 6c93 643f a0ca f63c
00000030: 1080 973d 1014 583f 065e 2d3f bdcd 1d3f
00000040: e60c 373f 42df 393f b99b 673f 4d27 313f
00000050: 3803 fc3e e80b fa3d ce2d 643f 6464 223f
00000060: 9848 343f f03d 743d 43a6 0f3f b614 fd3e
00000070: 2c74 a93e 40a6 193c af51 5a3f c669 9e3e
00000080: f369 303f 77a6 1e3f 045e 643e 2ad9 8b3e
00000090: 42ce 703f 7a0d 513f 00e1 d93d 7ff7 6e3f
000000a0: 5c0e 3e3f f6c7 ca3e 0405 963e c0e1 7c3d
000000b0: 0a90 cf3e 7268 133f 0b36 503f c928 283f
000000c0: 02a5 583f caa2 133f 3dbc 6a3f 400c 363e
000000d0: 4cb7 623f 6219 b53e d119 2f3f 380f 083f
000000e0: 7d83 363f c887 313f 8066 b43d 80d5 7d3e
000000f0: c24b 313f 2e96 283f d05e 9a3e 461d b83e
00000100: 225d fd3e 98e1 e03e 18f7 553e 0a41 293f
00000110: f043 353f 3209 bc3e 1aef d53e 44cf 453f
00000120: 2af2 e23e 2d7a 713f 8021 923d fe16 b43e
00000130: e829 6e3f 5a3d 373f d834 e73d f188 683f
00000140: ef01 413f c251 3c3f 653d 203f a895 693e
00000150: 00c8 173f 30bb e93d 5056 753f d4c2 663f
00000160: eda6 7b3f fcd8 1f3f 3bd4 4c3f fc02 8f3e
00000170: ef28 493f ef21 4f3f f25b 4e3f a037 a93e
00000180: 17ad 073f 85b3 403f 4124 413f 0554 783f
00000190: 59e3 5f3f 40a9 dc3d c452 143e e0fa 6e3f
000001a0: b063 7d3f 22a9 3d3f f8b7 183f 5724 4d3f
000001b0: 4a85 a73e ee7e b83e 815c 483f a04f ea3d
000001c0: 99e3 223f 7673 653f 0cd1 893e 3066 8a3e
000001d0: 70d0 593e d098 ec3d f36d 4e3f 6d4e 133f
000001e0: 8726 7a3f 9029 8e3d 485a 4a3f 2488 9f3e
000001f0: 0459 7d3e e46d c63e 67ea 2e3f 713a 0b3f
00000200: 4ed0 b43e 523b 6b3f f460 453e 3ed8 8b3e
00000210: 9f39 7b3f 00d3 4d3e 9c82 7c3e 99cc 333f
00000220: e29b 6d3f e817 3b3f 49fd 233f 1e65 343f
00000230: 97f6 7d3f dac8 f53e 2ef2 103f 80af 343f
00000240: 2008 753d 30fa eb3e 6c89 3c3e 820b 823e
00000250: e014 993c 2c6f 233f 80c9 903e 505b 543d
00000260: 8e9c 8f3e 582b cd3e f000 463f fed0 233f
00000270: aee9 8d3e 0083 433d 550b 4f3f 007d 023e
00000280: 40ce 9f3c 84f8 ba3e 80e6 1f3e 9c12 2f3f
00000290: 4f2a 533f 65ec 423f 70e6 403e 556f 553f
000002a0: 7263 7b3f d958 373f 6c1f 2e3e 222a 473f
000002b0: 6e8c b03e 54b2 513f 32ce f33e 4e5b cf3e
000002c0: 5636 123f be7f c93e 80ab 593f 8481 4d3f
000002d0: 6081 a03d 5a84 ef3e debc 593f c569 2d3f
000002e0: 1abb 723f 98a3 043e 7c6a 3d3f c02c 2c3c
000002f0: 083b 683e 82b0 083f b292 da3e a368 7c3f
00000300: d88f 533e 305e 5f3f e49f f93e b94d 5f3f
00000310: 7432 523e 5a18 663f 90c3 ca3e 2c22 fe3e
00000320: 00a0 a538 79cb 3b3f 60e1 1c3e 85ad 463f
00000330: 5807 d73e aa63 c03e bd66 483f d09e 253e
00000340: 93ef 273f e1e2 6e3f 3f31 023f b4e5 c03e
00000350: 5406 523e 1ee5 e83e 20cb a03d 608a 673e
00000360: d826 ce3e a4bc 7b3e 8c42 283f 580c 643e
00000370: fc50 463e 8009 433f a44a 953e 7abb c63e
00000380: 1a13 c83e b8a0 703f 034a 5a3f 022f 053f
00000390: f684 183f f1ee 033f c246 153f c8e8 5c3f
000003a0: cf89 0a3f c512 243f 8c4e 393f 38f7 aa3d
000003b0: e98d 753f 7cb1 3e3f 5a5e cc3e a4f2 333e
000003c0: 2e10 663f 50a2 6a3d 9ee0 8b3e e48b fb3e
000003d0: 64a6 2c3e e630 1e3f eeef 573f 740e 7e3e
000003e0: c70f 6f3f 6bc3 093f 604f 613e 0c22 713f
000003f0: 44f7 ad3e c7ca 523f 4cb6 633e dead 353f

bn1.bias f4 [400]
0.0 0.0 0.0 0.0 0.0 0.0 0.0 0.0
0.0 0.0 0.0 0.0 0.0 0.0 0.0 0.0
0.0 0.0 0.0 0.0 0.0 0.0 0.0 0.0
0.0 0.0 0.0 0.0 0.0 0.0 0.0 0.0
0.0 0.0 0.0 0.0 0.0 0.0 0.0 0.0
0.0 0.0 0.0 0.0 0.0 0.0 0.0 0.0
0.0 0.0 0.0 0.0 0.0 0.0 0.0 0.0
0.0 0.0 0.0 0.0 0.0 0.0 0.0 0.0
0.0 0.0 0.0 0.0 0.0 0.0 0.0 0.0
0.0 0.0 0.0 0.0 0.0 0.0 0.0 0.0
0.0 0.0 0.0 0.0 0.0 0.0 0.0 0.0
0.0 0.0 0.0 0.0 0.0 0.0 0.0 0.0
0.0 0.0 0.0 0.0 0.0 0.0 0.0 0.0
0.0 0.0 0.0 0.0 0.0 0.0 0.0 0.0
0.0 0.0 0.0 0.0 0.0 0.0 0.0 0.0
0.0 0.0 0.0 0.0 0.0 0.0 0.0 0.0
0.0 0.0 0.0 0.0 0.0 0.0 0.0 0.0
0.0 0.0 0.0 0.0 0.0 0.0 0.0 0.0
0.0 0.0 0.0 0.0 0.0 0.0 0.0 0.0
0.0 0.0 0.0 0.0 0.0 0.0 0.0 0.0
0.0 0.0 0.0 0.0 0.0 0.0 0.0 0.0
0.0 0.0 0.0 0.0 0.0 0.0 0.0 0.0
0.0 0.0 0.0 0.0 0.0 0.0 0.0 0.0
0.0 0.0 0.0 0.0 0.0 0.0 0.0 0.0
0.0 0.0 0.0 0.0 0.0 0.0 0.0 0.0
0.0 0.0 0.0 0.0 0.0 0.0 0.0 0.0
0.0 0.0 0.0 0.0 0.0 0.0 0.0 0.0
0.0 0.0 0.0 0.0 0.0 0.0 0.0 0.0
0.0 0.0 0.0 0.0 0.0 0.0 0.0 0.0
0.0 0.0 0.0 0.0 0.0 0.0 0.0 0.0
0.0 0.0 0.0 0.0 0.0 0.0 0.0 0.0
0.0 0.0 0.0 0.0 0.0 0.0 0.0 0.0
00000000: 0000 0000 0000 0000 0000 0000 0000 0000
00000010: 0000 0000 0000 0000 0000 0000 0000 0000
00000020: 0000 0000 0000 0000 0000 0000 0000 0000
00000030: 0000 0000 0000 0000 0000 0000 0000 0000
00000040: 0000 0000 0000 0000 0000 0000 0000 0000
00000050: 0000 0000 0000 0000 0000 0000 0000 0000
00000060: 0000 0000 0000 0000 0000 0000 0000 0000
00000070: 0000 0000 0000 0000 0000 0000 0000 0000
00000080: 0000 0000 0000 0000 0000 0000 0000 0000
00000090: 0000 0000 0000 0000 0000 0000 0000 0000
000000a0: 0000 0000 0000 0000 0000 0000 0000 0000
000000b0: 0000 0000 0000 0000 0000 0000 0000 0000
000000c0: 0000 0000 0000 0000 0000 0000 0000 0000
000000d0: 0000 0000 0000 0000 0000 0000 0000 0000
000000e0: 0000 0000 0000 0000 0000 0000 0000 0000
000000f0: 0000 0000 0000 0000 0000 0000 0000 0000
00000100: 0000 0000 0000 0000 0000 0000 0000 0000
00000110: 0000 0000 0000 0000 0000 0000 0000 0000
00000120: 0000 0000 0000 0000 0000 0000 0000 0000
00000130: 0000 0000 0000 0000 0000 0000 0000 0000
00000140: 0000 0000 0000 0000 0000 0000 0000 0000
00000150: 0000 0000 0000 0000 0000 0000 0000 0000
00000160: 0000 0000 0000 0000 0000 0000 0000 0000
00000170: 0000 0000 0000 0000 0000 0000 0000 0000
00000180: 0000 0000 0000 0000 0000 0000 0000 0000
00000190: 0000 0000 0000 0000 0000 0000 0000 0000
000001a0: 0000 0000 0000 0000 0000 0000 0000 0000
000001b0: 0000 0000 0000 0000 0000 0000 0000 0000
000001c0: 0000 0000 0000 0000 0000 0000 0000 0000
000001d0: 0000 0000 0000 0000 0000 0000 0000 0000
000001e0: 0000 0000 0000 0000 0000 0000 0000 0000
000001f0: 0000 0000 0000 0000 0000 0000 0000 0000
00000200: 0000 0000 0000 0000 0000 0000 0000 0000
00000210: 0000 0000 0000 0000 0000 0000 0000 0000
00000220: 0000 0000 0000 0000 0000 0000 0000 0000
00000230: 0000 0000 0000 0000 0000 0000 0000 0000
00000240: 0000 0000 0000 0000 0000 0000 0000 0000
00000250: 0000 0000 0000 0000 0000 0000 0000 0000
00000260: 0000 0000 0000 0000 0000 0000 0000 0000
00000270: 0000 0000 0000 0000 0000 0000 0000 0000
00000280: 0000 0000 0000 0000 0000 0000 0000 0000
00000290: 0000 0000 0000 0000 0000 0000 0000 0000
000002a0: 0000 0000 0000 0000 0000 0000 0000 0000
000002b0: 0000 0000 0000 0000 0000 0000 0000 0000
000002c0: 0000 0000 0000 0000 0000 0000 0000 0000
000002d0: 0000 0000 0000 0000 0000 0000 0000 0000
000002e0: 0000 0000 0000 0000 0000 0000 0000 0000
000002f0: 0000 0000 0000 0000 0000 0000 0000 0000
00000300: 0000 0000 0000 0000 0000 0000 0000 0000
00000310: 0000 0000 0000 0000 0000 0000 0000 0000
00000320: 0000 0000 0000 0000 0000 0000 0000 0000
00000330: 0000 0000 0000 0000 0000 0000 0000 0000
00000340: 0000 0000 0000 0000 0000 0000 0000 0000
00000350: 0000 0000 0000 0000 0000 0000 0000 0000
00000360: 0000 0000 0000 0000 0000 0000 0000 0000
00000370: 0000 0000 0000 0000 0000 0000 0000 0000
00000380: 0000 0000 0000 0000 0000 0000 0000 0000
00000390: 0000 0000 0000 0000 0000 0000 0000 0000
000003a0: 0000 0000 0000 0000 0000 0000 0000 0000
000003b0: 0000 0000 0000 0000 0000 0000 0000 0000
000003c0: 0000 0000 0000 0000 0000 0000 0000 0000
000003d0: 0000 0000 0000 0000 0000 0000 0000 0000
000003e0: 0000 0000 0000 0000 0000 0000 0000 0000
000003f0: 0000 0000 0000 0000 0000 0000 0000 0000

bn1.running_mean f4 [400]
0.0 0.0 0.0 0.0 0.0 0.0 0.0 0.0
0.0 0.0 0.0 0.0 0.0 0.0 0.0 0.0
0.0 0.0 0.0 0.0 0.0 0.0 0.0 0.0
0.0 0.0 0.0 0.0 0.0 0.0 0.0 0.0
0.0 0.0 0.0 0.0 0.0 0.0 0.0 0.0
0.0 0.0 0.0 0.0 0.0 0.0 0.0 0.0
0.0 0.0 0.0 0.0 0.0 0.0 0.0 0.0
0.0 0.0 0.0 0.0 0.0 0.0 0.0 0.0
0.0 0.0 0.0 0.0 0.0 0.0 0.0 0.0
0.0 0.0 0.0 0.0 0.0 0.0 0.0 0.0
0.0 0.0 0.0 0.0 0.0 0.0 0.0 0.0
0.0 0.0 0.0 0.0 0.0 0.0 0.0 0.0
0.0 0.0 0.0 0.0 0.0 0.0 0.0 0.0
0.0 0.0 0.0 0.0 0.0 0.0 0.0 0.0
0.0 0.0 0.0 0.0 0.0 0.0 0.0 0.0
0.0 0.0 0.0 0.0 0.0 0.0 0.0 0.0
0.0 0.0 0.0 0.0 0.0 0.0 0.0 0.0
0.0 0.0 0.0 0.0 0.0 0.0 0.0 0.0
0.0 0.0 0.0 0.0 0.0 0.0 0.0 0.0
0.0 0.0 0.0 0.0 0.0 0.0 0.0 0.0
0.0 0.0 0.0 0.0 0.0 0.0 0.0 0.0
0.0 0.0 0.0 0.0 0.0 0.0 0.0 0.0
0.0 0.0 0.0 0.0 0.0 0.0 0.0 0.0
0.0 0.0 0.0 0.0 0.0 0.0 0.0 0.0
0.0 0.0 0.0 0.0 0.0 0.0 0.0 0.0
0.0 0.0 0.0 0.0 0.0 0.0 0.0 0.0
0.0 0.0 0.0 0.0 0.0 0.0 0.0 0.0
0.0 0.0 0.0 0.0 0.0 0.0 0.0 0.0
0.0 0.0 0.0 0.0 0.0 0.0 0.0 0.0
0.0 0.0 0.0 0.0 0.0 0.0 0.0 0.0
0.0 0.0 0.0 0.0 0.0 0.0 0.0 0.0
0.0 0.0 0.0 0.0 0.0 0.0 0.0 0.0
00000000: 0000 0000 0000 0000 0000 0000 0000 0000
00000010: 0000 0000 0000 0000 0000 0000 0000 0000
00000020: 0000 0000 0000 0000 0000 0000 0000 0000
00000030: 0000 0000 0000 0000 0000 0000 0000 0000
00000040: 0000 0000 0000 0000 0000 0000 0000 0000
00000050: 0000 0000 0000 0000 0000 0000 0000 0000
00000060: 0000 0000 0000 0000 0000 0000 0000 0000
00000070: 0000 0000 0000 0000 0000 0000 0000 0000
00000080: 0000 0000 0000 0000 0000 0000 0000 0000
00000090: 0000 0000 0000 0000 0000 0000 0000 0000
000000a0: 0000 0000 0000 0000 0000 0000 0000 0000
000000b0: 0000 0000 0000 0000 0000 0000 0000 0000
000000c0: 0000 0000 0000 0000 0000 0000 0000 0000
000000d0: 0000 0000 0000 0000 0000 0000 0000 0000
000000e0: 0000 0000 0000 0000 0000 0000 0000 0000
000000f0: 0000 0000 0000 0000 0000 0000 0000 0000
00000100: 0000 0000 0000 0000 0000 0000 0000 0000
00000110: 0000 0000 0000 0000 0000 0000 0000 0000
00000120: 0000 0000 0000 0000 0000 0000 0000 0000
00000130: 0000 0000 0000 0000 0000 0000 0000 0000
00000140: 0000 0000 0000 0000 0000 0000 0000 0000
00000150: 0000 0000 0000 0000 0000 0000 0000 0000
00000160: 0000 0000 0000 0000 0000 0000 0000 0000
00000170: 0000 0000 0000 0000 0000 0000 0000 0000
00000180: 0000 0000 0000 0000 0000 0000 0000 0000
00000190: 0000 0000 0000 0000 0000 0000 0000 0000
000001a0: 0000 0000 0000 0000 0000 0000 0000 0000
000001b0: 0000 0000 0000 0000 0000 0000 0000 0000
000001c0: 0000 0000 0000 0000 0000 0000 0000 0000
000001d0: 0000 0000 0000 0000 0000 0000 0000 0000
000001e0: 0000 0000 0000 0000 0000 0000 0000 0000
000001f0: 0000 0000 0000 0000 0000 0000 0000 0000
00000200: 0000 0000 0000 0000 0000 0000 0000 0000
00000210: 0000 0000 0000 0000 0000 0000 0000 0000
00000220: 0000 0000 0000 0000 0000 0000 0000 0000
00000230: 0000 0000 0000 0000 0000 0000 0000 0000
00000240: 0000 0000 0000 0000 0000 0000 0000 0000
00000250: 0000 0000 0000 0000 0000 0000 0000 0000
00000260: 0000 0000 0000 0000 0000 0000 0000 0000
00000270: 0000 0000 0000 0000 0000 0000 0000 0000
00000280: 0000 0000 0000 0000 0000 0000 0000 0000
00000290: 0000 0000 0000 0000 0000 0000 0000 0000
000002a0: 0000 0000 0000 0000 0000 0000 0000 0000
000002b0: 0000 0000 0000 0000 0000 0000 0000 0000
000002c0: 0000 0000 0000 0000 0000 0000 0000 0000
000002d0: 0000 0000 0000 0000 0000 0000 0000 0000
000002e0: 0000 0000 0000 0000 0000 0000 0000 0000
000002f0: 0000 0000 0000 0000 0000 0000 0000 0000
00000300: 0000 0000 0000 0000 0000 0000 0000 0000
00000310: 0000 0000 0000 0000 0000 0000 0000 0000
00000320: 0000 0000 0000 0000 0000 0000 0000 0000
00000330: 0000 0000 0000 0000 0000 0000 0000 0000
00000340: 0000 0000 0000 0000 0000 0000 0000 0000
00000350: 0000 0000 0000 0000 0000 0000 0000 0000
00000360: 0000 0000 0000 0000 0000 0000 0000 0000
00000370: 0000 0000 0000 0000 0000 0000 0000 0000
00000380: 0000 0000 0000 0000 0000 0000 0000 0000
00000390: 0000 0000 0000 0000 0000 0000 0000 0000
000003a0: 0000 0000 0000 0000 0000 0000 0000 0000
000003b0: 0000 0000 0000 0000 0000 0000 0000 0000
000003c0: 0000 0000 0000 0000 0000 0000 0000 0000
000003d0: 0000 0000 0000 0000 0000 0000 0000 0000
000003e0: 0000 0000 0000 0000 0000 0000 0000 0000
000003f0: 0000 0000 0000 0000 0000 0000 0000 0000

bn1.running_var f4 [400]
1.0 1.0 1.0 1.0 1.0 1.0 1.0 1.0
1.0 1.0 1.0 1.0 1.0 1.0 1.0 1.0
1.0 1.0 1.0 1.0 1.0 1.0 1.0 1.0
1.0 1.0 1.0 1.0 1.0 1.0 1.0 1.0
1.0 1.0 1.0 1.0 1.0 1.0 1.0 1.0
1.0 1.0 1.0 1.0 1.0 1.0 1.0 1.0
1.0 1.0 1.0 1.0 1.0 1.0 1.0 1.0
1.0 1.0 1.0 1.0 1.0 1.0 1.0 1.0
1.0 1.0 1.0 1.0 1.0 1.0 1.0 1.0
1.0 1.0 1.0 1.0 1.0 1.0 1.0 1.0
1.0 1.0 1.0 1.0 1.0 1.0 1.0 1.0
1.0 1.0 1.0 1.0 1.0 1.0 1.0 1.0
1.0 1.0 1.0 1.0 1.0 1.0 1.0 1.0
1.0 1.0 1.0 1.0 1.0 1.0 1.0 1.0
1.0 1.0 1.0 1.0 1.0 1.0 1.0 1.0
1.0 1.0 1.0 1.0 1.0 1.0 1.0 1.0
1.0 1.0 1.0 1.0 1.0 1.0 1.0 1.0
1.0 1.0 1.0 1.0 1.0 1.0 1.0 1.0
1.0 1.0 1.0 1.0 1.0 1.0 1.0 1.0
1.0 1.0 1.0 1.0 1.0 1.0 1.0 1.0
1.0 1.0 1.0 1.0 1.0 1.0 1.0 1.0
1.0 1.0 1.0 1.0 1.0 1.0 1.0 1.0
1.0 1.0 1.0 1.0 1.0 1.0 1.0 1.0
1.0 1.0 1.0 1.0 1.0 1.0 1.0 1.0
1.0 1.0 1.0 1.0 1.0 1.0 1.0 1.0
1.0 1.0 1.0 1.0 1.0 1.0 1.0 1.0
1.0 1.0 1.0 1.0 1.0 1.0 1.0 1.0
1.0 1.0 1.0 1.0 1.0 1.0 1.0 1.0
1.0 1.0 1.0 1.0 1.0 1.0 1.0 1.0
1.0 1.0 1.0 1.0 1.0 1.0 1.0 1.0
1.0 1.0 1.0 1.0 1.0 1.0 1.0 1.0
1.0 1.0 1.0 1.0 1.0 1.0 1.0 1.0
00000000: 0000 803f 0000 803f 0000 803f 0000 803f
00000010: 0000 803f 0000 803f 0000 803f 0000 803f
00000020: 0000 803f 0000 803f 0000 803f 0000 803f
00000030: 0000 803f 0000 803f 0000 803f 0000 803f
00000040: 0000 803f 0000 803f 0000 803f 0000 803f
00000050: 0000 803f 0000 803f 0000 803f 0000 803f
00000060: 0000 803f 0000 803f 0000 803f 0000 803f
00000070: 0000 803f 0000 803f 0000 803f 0000 803f
00000080: 0000 803f 0000 803f 0000 803f 0000 803f
00000090: 0000 803f 0000 803f 0000 803f 0000 803f
000000a0: 0000 803f 0000 803f 0000 803f 0000 803f
000000b0: 0000 803f 0000 803f 0000 803f 0000 803f
000000c0: 0000 803f 0000 803f 0000 803f 0000 803f
000000d0: 0000 803f 0000 803f 0000 803f 0000 803f
000000e0: 0000 803f 0000 803f 0000 803f 0000 803f
000000f0: 0000 803f 0000 803f 0000 803f 0000 803f
00000100: 0000 803f 0000 803f 0000 803f 0000 803f
00000110: 0000 803f 0000 803f 0000 803f 0000 803f
00000120: 0000 803f 0000 803f 0000 803f 0000 803f
00000130: 0000 803f 0000 803f 0000 803f 0000 803f
00000140: 0000 803f 0000 803f 0000 803f 0000 803f
00000150: 0000 803f 0000 803f 0000 803f 0000 803f
00000160: 0000 803f 0000 803f 0000 803f 0000 803f
00000170: 0000 803f 0000 803f 0000 803f 0000 803f
00000180: 0000 803f 0000 803f 0000 803f 0000 803f
00000190: 0000 803f 0000 803f 0000 803f 0000 803f
000001a0: 0000 803f 0000 803f 0000 803f 0000 803f
000001b0: 0000 803f 0000 803f 0000 803f 0000 803f
000001c0: 0000 803f 0000 803f 0000 803f 0000 803f
000001d0: 0000 803f 0000 803f 0000 803f 0000 803f
000001e0: 0000 803f 0000 803f 0000 803f 0000 803f
000001f0: 0000 803f 0000 803f 0000 803f 0000 803f
00000200: 0000 803f 0000 803f 0000 803f 0000 803f
00000210: 0000 803f 0000 803f 0000 803f 0000 803f
00000220: 0000 803f 0000 803f 0000 803f 0000 803f
00000230: 0000 803f 0000 803f 0000 803f 0000 803f
00000240: 0000 803f 0000 803f 0000 803f 0000 803f
00000250: 0000 803f 0000 803f 0000 803f 0000 803f
00000260: 0000 803f 0000 803f 0000 803f 0000 803f
00000270: 0000 803f 0000 803f 0000 803f 0000 803f
00000280: 0000 803f 0000 803f 0000 803f 0000 803f
00000290: 0000 803f 0000 803f 0000 803f 0000 803f
000002a0: 0000 803f 0000 803f 0000 803f 0000 803f
000002b0: 0000 803f 0000 803f 0000 803f 0000 803f
000002c0: 0000 803f 0000 803f 0000 803f 0000 803f
000002d0: 0000 803f 0000 803f 0000 803f 0000 803f
000002e0: 0000 803f 0000 803f 0000 803f 0000 803f
000002f0: 0000 803f 0000 803f 0000 803f 0000 803f
00000300: 0000 803f 0000 803f 0000 803f 0000 803f
00000310: 0000 803f 0000 803f 0000 803f 0000 803f
00000320: 0000 803f 0000 803f 0000 803f 0000 803f
00000330: 0000 803f 0000 803f 0000 803f 0000 803f
00000340: 0000 803f 0000 803f 0000 803f 0000 803f
00000350: 0000 803f 0000 803f 0000 803f 0000 803f
00000360: 0000 803f 0000 803f 0000 803f 0000 803f
00000370: 0000 803f 0000 803f 0000 803f 0000 803f
00000380: 0000 803f 0000 803f 0000 803f 0000 803f
00000390: 0000 803f 0000 803f 0000 803f 0000 803f
000003a0: 0000 803f 0000 803f 0000 803f 0000 803f
000003b0: 0000 803f 0000 803f 0000 803f 0000 803f
000003c0: 0000 803f 0000 803f 0000 803f 0000 803f
000003d0: 0000 803f 0000 803f 0000 803f 0000 803f
000003e0: 0000 803f 0000 803f 0000 803f 0000 803f
000003f0: 0000 803f 0000 803f 0000 803f 0000 803f

fc2.weight f4 [300, 402]
-0.44519573 0.028283313 -0.07882627 0.06993973 -0.26928467 0.121848755 0.021628154 -0.32729226
-0.3193818 -0.3287283 0.07918125 -0.10655397 -0.073176466 -0.20730576 -0.30700302 -0.088358074
-0.040259268 -0.049652968 0.027257154 -0.3922135 0.20516464 -0.1620511 -0.14699121 0.09581394
-0.26968247 -0.21667613 -0.13092653 -0.19080655 0.013954221 -0.01624071 -0.12246328 -0.60413325
-0.01161125 -0.27875492 0.12801541 0.30984345 0.029579619 0.14711368 0.0770692 -0.0163659
-0.36041787 0.24974029 0.26754543 -0.15315746 -0.060678616 -0.27058235 -0.8044074 -0.2918075
-0.6105606 -0.20248026 -0.09721444 -0.48002633 -0.23380451 0.020307148 -0.11919214 -0.006507838
-0.04828943 -0.060207866 -0.3349806 0.1557582 -0.5916604 0.06697285 -0.36353302 -0.5064762
0.05229422 -0.0738866 0.099622324 -0.38731998 -0.08401253 -0.39515024 0.2223726 -0.2165775
-0.14999902 -0.13030191 -0.21927632 -0.043684833 -0.21747524 -0.14175159 0.04282588 -0.0040520206
-0.55264914 -0.114524856 0.024097634 0.10273994 -0.3038508 -0.16978012 0.23399296 -0.2999747
-0.18238252 -0.34587416 -0.07970302 0.081160076 -0.030316433 0.3024747 0.26887435 -0.22411728
-0.34142727 -0.66044253 -0.31838617 -0.098573565 0.11309004 -0.06884272 -0.15834957 -0.21322824
-0.24032061 -0.13032036 -0.5271108 -0.6208823 -0.17922574 0.0437628 -0.15915611 -0.3889721
-0.0026969577 -0.18738921 -0.28000543 -0.41441286 -0.04946725 -0.22250342 -0.454829 0.022674443
-0.41687736 0.114135966 -0.27072525 0.17358248 0.05662367 0.004468621 -0.35482526 0.09104014
0.1764463 0.13220786 -0.064887136 -0.5120411 -0.2851317 -0.13526614 0.17357591 0.016822284
-0.0028446359 -0.31402743 0.08010446 0.070501305 0.03437873 -0.054554537 -0.48710054 -0.4434385
-0.17058118 0.2939126 -0.073585466 -0.19861302 0.34161055 0.15953429 -0.38168943 -0.21764526
-0.66637075 0.15018813 -0.26461783 -0.102975786 0.024422342 -0.09137801 0.29393312 0.00014797313
0.08097113 -0.24871814 0.24185215 -0.3371464 0.020975178 0.10501772 0.09883299 -0.28700638
-0.121677205 -0.4384376 -0.28103322 -0.2585191 0.112300694 -0.17867158 -0.14408126 -0.22293583
-0.0006033348 0.10067235 -0.2216893 0.21676312 -0.49631503 -0.05913246 -0.24724066 -0.21773168
0.15522857 0.26903266 -0.3082177 -0.2937636 -0.46150115 -0.14275825 -0.20343488 -0.2760809
-0.16610786 -0.28249186 0.3707191 -0.15402676 -0.09724195 -0.23792079 -0.044675652 -0.3486819
0.02681057 -0.06295396 -0.059062675 0.09337611 -0.17173493 -0.15134484 0.23815946 -0.12854359
-0.21703257 -0.28774765 0.009089892 -0.32636452 -0.18097302 -0.25857776 -0.2477932 0.17296523
-0.32733074 -0.20863326 0.016577564 -0.061828356 -0.35754046 -0.3175205 -0.047299556 -0.16979219
-0.10836734 0.27436957 -0.14642611 -0.047824714 0.031823106 -0.2853147 -0.15243587 -0.33721054
-0.111886375 -0.13159554 -0.31656355 -0.31726137 -0.14065528 -0.1604048 0.15183738 0.18384597
-0.4761874 -0.096170895 -0.24707705 0.045777876 -0.4717323 -0.07934077 -0.4762262 -0.27264184
0.08212616 -0.08248132 -0.20883693 -0.1406401 0.16150185 -0.14022793 -0.17092837 -0.21414249
00000000: b2f0 e3be 68b2 e73c ab6f a1bd 903c 8f3d
00000010: aedf 89be d78b f93d 872d b13c da92 a7be
00000020: 0386 a3be 134f a8be c729 a23d f838 dabd
00000030: 8bdd 95bd f647 54be 802f 9dbe 14f5 b4bd
00000040: e7e6 24bd e960 4bbd 654a df3c 35d0 c8be
00000050: ae16 523e b9f0 25be dd84 16be 193a c43d
00000060: d213 8abe 59e0 5dbe 9b11 06be cb62 43be
00000070: 3fa0 643c 3d0b 85bc 07ce fabd 7aa8 1abf
00000080: 1d3d 3ebc f7b8 8ebe 7916 033e cda3 9e3e
00000090: f550 f23c f8a4 163e 75d6 9d3d c811 86bc
000000a0: b188 b8be ebbb 7f3e b7fb 883e 4fd5 1cbe
000000b0: 248a 78bd c589 8abe a5ed 4dbf cb67 95be
000000c0: b34d 1cbf fc56 4fbe 5d18 c7bd 03c6 f5be
000000d0: 736a 6fbe 2d5b a63c 021b f4bd b43f d5bb
000000e0: 23cb 45bd 869c 76bd 9482 abbe 147f 1f3e
000000f0: 0e77 17bf 1029 893d 0021 babe 6da8 01bf
00000100: 7732 563d dc51 97bd ca06 cc3d ce4e c6be
00000110: c30e acbd 2251 cabe a5b5 633e 7ec6 5dbe
00000120: 5899 19be dd6d 05be f989 60be deee 32bd
00000130: d4b1 5ebe 5427 11be 316a 2f3d d0c6 84bb
00000140: 6a7a 0dbf 028c eabd 6768 c53c 5169 d23d
00000150: 5592 9bbe d7da 2dbe da9b 6f3e 4996 99be
00000160: 7cc2 3abe 6b16 b1be 563b a3bd 4137 a63d
00000170: 2b5a f8bc f7dd 9a3e e6a9 893e 007f 65be
00000180: 8ecf aebe c312 29bf 8303 a3be f0e0 c9bd
00000190: c09b e73d 69fd 8cbd 6426 22be 8158 5abe
000001a0: 9b16 76be b372 05be bcf0 06bf 24f2 1ebf
000001b0: f486 37be 9f40 333d d2f9 22be 5a27 c7be
000001c0: 71bf 30bb f5e2 3fbe df5c 8fbe ec2d d4be
000001d0: 2c9e 4abd f0d7 63be 59df e8be c1bf b93c
000001e0: f370 d5be 1ec0 e93d 809c 8abe 9bbf 313e
000001f0: 39ee 673d 836d 923b a8ab b5be 4173 ba3d
00000200: 57ae 343e 7f61 073e 8ce3 84bd 2015 03bf
00000210: c8fc 91be 3583 0abe e2bd 313e e3ce 893c
00000220: 126d 3abb 34c8 a0be cf0d a43d fd62 903d
00000230: b6d0 0c3d 9474 5fbd 3e65 f9be 5f0a e3be
00000240: d5ac 2ebe b67b 963e fab3 96bd 3661 4bbe
00000250: 94e7 ae3e f55c 233e cc6c c3be 66de 5ebe
00000260: 4697 2abf ebca 193e fd7b 87be f8e4 d2bd
00000270: 5d11 c83c 6524 bbbd 677e 963e 3c29 1b39
00000280: 31d4 a53d f8af 7ebe 17a8 773e 749e acbe
00000290: 23d4 ab3c 8813 d73d f368 ca3d 80f2 92be
000002a0: e631 f9bd e57a e0be 96e3 8fbe 9e5c 84be
000002b0: e8fd e53d aff5 36be 0a8a 13be 4a49 64be
000002c0: 1d29 1eba 4e2d ce3d 8502 63be 27f7 5d3e
000002d0: 011d febe e134 72bd a82c 7dbe 0ef5 5ebe
000002e0: 3df4 1e3e a6be 893e b6ce 9dbe 2f68 96be
000002f0: e149 ecbe 382f 12be 3c51 50be 7a5a 8dbe
00000300: 2e18 2abe c6a2 90be e5ce bd3e 31b9 1dbe
00000310: ca26 c7bd 82a1 73be d1fd 36bd 6f86 b2be
00000320: d7a1 db3c 01ee 80bd b4eb 71bd f93b bf3d
00000330: 48db 2fbe 24fa 1abe 13e0 733e eea0 03be
00000340: c93d 5ebe a953 93be c5ed 143c 4019 a7be
00000350: fe50 39be 4e64 84be 80bd 7dbe cc1d 313e
00000360: e597 a7be f5a3 55be accd 873c bb3f 7dbd
00000370: 8b0f b7be 0c92 a2be 2ebd 41bd 01de 2dbe
00000380: b2ef ddbd 2b7a 8c3e baf0 15be d9e3 43bd
00000390: f258 023d c514 92be 2618 1cbe dca6 acbe
000003a0: af24 e5bd fbc0 06be 9e14 a2be 1570 a2be
000003b0: f007 10be 2841 24be 427b 1b3e 1e42 3c3e
000003c0: d6ce f3be 3ff5 c4bd c401 7dbe 9581 3b3d
000003d0: e586 f1be 6a7d a2bd ecd3 f3be b697 8bbe
000003e0: c331 a83d f7eb a8bd 59d9 55be f503 10be
000003f0: be60 253e e997 0fbe d907 2fbe 2b48 5bbe

fc2.bias f4 [300]
-0.5391105 -0.8563964 -0.5897353 -0.5262241 -0.10316502 0.22987519 -0.03371203 -0.19862072
0.19751458 -0.4241781 -0.46208125 -0.054177076 -0.16007297 -0.4191066 0.062019788 -0.88942534
-0.0013252323 0.20006931 -0.097737856 -0.011900828 -0.45483378 0.049050957 -0.05115312 -0.3888426
-0.23248658 -0.025887633 -0.43631712 0.010907417 -0.6624617 -0.94843715 0.34660107 0.38120058
-0.07020252 0.13127945 -0.07566751 0.13495006 -0.31809142 -0.56730616 -0.6470939 -0.22924006
-0.28340006 -0.59328425 -0.01067213 -0.38396123 0.21465385 0.017220898 0.14246474 0.33280605
-0.08889826 -0.12217088 -0.20768034 -0.17344221 -0.17684446 -0.29094294 0.017837705 0.073397726
-0.28089088 0.03419812 0.2302188 -0.113814235 -0.4492167 -0.8498433 -0.33525336 -0.104555406
-0.10898162 0.16445667 -0.8756803 -0.20452623 -0.11708328 -0.28882265 -0.21519673 -0.21143414
-0.17251275 0.11483122 -0.20736238 -0.21247695 -0.18023954 -0.3202997 -0.21578746 0.018812671
-0.38396043 0.27043208 -0.2748076 0.09670577 -0.78599 -0.20299874 -0.2598819 0.0016983731
-0.97023207 -0.18489839 -0.013491674 0.1291501 0.0072717704 0.52163696 -0.57610947 -0.26874068
-0.029286243 -0.035042744 -0.043762505 -0.6706784 0.07439066 -0.26978782 -0.03562817 -0.40779188
-0.38863295 -0.023979504 -0.018360589 -0.36645558 -0.2765777 -0.1593981 -0.09317364 -0.43685693
-0.063794866 -0.43998256 0.0037161524 -0.045754604 -0.07217214 -0.17486887 -0.0076788836 0.09629053
-0.25117388 -0.20018919 0.11233504 -0.13568547 -0.45379946 -0.32542017 -0.6137052 -0.69941044
-0.3503939 -0.086809225 -0.448107 -0.07134692 -0.37677762 -0.058821604 -0.13326694 -0.2429856
-0.56935185 -0.44834015 -0.09495707 -0.31934515 -0.8222034 -0.32727444 -0.2804644 -0.72217447
-0.32407638 0.05164409 -0.15040357 -0.24979092 -0.31217518 -0.5349022 -0.13403478 -0.5894353
-0.32169947 -0.2729211 -0.15658577 -0.22777447 -0.49293458 -0.19535036 -0.50121874 0.08524843
-0.18275136 -0.9860656 -0.019153904 -0.15185001 -0.19328414 -0.300381 -0.15853734 0.09364787
-0.09160641 -0.25372428 -0.4312246 0.25430474 -0.17137897 0.12033803 -0.05785265 -0.043793406
-0.16794844 -0.18198167 -0.04438641 -0.12601024 0.040747758 0.06518303 0.05451664 -0.21589538
-0.33960602 0.052173126 -0.05736361 -0.6952641 -0.5939342 0.10215143 -0.22792608 -0.5982131
-0.06640877 -0.2925575 -0.3521078 -0.024133518 -0.3657441 -0.6269376 0.008863683 -0.32889053
-0.0678289 -0.08772809 -0.19257028 -0.028230129 0.07087466 -0.26046786 -0.57703507 -0.020030366
-0.1306593 0.04559748 -0.28696784 -0.4882914 -0.43714222 -0.27970594 -0.24156527 -0.16767564
-0.09540097 -0.10398132 -0.25053626 -0.39332068 -0.05757914 -0.31362692 -0.2759549 -0.21363908
0.039551273 -0.11676278 -0.1546433 -0.22349997 -0.057085495 0.06030618 -0.37121385 -0.7023007
-0.3916852 -0.06691532 -0.09678422 -0.029384455 -0.651188 -0.6004929 -0.21500978 -0.5649714
-0.3700976 -0.5394311 -0.23732984 0.18028212 -0.6144789 0.14054441 0.042810023 -0.19984356
0.0687331 -0.28563043 -0.3959285 -0.29170763 -0.5185504 0.15562394 -0.20975192 -0.35787514
00000000: 2503 0abf cb3c 5bbf e5f8 16bf 9fb6 06bf
00000010: 2f48 d3bd 6764 6b3e a015 0abd 3b63 4bbe
00000020: 4341 4a3e df2d d9be ea95 ecbe c8e8 5dbd
00000030: 2bea 23be 2495 d6be 7608 7e3d 61b1 63bf
00000040: 6bb3 adba f8de 4c3e c92a c8bd b1fb 42bc
00000050: f9df e8be a8e9 483d ef85 51bd 6116 c7be
00000060: f610 6ebe 4d12 d4bc f564 dfbe 06b5 323c
00000070: 1797 29bf c7cc 72bf b275 b13e b92c c33e
00000080: 57c6 8fbd 1f6e 063e 91f7 9abd 5930 0a3e
00000090: e1dc a2be fa3a 11bf f2a7 25bf e8bd 6abe
000000a0: d019 91be 7ae1 17bf 28da 2ebc 9196 c4be
000000b0: 38ce 5b3e d712 8d3c 47e2 113e 8e65 aa3e
000000c0: 4a10 b6bd ba34 fabd 28aa 54be d69a 31be
000000d0: b716 35be 79f6 94be 6120 923c 8c51 963d
000000e0: eed0 8fbe 5413 0c3d 7abe 6b3e 7017 e9bd
000000f0: bbff e5be 558f 59bf 54a6 abbe 2521 d6bd
00000100: c131 dfbd 5467 283e 962c 60bf 536f 51be
00000110: 5cc9 efbd 90e0 93be 885c 5cbe 3182 58be
00000120: 2fa7 30be a12c eb3d ce56 54be 8f93 59be
00000130: b790 38be 53fe a3be 63f7 5cbe 081d 9a3c
00000140: 7696 c4be 1376 8a3e 95b3 8cbe ad0d c63d
00000150: a436 49bf e7de 4fbe 3e0f 85be f29b de3a
00000160: 2161 78bf 0156 3dbe 2f0c 5dbc ec3f 043e
00000170: 0848 ee3b 008a 053f e97b 13bf 6198 89be
00000180: b4e9 efbc fb88 0fbd 5040 33bd 94b1 2bbf
00000190: 215a 983d a121 8abe d8ee 11bd 19ca d0be
000001a0: e6fa c6be aa70 c4bc f268 96bc 11a0 bbbe
000001b0: 989b 8dbe 4139 23be d2d1 bebd b6ab dfbe
000001c0: e2a6 82bd 6545 e1be b18a 733b 2e69 3bbd
000001d0: fdce 93bd d310 33be 259f fbbb f833 c53d
000001e0: dd99 80be 65fe 4cbe ea0f e63d 22f1 0abe
000001f0: 6758 e8be 799d a6be c91b 1dbf 900c 33bf
00000200: d466 b3be 09c9 b1bd 486e e5be 561e 92bd
00000210: ffe8 c0be ecee 70bd 2177 08be 38d1 78be
00000220: 0bc1 11bf d78c e5be da78 c2bd 3581 a3be
00000230: ec7b 52bf 8490 a7be 0899 8fbe 6de0 38bf
00000240: 57ed a5be c188 533d 6503 1abe 31c9 7fbe
00000250: 6dd5 9fbe 5aef 08bf 6a40 09be 3be5 16bf
00000260: cbb5 a4be 50bc 8bbe 0558 20be b63d 69be
00000270: ec61 fcbe ed09 48be df4f 00bf bb96 ae3d
00000280: 2c23 3bbe cc6e 7cbf a6e8 9cbc 927e 1bbe
00000290: 47ec 45be 8acb 99be 9d57 22be 74ca bf3d
000002a0: 249c bbbd 26e8 81be 79c9 dcbe 3b34 823e
000002b0: f87d 2fbe c973 f63d e6f6 6cbd b760 33bd
000002c0: adfa 2bbe 6759 3abe 86ce 35bd d408 01be
000002d0: 1fe7 263d ae7e 853d d74c 5f3d ae13 5dbe
000002e0: d7e0 adbe 7db3 553d 1bf6 6abd d4fc 31bf
000002f0: 120c 18bf c534 d13d 7465 69be 7e24 19bf
00000300: 5201 88bd 19ca 95be 7947 b4be a8b3 c5bc
00000310: d042 bbbe fc7e 20bf fb38 113c 5764 a8be
00000320: e1e9 8abd c9aa b3bd 2531 45be df42 e7bc
00000330: bc26 913d 0b5c 85be 92b8 13bf b916 a4bc
00000340: 8dcb 05be 6cc4 3a3d 73ed 92be 5501 fabe
00000350: 1bd1 dfbe 9e35 8fbe e35c 77be 2ab3 2bbe
00000360: 9561 c3bd 29f4 d4bd 4a46 80be 5461 c9be
00000370: 1bd8 6bbd b593 a0be f649 8dbe 34c4 5abe
00000380: 8400 223d 5321 efbd d05a 1ebe 2ddd 64be
00000390: 7bd2 69bd 9d03 773d be0f bebe fbc9 33bf
000003a0: f68a c8be e60a 89bd ce36 c6bd abb7 f0bc
000003b0: 42b4 26bf e7b9 19bf 862b 5cbe f7a1 10bf
000003c0: 6f7d bdbe 2818 0abf 9806 73be e09b 383e
000003d0: 7d4e 1dbf e0ea 0f3e 9059 2f3d caa3 4cbe
000003e0: f1c3 8c3d 273e 92be 24b7 cabe b45a 95be
000003f0: b8bf 04bf e25b 1f3e 35c9 56be 693b b7be
