checkpoint_critic.pth (torch_old, 895373 bytes, 15 tensors)

bn0.weight f4 [24]
00000000: 38c3 a73d 5e76 fb3e 767c ce3e 4c97 c53e
00000010: 579e 613f b18f 613f 4768 393f 9dd6 003f
00000020: 7f2a 533f e8e0 863e 4e5b 9f3e d943 183f
00000030: 7099 df3d fa0d 1f3f 182b 3c3f 2765 7d3f
00000040: 929f 6a3f 1a33 a63e 8e1a 5f3f 2030 633f
00000050: 5b4f 673f 04a5 613e a496 cc3e 5085 6e3e
0.08191532 0.49113744 0.4032933 0.38591993 0.8813223 0.8810988 0.7242474 0.50327474
0.8248672 0.26343465 0.31124347 0.5947853 0.10917938 0.621307 0.73503256 0.9898247
0.91649735 0.32460862 0.87149894 0.8874531 0.9035546 0.22035605 0.3995868 0.23293042

bn0.bias f4 [24]
00000000: 0000 0000 0000 0000 0000 0000 0000 0000
00000010: 0000 0000 0000 0000 0000 0000 0000 0000
00000020: 0000 0000 0000 0000 0000 0000 0000 0000
00000030: 0000 0000 0000 0000 0000 0000 0000 0000
00000040: 0000 0000 0000 0000 0000 0000 0000 0000
00000050: 0000 0000 0000 0000 0000 0000 0000 0000
0.0 0.0 0.0 0.0 0.0 0.0 0.0 0.0
0.0 0.0 0.0 0.0 0.0 0.0 0.0 0.0
0.0 0.0 0.0 0.0 0.0 0.0 0.0 0.0

bn0.running_mean f4 [24]
00000000: 0000 0000 0000 0000 0000 0000 0000 0000
00000010: 0000 0000 0000 0000 0000 0000 0000 0000
00000020: 0000 0000 0000 0000 0000 0000 0000 0000
00000030: 0000 0000 0000 0000 0000 0000 0000 0000
00000040: 0000 0000 0000 0000 0000 0000 0000 0000
00000050: 0000 0000 0000 0000 0000 0000 0000 0000
0.0 0.0 0.0 0.0 0.0 0.0 0.0 0.0
0.0 0.0 0.0 0.0 0.0 0.0 0.0 0.0
0.0 0.0 0.0 0.0 0.0 0.0 0.0 0.0

bn0.running_var f4 [24]
00000000: 0000 803f 0000 803f 0000 803f 0000 803f
00000010: 0000 803f 0000 803f 0000 803f 0000 803f
00000020: 0000 803f 0000 803f 0000 803f 0000 803f
00000030: 0000 803f 0000 803f 0000 803f 0000 803f
00000040: 0000 803f 0000 803f 0000 803f 0000 803f
00000050: 0000 803f 0000 803f 0000 803f 0000 803f
1.0 1.0 1.0 1.0 1.0 1.0 1.0 1.0
1.0 1.0 1.0 1.0 1.0 1.0 1.0 1.0
1.0 1.0 1.0 1.0 1.0 1.0 1.0 1.0

fcs1.weight f4 [400, 24]
00000000: 4426 923e dc55 85bf abfd 2cbc fa34 c93c
00000010: 48d2 17bf 6a50 ddbe df8f 3abc 23a8 323d
00000020: 4acd e23e 0e36 b2bf 88ee 2dbc 0e1d 7b3e
00000030: 5d3a 12bf e668 75be c590 cb3b 18c9 8d3e
00000040: 08ae 283f 5df3 98bf 13a5 a43d 7ea9 b3bc
00000050: 36b8 14bf 48bc 64be 3d4d c43d e954 653d
00000060: f21e e03f 2ebe 403f dc3c 06be d9de 89be
00000070: 7045 d73e bfd9 08bf a2e7 f3bd cf1b a1be
00000080: d785 d63d 699f 223f b7a2 eb3d 044c 473c
00000090: 942b 233e 2cc1 96bf 2909 ef3d cd7b 233d
000000a0: adde f33d 1587 0e3f d076 d83c 8c21 a2be
000000b0: 6871 dbbe 5691 57be 3ed6 1c3d b931 a7be
000000c0: 1f4f 9cbe fd5f e73f 5b51 b1bd 7a6f debd
000000d0: c343 673d aabc 26bf c144 0ebd 6def c1bd
000000e0: 48f1 b0be 23b9 c63f 81c5 303b 7646 b53d
000000f0: bfe5 983d 1ed9 9dbf 6e8c 863b 646b 5e3d
00000100: c5e6 adbe 3fd5 af3f 7101 55bd 1546 403e
00000110: 84e6 053e d525 15c0 3cf4 093c 16a1 d53d
00000120: 6f0d ad3f d2fc 17bf 8b64 afbd 4326 dc3d
00000130: 9cde 143f 2431 93bf 340b 03bd 43c8 8c3d
00000140: 992f 393f 3c89 1bbf 0a1b 9bbd d26b a6bd
00000150: e41c 063f 0914 cebe 5e56 f5bd 9865 2abd
00000160: 764d 143f 3c8c 72bf 4cc2 b6bb 161e 63bd
00000170: 1778 6f3f 2610 89c0 1479 70bd 3dd2 9dbd
00000180: 6de3 72be 963e dd3f ba5e 8b3c dc54 0abc
00000190: 2e04 483d 5156 50bf 2863 74bd 12ab 8e3c
000001a0: dc09 acbe fc6f ee3f cb3c 7f3c e1c1 0c3d
000001b0: 7741 d13d 008c 79bf 683f 3d3c 3708 3dbd
000001c0: 25b7 98be 6995 d63f 9fb1 16be abc8 fbbd
000001d0: a5ca c53e 93b6 1bc0 ef70 95bd fefd cebd
000001e0: 0829 33be 9906 833e c330 99bc fa29 1fbd
000001f0: 900d 66be 492c 09bf 156c 0abd 2298 bcbc
00000200: 4c94 853d 40e3 ad3c 4c28 36bd 096b 9e3a
00000210: 9ff8 01be 86e5 40bd 79c1 053c 7351 b5bc
00000220: 5488 b33e c615 d13e c031 7dbc 08fc 94bc
00000230: 0568 7f3e 1c86 8b3e 7581 80bd cc48 9ebd
00000240: 1c87 433e b673 1bbf 014f 28bb 7533 a03e
00000250: 7d24 69be 3b47 f5be 4e99 1a3d fc51 963e
00000260: 9690 e93d a5c7 3b3e fb16 fbbd c97b 0e3f
00000270: eaa0 d7bd 343d 6dbf c672 55bd 1535 f43e
00000280: 3081 143f ee94 123e c239 143d 95a8 4ebf
00000290: 92bd 6b3d 2ea3 f5be 1caf 103c ada1 4dbf
000002a0: 8123 c4bc bfd5 f73f 2a88 c93d 0e06 283d
000002b0: 4fab 12bd 883a ddbe a524 2b3d 868b 92bc
000002c0: 87da 8bbe 5a08 0340 e2c2 ce3d 0140 833e
000002d0: a3ef 00bd f216 78bf 5f17 433d e51c 8e3e
000002e0: c560 1cbe edb5 0a40 c92f 65bd b48e 4a3e
000002f0: c644 093e 1fc0 26c0 0b64 0cbe 1af3 1d3e
00000300: a1a6 16be a060 07bd 5ff7 66bc 0ae7 69bd
00000310: a050 dcbe 821a 39bf 9ef5 8c3d 2412 b9bd
00000320: 6219 633e 8e22 80be e4f0 5fbd 25b4 69be
00000330: ebf5 1fbe f660 a6bf a502 e6bc 93c6 32be
00000340: 8fec b63e be04 6ebe 703b 2b3e 6cb3 b3bc
00000350: 7e0b 2c3e 9f68 bbbf a678 303e 44ed 33bd
00000360: f622 38be 60e8 66bb a8e3 77bd 9de4 56bd
00000370: 7b9f 2c3e 4e67 d3be 3d13 e43c 5429 16bc
00000380: 58fa 16bd edda 603d b3eb 023c 8448 8d3d
00000390: 1052 0c3e 7858 d8bd fa6c bd3c 3f58 67bb
000003a0: 5f2e 193e 8dee 513e 0f43 3cbd 9c4c 753c
000003b0: 074e 90be 4366 09be e102 233d 3900 a5bd
000003c0: c246 ecbd d359 433e b4e6 00bd 8188 8fbd
000003d0: d2e9 6dbe 48e5 b4be 8d67 313c 4141 fbbc
000003e0: 2a60 7bbd f95c ab3e d04a 3cbd c6e8 2b3d
000003f0: a01f ebbd 63c4 263d 4c6d bdbb 80ee a2bc
0.2854482 -1.0416827 -0.010558526 0.024561394 -0.5930524 -0.43225414 -0.011386841 0.04361738
0.44297248 -1.3922746 -0.010615952 0.24522802 -0.57120305 -0.23965797 0.006212326 0.27692485
0.6589055 -1.1949269 0.08039298 -0.021931406 -0.58093584 -0.22337449 0.095850445 0.05598918
1.7509444 0.7529019 -0.13109154 -0.26927832 0.42045164 -0.53457254 -0.11909415 -0.3146653
0.10474747 0.6352449 0.11505645 0.01216412 0.15934592 -1.1777701 0.11671669 0.039912988
0.119077064 0.5567487 0.026423842 -0.3166622 -0.4285996 -0.21051535 0.038290255 -0.32655123
-0.30529115 1.8076168 -0.086580954 -0.10861106 0.056461107 -0.6513163 -0.034733538 -0.09469495
-0.34559083 1.5525249 0.002697319 0.0885133 0.074656956 -1.2331884 0.004106096 0.054301634
-0.33965126 1.3736953 -0.052003328 0.18776734 0.13076216 -2.330434 0.008420046 0.10431115
1.3519725 -0.5937015 -0.08564099 0.10749485 0.58152175 -1.1499372 -0.031993106 0.068741344
0.72338253 -0.6075628 -0.07573517 -0.08126034 0.52387834 -0.4024966 -0.11979364 -0.041600794
0.57930696 -0.9474523 -0.005577361 -0.055448614 0.9354262 -4.2832212 -0.05870922 -0.077061154
-0.23719569 1.7284725 0.017012943 -0.008443084 0.04883211 -0.8138171 -0.059664875 0.017415557
-0.33601272 1.8627925 0.015578459 0.034364585 0.102175646 -0.9747925 0.011550762 -0.046150412
-0.29827228 1.6764346 -0.14716195 -0.12294134 0.38631168 -2.4330184 -0.07296931 -0.10107039
-0.17496121 0.2559097 -0.01870001 -0.03885839 -0.22466111 -0.535832 -0.03379448 -0.023021761
0.06522426 0.021226525 -0.044472024 0.0012086342 -0.12692498 -0.04709389 0.008163803 -0.022133565
0.35064948 0.40836924 -0.015453756 -0.018186584 0.24942024 0.27250755 -0.06274692 -0.07728729
0.19094509 -0.60723436 -0.0025681856 0.3128926 -0.22767825 -0.47905907 0.03774386 0.29359424
0.11404531 0.18337877 -0.122602426 0.5565763 -0.10528739 -0.92671514 -0.05211141 0.47696748
0.58009624 0.14314625 0.036187895 -0.80725986 0.057553835 -0.4797606 0.008830812 -0.8032482
-0.02394271 1.9362105 0.09840424 0.0410214 -0.035807904 -0.43208718 0.041782994 -0.017888796
-0.2731516 2.0473847 0.10095765 0.2563477 -0.031478535 -0.9691001 0.04762971 0.2775642
-0.1527129 2.1673539 -0.055953775 0.19781 0.13405141 -2.6054761 -0.13710038 0.15424767
-0.14712001 -0.033051133 -0.014097064 -0.0571051 -0.43030262 -0.7230607 0.06882785 -0.09036663
0.22177652 -0.25026363 -0.05467309 -0.22822626 -0.15621154 -1.299834 -0.028077433 -0.17458563
0.35727355 -0.23243997 0.16721892 -0.021936141 0.16801259 -1.4641303 0.17233524 -0.043927446
-0.17982087 -0.003523372 -0.060519844 -0.052464116 0.16857712 -0.41289753 0.027841205 -0.009165127
-0.03685984 0.054896284 0.007990765 0.06898597 0.1370318 -0.10563749 0.023123253 -0.0035300402
0.14959095 0.20501156 -0.04596239 0.014971878 -0.2818453 -0.13417916 0.039797667 -0.08056683
-0.115369335 0.19077234 -0.031470016 -0.07008458 -0.23233727 -0.35331178 0.010827911 -0.030670764
-0.061371006 0.3346937 -0.045969784 0.041970037 -0.11480641 0.040714633 -0.0057808515 -0.019889116

fcs1.bias f4 [400]
00000000: de44 33bf 7b41 1cbb aa26 773e 4b15 f3be
00000010: fc67 9abd 39c5 e7bf 5caa cabe 0c79 223d
00000020: 9c09 94be 6df0 dabf 6aeb bbbf 6b97 f93e
00000030: 14c9 9d3e 2ab6 d6bd 106d 1ebd 1873 0cbf
00000040: f760 c1bf 4910 873f 143e b4be 86b3 773e
00000050: 35f2 3ec0 e13a c7bf 37ce 6ebe 885d 653f
00000060: 4da9 30bf c8c3 babf 860b 2fc0 50f2 5abf
00000070: 13a2 11c0 4107 cdbf bd51 c6bf 6478 32bc
00000080: bd71 09c0 23d3 bf3e ae5d fcbf 3af9 0ac0
00000090: e547 2ebf ccdb 07c0 c0e2 f1be de2b bebf
000000a0: f7c3 903d 5da9 3ec0 d13b 03c0 3202 b6bf
000000b0: b16f a1bf 74aa 3b3e 3c90 c63f da2b abbe
000000c0: 67d5 c2bc ec37 a4be b352 01c0 c7ab 113e
000000d0: 3bb5 2abe 0d98 f0bf 9e7d 09bf 922d d5bf
000000e0: cdc5 09c0 baf5 a1bf 1f3b 5abf 03a8 24bf
000000f0: f9cb ccbf c2d7 dbbc 9bf9 df3e 858e b93c
00000100: 0d53 b0bf 6088 adbf 3231 f7bf af80 27bf
00000110: 7cf1 4b3e f31c 563e 022a 6ebf d42a ca3e
00000120: 6307 5bbf 8c3d 94bf f80a 6fbd 1b94 02c0
00000130: b8dd 68bf eb30 4cbe 2cfc fcbd d45e 12bf
00000140: de76 d83b 7e62 f3be 003d ddbf 3b9e 10c0
00000150: 1cfc b3bf 93a0 00c0 1268 20c0 ef6a ebbd
00000160: 143b 683f 342b 34be 189b 0bc0 eed1 9dbe
00000170: 0d3d a5bf 0e29 0dc0 adb2 6ebe 79fc c6be
00000180: 7529 ccbf 9517 183f 5589 56bf aca3 103e
00000190: b19a dbbf addb 11c0 83d7 043d 1e94 efbf
000001a0: 01f3 e6bf 5fb6 383e 8860 ee3f f7cb d4bf
000001b0: 614e 2d3f 3f0f 9dbf e2d8 babf adc9 883d
000001c0: 79c2 e7bf e00f 2a3e a474 5dbf 923b 63bf
000001d0: b425 3bbf 950d ea3d fcd5 d4bf d751 cebe
000001e0: 0588 b1bf 41c7 abbf e4eb c5be 5f4e 0fc0
000001f0: 63a1 ebbf efd0 8fbf f03e 8fbe b787 b73e
00000200: be6f 41c0 3734 17c0 eaa9 b7bf 5db4 b3bf
00000210: c54e bebf 088b f8be 634e 36c0 9ec3 e4bf
00000220: 5600 a9bd 1d2a 85bf cdec 09c0 1a28 d63e
00000230: e64c 9abe e861 19c0 8b47 3b3e 706b 80bf
00000240: 2693 27bf 1e32 48c0 0556 1f3f 3816 0dc0
00000250: 9f08 17c0 32a5 ffbf 078b 913e bcb3 b9bf
00000260: b4ee aa3e 92fb b9bf 267e cebf 77a1 92bf
00000270: f574 07bf df1d babf 874e 02c0 8273 21c0
00000280: 6eab 51bf ad6d bebe adf1 06c0 c7a3 5c3e
00000290: be92 2dbf faac c6bf 7ea0 d6bf b550 50be
000002a0: 218f e2be 5cf1 30bf 6267 29bf 2e16 40bf
000002b0: fe0d fbbf ded5 c93e 144a 2bbf 0650 17bf
000002c0: d00d 99bc 840c f6bf 3833 38bf ca44 b6bf
000002d0: 06d1 1b3e 1941 19bf 2ae5 b6bc fee6 27bd
000002e0: d257 e2bf f03e f9bf 0c77 58be e27b c23c
000002f0: dc45 bd3d 9375 07c0 b055 a1be 3918 503e
00000300: 4a9d dfbf ff4f b83d 1b57 24c0 aa13 06be
00000310: 3b50 9ebe 3693 bebe b2ed 053f 852f 153e
00000320: 45d9 e4bd 7a01 903e 3e01 18be 746f 4dbf
00000330: 3cd1 f8bf 9cc7 e1bf 3b33 36c0 7a88 c43e
00000340: d342 71bf dfdf da3e d146 8fbe e0a8 15bf
00000350: 005d 46bf 6690 78bf aaf9 ecbf c78b d5bf
00000360: 284b e73c 0989 34be 92bb aebf 0b3e b439
00000370: cef7 6ebe fba4 9abf 8438 05c0 47e4 0dc0
00000380: d6d7 763d be48 11c0 9f08 c4bf 558c da3e
00000390: f3a0 b3bf 9ac6 bd3d 5f09 dd3e 00ae e7be
000003a0: 124a c6bf 86d1 a13e 11b7 d6be f1ba 80bf
000003b0: f0b8 233e b186 4fbe 2ce8 d9bf ac89 a2bf
000003c0: c4db 663d 5d4c 09bf 4b58 edbf afa4 febf
000003d0: 2dc6 49bf 3b43 c3be 7e09 c03e 3797 e1bf
000003e0: b7af 08c0 b573 afbf 08b6 0abd b294 04bd
000003f0: 397e 12c0 7ad2 98bf ce41 3e3f 9660 9b3f
-0.7002696 -0.002384274 0.24135843 -0.47477183 -0.07539365 -1.8107063 -0.395831 0.03966622
-0.2891358 -1.7104622 -1.4681218 0.48748335 0.30817473 -0.10483964 -0.03867823 -0.5486312
-1.5107716 1.0551845 -0.35203612 0.24189577 -2.9835331 -1.5564843 -0.23320852 0.8959584
-0.6900833 -1.4590998 -2.7350783 -0.8552599 -2.2755172 -1.6017839 -1.5493695 -0.010892961
-2.147567 0.37465772 -1.9716089 -2.1714616 -0.6807845 -2.1227903 -0.4724331 -1.4857137
0.07068627 -2.979087 -2.050526 -1.421942 -1.261221 0.18326741 1.5512767 -0.33431894
-0.023783399 -0.32073915 -2.0206726 0.14225684 -0.16670696 -1.8796402 -0.537073 -1.6654532
-2.1526978 -1.2653115 -0.8524646 -0.64318866 -1.5999748 -0.02683628 0.4374512 0.022650966
-1.3775345 -1.3557243 -1.9311888 -0.6543073 0.19916338 0.20909481 -0.9303285 0.394858
-0.85558146 -1.1581283 -0.05836007 -2.0402896 -0.90963316 -0.19940536 -0.123527855 -0.57175946
0.006605967 -0.4753608 -1.7284241 -2.2596576 -1.4061313 -2.0098007 -2.506352 -0.11495005
0.90715146 -0.17594606 -2.1813412 -0.30824226 -1.2909256 -2.2056308 -0.23310347 -0.38864496
-1.5950152 0.59410983 -0.838033 0.14124936 -1.7156583 -2.279033 0.03243209 -1.8717077
-1.8042909 0.18038319 1.8623209 -1.6624745 0.6769772 -1.2270278 -1.4597437 0.066790916
-1.8106223 0.16607618 -0.86506104 -0.8876277 -0.73104405 0.11428372 -1.6627803 -0.40296814
-1.3869635 -1.3420182 -0.38656533 -2.2391584 -1.8408626 -1.1235636 -0.27977705 0.3584573
-3.0224452 -2.362562 -1.4348729 -1.4039418 -1.4867789 -0.48543572 -2.8485343 -1.7872198
-0.08252017 -1.0403477 -2.1550782 0.4182747 -0.30136794 -2.3966007 0.1828901 -1.0032787
-0.65458906 -3.128059 0.6224063 -2.2044811 -2.3599012 -1.9972289 0.28426382 -1.4507976
0.3338524 -1.4529898 -1.6132247 -1.1455525 -0.5291284 -1.4540366 -2.036043 -2.522675
-0.81902206 -0.3719305 -2.1085007 0.21546851 -0.67802036 -1.5521538 -1.6767728 -0.20343287
-0.44249824 -0.69118285 -0.66173375 -0.75033844 -1.9613645 0.3942098 -0.6690991 -0.5910648
-0.018683344 -1.922257 -0.71953154 -1.4239743 0.15216455 -0.59864956 -0.02232607 -0.040991776
-1.7683051 -1.9472332 -0.21139163 0.023740713 0.0924184 -2.1165512 -0.31510687 0.2032174
-1.7469876 0.08999633 -2.5678165 -0.13093439 -0.30920586 -0.37221688 0.5231582 0.14568909
-0.111742534 0.28126127 -0.14844224 -0.8024819 -1.9438853 -1.7639041 -2.8468769 0.38385373
-0.9424259 0.42748925 -0.27983716 -0.5846081 -0.77485657 -0.97095335 -1.8513691 -1.6683282
0.02823408 -0.176304 -1.3650992 0.000343785 -0.23336717 -1.2081598 -2.0815744 -2.217058
0.06026443 -2.2700648 -1.5315131 0.4268519 -1.4033493 0.09266396 0.43171212 -0.4524994
-1.5491354 0.31605166 -0.41936544 -1.005705 0.15988517 -0.20266224 -1.7023978 -1.2698264
0.05636193 -0.53632146 -1.854257 -1.9894007 -0.7881802 -0.3813723 0.37507242 -1.7624272
-2.1357248 -1.3707186 -0.033865005 -0.03236837 -2.288954 -1.1939232 0.7431916 1.2138851

bn1.weight f4 [400]
00000000: c372 583f 7f49 743f a1b7 023f 92e0 973e
00000010: 87fd 1a3f f897 1e3e d4b8 3f3e a142 1a3f
00000020: 4c3c fa3e 347a 143e 6c93 643f a0ca f63c
00000030: 1080 973d 1014 583f 065e 2d3f bdcd 1d3f
00000040: e60c 373f 42df 393f b99b 673f 4d27 313f
00000050: 3803 fc3e e80b fa3d ce2d 643f 6464 223f
00000060: 9848 343f f03d 743d 43a6 0f3f b614 fd3e
00000070: 2c74 a93e 40a6 193c af51 5a3f c669 9e3e
00000080: f369 303f 77a6 1e3f 045e 643e 2ad9 8b3e
00000090: 42ce 703f 7a0d 513f 00e1 d93d 7ff7 6e3f
000000a0: 5c0e 3e3f f6c7 ca3e 0405 963e c0e1 7c3d
000000b0: 0a90 cf3e 7268 133f 0b36 503f c928 283f
000000c0: 02a5 583f caa2 133f 3dbc 6a3f 400c 363e
000000d0: 4cb7 623f 6219 b53e d119 2f3f 380f 083f
000000e0: 7d83 363f c887 313f 8066 b43d 80d5 7d3e
000000f0: c24b 313f 2e96 283f d05e 9a3e 461d b83e
00000100: 225d fd3e 98e1 e03e 18f7 553e 0a41 293f
00000110: f043 353f 3209 bc3e 1aef d53e 44cf 453f
00000120: 2af2 e23e 2d7a 713f 8021 923d fe16 b43e
00000130: e829 6e3f 5a3d 373f d834 e73d f188 683f
00000140: ef01 413f c251 3c3f 653d 203f a895 693e
00000150: 00c8 173f 30bb e93d 5056 753f d4c2 663f
00000160: eda6 7b3f fcd8 1f3f 3bd4 4c3f fc02 8f3e
00000170: ef28 493f ef21 4f3f f25b 4e3f a037 a93e
00000180: 17ad 073f 85b3 403f 4124 413f 0554 783f
00000190: 59e3 5f3f 40a9 dc3d c452 143e e0fa 6e3f
000001a0: b063 7d3f 22a9 3d3f f8b7 183f 5724 4d3f
000001b0: 4a85 a73e ee7e b83e 815c 483f a04f ea3d
000001c0: 99e3 223f 7673 653f 0cd1 893e 3066 8a3e
000001d0: 70d0 593e d098 ec3d f36d 4e3f 6d4e 133f
000001e0: 8726 7a3f 9029 8e3d 485a 4a3f 2488 9f3e
000001f0: 0459 7d3e e46d c63e 67ea 2e3f 713a 0b3f
00000200: 4ed0 b43e 523b 6b3f f460 453e 3ed8 8b3e
00000210: 9f39 7b3f 00d3 4d3e 9c82 7c3e 99cc 333f
00000220: e29b 6d3f e817 3b3f 49fd 233f 1e65 343f
00000230: 97f6 7d3f dac8 f53e 2ef2 103f 80af 343f
00000240: 2008 753d 30fa eb3e 6c89 3c3e 820b 823e
00000250: e014 993c 2c6f 233f 80c9 903e 505b 543d
00000260: 8e9c 8f3e 582b cd3e f000 463f fed0 233f
00000270: aee9 8d3e 0083 433d 550b 4f3f 007d 023e
00000280: 40ce 9f3c 84f8 ba3e 80e6 1f3e 9c12 2f3f
00000290: 4f2a 533f 65ec 423f 70e6 403e 556f 553f
000002a0: 7263 7b3f d958 373f 6c1f 2e3e 222a 473f
000002b0: 6e8c b03e 54b2 513f 32ce f33e 4e5b cf3e
000002c0: 5636 123f be7f c93e 80ab 593f 8481 4d3f
000002d0: 6081 a03d 5a84 ef3e debc 593f c569 2d3f
000002e0: 1abb 723f 98a3 043e 7c6a 3d3f c02c 2c3c
000002f0: 083b 683e 82b0 083f b292 da3e a368 7c3f
00000300: d88f 533e 305e 5f3f e49f f93e b94d 5f3f
00000310: 7432 523e 5a18 663f 90c3 ca3e 2c22 fe3e
00000320: 00a0 a538 79cb 3b3f 60e1 1c3e 85ad 463f
00000330: 5807 d73e aa63 c03e bd66 483f d09e 253e
00000340: 93ef 273f e1e2 6e3f 3f31 023f b4e5 c03e
00000350: 5406 523e 1ee5 e83e 20cb a03d 608a 673e
00000360: d826 ce3e a4bc 7b3e 8c42 283f 580c 643e
00000370: fc50 463e 8009 433f a44a 953e 7abb c63e
00000380: 1a13 c83e b8a0 703f 034a 5a3f 022f 053f
00000390: f684 183f f1ee 033f c246 153f c8e8 5c3f
000003a0: cf89 0a3f c512 243f 8c4e 393f 38f7 aa3d
000003b0: e98d 753f 7cb1 3e3f 5a5e cc3e a4f2 333e
000003c0: 2e10 663f 50a2 6a3d 9ee0 8b3e e48b fb3e
000003d0: 64a6 2c3e e630 1e3f eeef 573f 740e 7e3e
000003e0: c70f 6f3f 6bc3 093f 604f 613e 0c22 713f
000003f0: 44f7 ad3e c7ca 523f 4cb6 633e dead 353f
0.8455011 0.95424646 0.51061445 0.2966352 0.605431 0.15487659 0.1872285 0.6025792
0.48874128 0.14499742 0.8928745 0.030125916 0.07397473 0.8440561 0.67721593 0.61642057
0.71504056 0.7260629 0.9047199 0.69200593 0.49221206 0.12209302 0.8913239 0.63434434
0.7042327 0.05962938 0.5611307 0.49429864 0.33096445 0.009378016 0.8528089 0.30940074
0.68911666 0.61972755 0.22301489 0.2731412 0.94064724 0.8166119 0.106386185 0.933464
0.7424066 0.39605683 0.29300702 0.06173873 0.4053958 0.57581246 0.81332463 0.65687233
0.8462678 0.5767027 0.9169348 0.1777811 0.8856094 0.35370928 0.6839877 0.5314822
0.71294385 0.6934781 0.08808613 0.24788475 0.6925622 0.65854156 0.3015046 0.35959834
0.49485117 0.43922114 0.2089504 0.66114867 0.7080679 0.36725765 0.41783983 0.7726939
0.44325382 0.9432705 0.07135296 0.35173792 0.93032694 0.7157799 0.11289376 0.90833956
0.75393575 0.7356225 0.6259368 0.22810996 0.5928955 0.11412656 0.9583483 0.90141034
0.98301584 0.62440467 0.8001134 0.27931964 0.78578085 0.80911154 0.8060905 0.3305025
0.5299849 0.75273925 0.75445944 0.97003204 0.8745628 0.107744694 0.14484698 0.93351555
0.98980236 0.740862 0.59655714 0.80133575 0.3271888 0.3603434 0.7826615 0.114409685
0.63628536 0.89629304 0.26917303 0.27031088 0.21270919 0.11552584 0.8063652 0.57541543
0.9771504 0.06941521 0.7904401 0.31158555 0.24740988 0.38755715 0.6832642 0.5438605
0.35315174 0.9188739 0.19275266 0.27313417 0.981348 0.20100021 0.24659199 0.70234066
0.92815983 0.73083353 0.6405836 0.7046679 0.9920439 0.480048 0.56619537 0.7058029
0.0598222 0.46089315 0.18411797 0.25399405 0.018686712 0.6384151 0.28278732 0.051844895
0.2804913 0.4007213 0.7734518 0.6399077 0.27717346 0.047732353 0.80876666 0.12742996
0.019507527 0.36517727 0.15615273 0.6838777 0.8248643 0.7614196 0.18837905 0.83373004
0.98198617 0.71619946 0.17004174 0.77798665 0.3448214 0.8191273 0.47618252 0.40499347
0.5711416 0.39355272 0.85027313 0.8027575 0.07837176 0.46780664 0.85053813 0.67739516
0.94816744 0.12953031 0.7399061 0.010508716 0.22678769 0.5339433 0.42690045 0.9859716
0.20660341 0.87253094 0.487548 0.8722797 0.20527059 0.8988091 0.39602327 0.49635446
7.8976154e-05 0.7335735 0.15320349 0.7760852 0.4199779 0.37576038 0.78281766 0.16173863
0.65599936 0.9331494 0.50856394 0.3767525 0.20510226 0.45487303 0.07851243 0.2261138
0.4026401 0.2458368 0.6572654 0.22270334 0.1936683 0.7618637 0.2915851 0.38814908
0.39077073 0.9399524 0.8526918 0.52024853 0.5957788 0.5153647 0.5831109 0.86292696
0.5411653 0.6409114 0.7238548 0.083479345 0.9591966 0.7448957 0.39915735 0.17573029
0.8986844 0.0572837 0.27319807 0.49130166 0.16860348 0.61793363 0.8435048 0.24810201
0.9338345 0.5381381 0.22002935 0.94192576 0.3397771 0.82340664 0.2223751 0.70968425

bn1.bias f4 [400]
00000000: 0000 0000 0000 0000 0000 0000 0000 0000
00000010: 0000 0000 0000 0000 0000 0000 0000 0000
00000020: 0000 0000 0000 0000 0000 0000 0000 0000
00000030: 0000 0000 0000 0000 0000 0000 0000 0000
00000040: 0000 0000 0000 0000 0000 0000 0000 0000
00000050: 0000 0000 0000 0000 0000 0000 0000 0000
00000060: 0000 0000 0000 0000 0000 0000 0000 0000
00000070: 0000 0000 0000 0000 0000 0000 0000 0000
00000080: 0000 0000 0000 0000 0000 0000 0000 0000
00000090: 0000 0000 0000 0000 0000 0000 0000 0000
000000a0: 0000 0000 0000 0000 0000 0000 0000 0000
000000b0: 0000 0000 0000 0000 0000 0000 0000 0000
000000c0: 0000 0000 0000 0000 0000 0000 0000 0000
000000d0: 0000 0000 0000 0000 0000 0000 0000 0000
000000e0: 0000 0000 0000 0000 0000 0000 0000 0000
000000f0: 0000 0000 0000 0000 0000 0000 0000 0000
00000100: 0000 0000 0000 0000 0000 0000 0000 0000
00000110: 0000 0000 0000 0000 0000 0000 0000 0000
00000120: 0000 0000 0000 0000 0000 0000 0000 0000
00000130: 0000 0000 0000 0000 0000 0000 0000 0000
00000140: 0000 0000 0000 0000 0000 0000 0000 0000
00000150: 0000 0000 0000 0000 0000 0000 0000 0000
00000160: 0000 0000 0000 0000 0000 0000 0000 0000
00000170: 0000 0000 0000 0000 0000 0000 0000 0000
00000180: 0000 0000 0000 0000 0000 0000 0000 0000
00000190: 0000 0000 0000 0000 0000 0000 0000 0000
000001a0: 0000 0000 0000 0000 0000 0000 0000 0000
000001b0: 0000 0000 0000 0000 0000 0000 0000 0000
000001c0: 0000 0000 0000 0000 0000 0000 0000 0000
000001d0: 0000 0000 0000 0000 0000 0000 0000 0000
000001e0: 0000 0000 0000 0000 0000 0000 0000 0000
000001f0: 0000 0000 0000 0000 0000 0000 0000 0000
00000200: 0000 0000 0000 0000 0000 0000 0000 0000
00000210: 0000 0000 0000 0000 0000 0000 0000 0000
00000220: 0000 0000 0000 0000 0000 0000 0000 0000
00000230: 0000 0000 0000 0000 0000 0000 0000 0000
00000240: 0000 0000 0000 0000 0000 0000 0000 0000
00000250: 0000 0000 0000 0000 0000 0000 0000 0000
00000260: 0000 0000 0000 0000 0000 0000 0000 0000
00000270: 0000 0000 0000 0000 0000 0000 0000 0000
00000280: 0000 0000 0000 0000 0000 0000 0000 0000
00000290: 0000 0000 0000 0000 0000 0000 0000 0000
000002a0: 0000 0000 0000 0000 0000 0000 0000 0000
000002b0: 0000 0000 0000 0000 0000 0000 0000 0000
000002c0: 0000 0000 0000 0000 0000 0000 0000 0000
000002d0: 0000 0000 0000 0000 0000 0000 0000 0000
000002e0: 0000 0000 0000 0000 0000 0000 0000 0000
000002f0: 0000 0000 0000 0000 0000 0000 0000 0000
00000300: 0000 0000 0000 0000 0000 0000 0000 0000
00000310: 0000 0000 0000 0000 0000 0000 0000 0000
00000320: 0000 0000 0000 0000 0000 0000 0000 0000
00000330: 0000 0000 0000 0000 0000 0000 0000 0000
00000340: 0000 0000 0000 0000 0000 0000 0000 0000
00000350: 0000 0000 0000 0000 0000 0000 0000 0000
00000360: 0000 0000 0000 0000 0000 0000 0000 0000
00000370: 0000 0000 0000 0000 0000 0000 0000 0000
00000380: 0000 0000 0000 0000 0000 0000 0000 0000
00000390: 0000 0000 0000 0000 0000 0000 0000 0000
000003a0: 0000 0000 0000 0000 0000 0000 0000 0000
000003b0: 0000 0000 0000 0000 0000 0000 0000 0000
000003c0: 0000 0000 0000 0000 0000 0000 0000 0000
000003d0: 0000 0000 0000 0000 0000 0000 0000 0000
000003e0: 0000 0000 0000 0000 0000 0000 0000 0000
000003f0: 0000 0000 0000 0000 0000 0000 0000 0000
0.0 0.0 0.0 0.0 0.0 0.0 0.0 0.0
0.0 0.0 0.0 0.0 0.0 0.0 0.0 0.0
0.0 0.0 0.0 0.0 0.0 0.0 0.0 0.0
0.0 0.0 0.0 0.0 0.0 0.0 0.0 0.0
0.0 0.0 0.0 0.0 0.0 0.0 0.0 0.0
0.0 0.0 0.0 0.0 0.0 0.0 0.0 0.0
0.0 0.0 0.0 0.0 0.0 0.0 0.0 0.0
0.0 0.0 0.0 0.0 0.0 0.0 0.0 0.0
0.0 0.0 0.0 0.0 0.0 0.0 0.0 0.0
0.0 0.0 0.0 0.0 0.0 0.0 0.0 0.0
0.0 0.0 0.0 0.0 0.0 0.0 0.0 0.0
0.0 0.0 0.0 0.0 0.0 0.0 0.0 0.0
0.0 0.0 0.0 0.0 0.0 0.0 0.0 0.0
0.0 0.0 0.0 0.0 0.0 0.0 0.0 0.0
0.0 0.0 0.0 0.0 0.0 0.0 0.0 0.0
0.0 0.0 0.0 0.0 0.0 0.0 0.0 0.0
0.0 0.0 0.0 0.0 0.0 0.0 0.0 0.0
0.0 0.0 0.0 0.0 0.0 0.0 0.0 0.0
0.0 0.0 0.0 0.0 0.0 0.0 0.0 0.0
0.0 0.0 0.0 0.0 0.0 0.0 0.0 0.0
0.0 0.0 0.0 0.0 0.0 0.0 0.0 0.0
0.0 0.0 0.0 0.0 0.0 0.0 0.0 0.0
0.0 0.0 0.0 0.0 0.0 0.0 0.0 0.0
0.0 0.0 0.0 0.0 0.0 0.0 0.0 0.0
0.0 0.0 0.0 0.0 0.0 0.0 0.0 0.0
0.0 0.0 0.0 0.0 0.0 0.0 0.0 0.0
0.0 0.0 0.0 0.0 0.0 0.0 0.0 0.0
0.0 0.0 0.0 0.0 0.0 0.0 0.0 0.0
0.0 0.0 0.0 0.0 0.0 0.0 0.0 0.0
0.0 0.0 0.0 0.0 0.0 0.0 0.0 0.0
0.0 0.0 0.0 0.0 0.0 0.0 0.0 0.0
0.0 0.0 0.0 0.0 0.0 0.0 0.0 0.0

bn1.running_mean f4 [400]
00000000: 0000 0000 0000 0000 0000 0000 0000 0000
00000010: 0000 0000 0000 0000 0000 0000 0000 0000
00000020: 0000 0000 0000 0000 0000 0000 0000 0000
00000030: 0000 0000 0000 0000 0000 0000 0000 0000
00000040: 0000 0000 0000 0000 0000 0000 0000 0000
00000050: 0000 0000 0000 0000 0000 0000 0000 0000
00000060: 0000 0000 0000 0000 0000 0000 0000 0000
00000070: 0000 0000 0000 0000 0000 0000 0000 0000
00000080: 0000 0000 0000 0000 0000 0000 0000 0000
00000090: 0000 0000 0000 0000 0000 0000 0000 0000
000000a0: 0000 0000 0000 0000 0000 0000 0000 0000
000000b0: 0000 0000 0000 0000 0000 0000 0000 0000
000000c0: 0000 0000 0000 0000 0000 0000 0000 0000
000000d0: 0000 0000 0000 0000 0000 0000 0000 0000
000000e0: 0000 0000 0000 0000 0000 0000 0000 0000
000000f0: 0000 0000 0000 0000 0000 0000 0000 0000
00000100: 0000 0000 0000 0000 0000 0000 0000 0000
00000110: 0000 0000 0000 0000 0000 0000 0000 0000
00000120: 0000 0000 0000 0000 0000 0000 0000 0000
00000130: 0000 0000 0000 0000 0000 0000 0000 0000
00000140: 0000 0000 0000 0000 0000 0000 0000 0000
00000150: 0000 0000 0000 0000 0000 0000 0000 0000
00000160: 0000 0000 0000 0000 0000 0000 0000 0000
00000170: 0000 0000 0000 0000 0000 0000 0000 0000
00000180: 0000 0000 0000 0000 0000 0000 0000 0000
00000190: 0000 0000 0000 0000 0000 0000 0000 0000
000001a0: 0000 0000 0000 0000 0000 0000 0000 0000
000001b0: 0000 0000 0000 0000 0000 0000 0000 0000
000001c0: 0000 0000 0000 0000 0000 0000 0000 0000
000001d0: 0000 0000 0000 0000 0000 0000 0000 0000
000001e0: 0000 0000 0000 0000 0000 0000 0000 0000
000001f0: 0000 0000 0000 0000 0000 0000 0000 0000
00000200: 0000 0000 0000 0000 0000 0000 0000 0000
00000210: 0000 0000 0000 0000 0000 0000 0000 0000
00000220: 0000 0000 0000 0000 0000 0000 0000 0000
00000230: 0000 0000 0000 0000 0000 0000 0000 0000
00000240: 0000 0000 0000 0000 0000 0000 0000 0000
00000250: 0000 0000 0000 0000 0000 0000 0000 0000
00000260: 0000 0000 0000 0000 0000 0000 0000 0000
00000270: 0000 0000 0000 0000 0000 0000 0000 0000
00000280: 0000 0000 0000 0000 0000 0000 0000 0000
00000290: 0000 0000 0000 0000 0000 0000 0000 0000
000002a0: 0000 0000 0000 0000 0000 0000 0000 0000
000002b0: 0000 0000 0000 0000 0000 0000 0000 0000
000002c0: 0000 0000 0000 0000 0000 0000 0000 0000
000002d0: 0000 0000 0000 0000 0000 0000 0000 0000
000002e0: 0000 0000 0000 0000 0000 0000 0000 0000
000002f0: 0000 0000 0000 0000 0000 0000 0000 0000
00000300: 0000 0000 0000 0000 0000 0000 0000 0000
00000310: 0000 0000 0000 0000 0000 0000 0000 0000
00000320: 0000 0000 0000 0000 0000 0000 0000 0000
00000330: 0000 0000 0000 0000 0000 0000 0000 0000
00000340: 0000 0000 0000 0000 0000 0000 0000 0000
00000350: 0000 0000 0000 0000 0000 0000 0000 0000
00000360: 0000 0000 0000 0000 0000 0000 0000 0000
00000370: 0000 0000 0000 0000 0000 0000 0000 0000
00000380: 0000 0000 0000 0000 0000 0000 0000 0000
00000390: 0000 0000 0000 0000 0000 0000 0000 0000
000003a0: 0000 0000 0000 0000 0000 0000 0000 0000
000003b0: 0000 0000 0000 0000 0000 0000 0000 0000
000003c0: 0000 0000 0000 0000 0000 0000 0000 0000
000003d0: 0000 0000 0000 0000 0000 0000 0000 0000
000003e0: 0000 0000 0000 0000 0000 0000 0000 0000
000003f0: 0000 0000 0000 0000 0000 0000 0000 0000
0.0 0.0 0.0 0.0 0.0 0.0 0.0 0.0
0.0 0.0 0.0 0.0 0.0 0.0 0.0 0.0
0.0 0.0 0.0 0.0 0.0 0.0 0.0 0.0
0.0 0.0 0.0 0.0 0.0 0.0 0.0 0.0
0.0 0.0 0.0 0.0 0.0 0.0 0.0 0.0
0.0 0.0 0.0 0.0 0.0 0.0 0.0 0.0
0.0 0.0 0.0 0.0 0.0 0.0 0.0 0.0
0.0 0.0 0.0 0.0 0.0 0.0 0.0 0.0
0.0 0.0 0.0 0.0 0.0 0.0 0.0 0.0
0.0 0.0 0.0 0.0 0.0 0.0 0.0 0.0
0.0 0.0 0.0 0.0 0.0 0.0 0.0 0.0
0.0 0.0 0.0 0.0 0.0 0.0 0.0 0.0
0.0 0.0 0.0 0.0 0.0 0.0 0.0 0.0
0.0 0.0 0.0 0.0 0.0 0.0 0.0 0.0
0.0 0.0 0.0 0.0 0.0 0.0 0.0 0.0
0.0 0.0 0.0 0.0 0.0 0.0 0.0 0.0
0.0 0.0 0.0 0.0 0.0 0.0 0.0 0.0
0.0 0.0 0.0 0.0 0.0 0.0 0.0 0.0
0.0 0.0 0.0 0.0 0.0 0.0 0.0 0.0
0.0 0.0 0.0 0.0 0.0 0.0 0.0 0.0
0.0 0.0 0.0 0.0 0.0 0.0 0.0 0.0
0.0 0.0 0.0 0.0 0.0 0.0 0.0 0.0
0.0 0.0 0.0 0.0 0.0 0.0 0.0 0.0
0.0 0.0 0.0 0.0 0.0 0.0 0.0 0.0
0.0 0.0 0.0 0.0 0.0 0.0 0.0 0.0
0.0 0.0 0.0 0.0 0.0 0.0 0.0 0.0
0.0 0.0 0.0 0.0 0.0 0.0 0.0 0.0
0.0 0.0 0.0 0.0 0.0 0.0 0.0 0.0
0.0 0.0 0.0 0.0 0.0 0.0 0.0 0.0
0.0 0.0 0.0 0.0 0.0 0.0 0.0 0.0
0.0 0.0 0.0 0.0 0.0 0.0 0.0 0.0
0.0 0.0 0.0 0.0 0.0 0.0 0.0 0.0

bn1.running_var f4 [400]
00000000: 0000 803f 0000 803f 0000 803f 0000 803f
00000010: 0000 803f 0000 803f 0000 803f 0000 803f
00000020: 0000 803f 0000 803f 0000 803f 0000 803f
00000030: 0000 803f 0000 803f 0000 803f 0000 803f
00000040: 0000 803f 0000 803f 0000 803f 0000 803f
00000050: 0000 803f 0000 803f 0000 803f 0000 803f
00000060: 0000 803f 0000 803f 0000 803f 0000 803f
00000070: 0000 803f 0000 803f 0000 803f 0000 803f
00000080: 0000 803f 0000 803f 0000 803f 0000 803f
00000090: 0000 803f 0000 803f 0000 803f 0000 803f
000000a0: 0000 803f 0000 803f 0000 803f 0000 803f
000000b0: 0000 803f 0000 803f 0000 803f 0000 803f
000000c0: 0000 803f 0000 803f 0000 803f 0000 803f
000000d0: 0000 803f 0000 803f 0000 803f 0000 803f
000000e0: 0000 803f 0000 803f 0000 803f 0000 803f
000000f0: 0000 803f 0000 803f 0000 803f 0000 803f
00000100: 0000 803f 0000 803f 0000 803f 0000 803f
00000110: 0000 803f 0000 803f 0000 803f 0000 803f
00000120: 0000 803f 0000 803f 0000 803f 0000 803f
00000130: 0000 803f 0000 803f 0000 803f 0000 803f
00000140: 0000 803f 0000 803f 0000 803f 0000 803f
00000150: 0000 803f 0000 803f 0000 803f 0000 803f
00000160: 0000 803f 0000 803f 0000 803f 0000 803f
00000170: 0000 803f 0000 803f 0000 803f 0000 803f
00000180: 0000 803f 0000 803f 0000 803f 0000 803f
00000190: 0000 803f 0000 803f 0000 803f 0000 803f
000001a0: 0000 803f 0000 803f 0000 803f 0000 803f
000001b0: 0000 803f 0000 803f 0000 803f 0000 803f
000001c0: 0000 803f 0000 803f 0000 803f 0000 803f
000001d0: 0000 803f 0000 803f 0000 803f 0000 803f
000001e0: 0000 803f 0000 803f 0000 803f 0000 803f
000001f0: 0000 803f 0000 803f 0000 803f 0000 803f
00000200: 0000 803f 0000 803f 0000 803f 0000 803f
00000210: 0000 803f 0000 803f 0000 803f 0000 803f
00000220: 0000 803f 0000 803f 0000 803f 0000 803f
00000230: 0000 803f 0000 803f 0000 803f 0000 803f
00000240: 0000 803f 0000 803f 0000 803f 0000 803f
00000250: 0000 803f 0000 803f 0000 803f 0000 803f
00000260: 0000 803f 0000 803f 0000 803f 0000 803f
00000270: 0000 803f 0000 803f 0000 803f 0000 803f
00000280: 0000 803f 0000 803f 0000 803f 0000 803f
00000290: 0000 803f 0000 803f 0000 803f 0000 803f
000002a0: 0000 803f 0000 803f 0000 803f 0000 803f
000002b0: 0000 803f 0000 803f 0000 803f 0000 803f
000002c0: 0000 803f 0000 803f 0000 803f 0000 803f
000002d0: 0000 803f 0000 803f 0000 803f 0000 803f
000002e0: 0000 803f 0000 803f 0000 803f 0000 803f
000002f0: 0000 803f 0000 803f 0000 803f 0000 803f
00000300: 0000 803f 0000 803f 0000 803f 0000 803f
00000310: 0000 803f 0000 803f 0000 803f 0000 803f
00000320: 0000 803f 0000 803f 0000 803f 0000 803f
00000330: 0000 803f 0000 803f 0000 803f 0000 803f
00000340: 0000 803f 0000 803f 0000 803f 0000 803f
00000350: 0000 803f 0000 803f 0000 803f 0000 803f
00000360: 0000 803f 0000 803f 0000 803f 0000 803f
00000370: 0000 803f 0000 803f 0000 803f 0000 803f
00000380: 0000 803f 0000 803f 0000 803f 0000 803f
00000390: 0000 803f 0000 803f 0000 803f 0000 803f
000003a0: 0000 803f 0000 803f 0000 803f 0000 803f
000003b0: 0000 803f 0000 803f 0000 803f 0000 803f
000003c0: 0000 803f 0000 803f 0000 803f 0000 803f
000003d0: 0000 803f 0000 803f 0000 803f 0000 803f
000003e0: 0000 803f 0000 803f 0000 803f 0000 803f
000003f0: 0000 803f 0000 803f 0000 803f 0000 803f
1.0 1.0 1.0 1.0 1.0 1.0 1.0 1.0
1.0 1.0 1.0 1.0 1.0 1.0 1.0 1.0
1.0 1.0 1.0 1.0 1.0 1.0 1.0 1.0
1.0 1.0 1.0 1.0 1.0 1.0 1.0 1.0
1.0 1.0 1.0 1.0 1.0 1.0 1.0 1.0
1.0 1.0 1.0 1.0 1.0 1.0 1.0 1.0
1.0 1.0 1.0 1.0 1.0 1.0 1.0 1.0
1.0 1.0 1.0 1.0 1.0 1.0 1.0 1.0
1.0 1.0 1.0 1.0 1.0 1.0 1.0 1.0
1.0 1.0 1.0 1.0 1.0 1.0 1.0 1.0
1.0 1.0 1.0 1.0 1.0 1.0 1.0 1.0
1.0 1.0 1.0 1.0 1.0 1.0 1.0 1.0
1.0 1.0 1.0 1.0 1.0 1.0 1.0 1.0
1.0 1.0 1.0 1.0 1.0 1.0 1.0 1.0
1.0 1.0 1.0 1.0 1.0 1.0 1.0 1.0
1.0 1.0 1.0 1.0 1.0 1.0 1.0 1.0
1.0 1.0 1.0 1.0 1.0 1.0 1.0 1.0
1.0 1.0 1.0 1.0 1.0 1.0 1.0 1.0
1.0 1.0 1.0 1.0 1.0 1.0 1.0 1.0
1.0 1.0 1.0 1.0 1.0 1.0 1.0 1.0
1.0 1.0 1.0 1.0 1.0 1.0 1.0 1.0
1.0 1.0 1.0 1.0 1.0 1.0 1.0 1.0
1.0 1.0 1.0 1.0 1.0 1.0 1.0 1.0
1.0 1.0 1.0 1.0 1.0 1.0 1.0 1.0
1.0 1.0 1.0 1.0 1.0 1.0 1.0 1.0
1.0 1.0 1.0 1.0 1.0 1.0 1.0 1.0
1.0 1.0 1.0 1.0 1.0 1.0 1.0 1.0
1.0 1.0 1.0 1.0 1.0 1.0 1.0 1.0
1.0 1.0 1.0 1.0 1.0 1.0 1.0 1.0
1.0 1.0 1.0 1.0 1.0 1.0 1.0 1.0
1.0 1.0 1.0 1.0 1.0 1.0 1.0 1.0
1.0 1.0 1.0 1.0 1.0 1.0 1.0 1.0

fc2.weight f4 [300, 402]
00000000: ebf5 84bf 740a 02be 1378 11bf 4a36 58be
00000010: 26c6 2fbf eddc 8e3f e4ba 8bbf 9786 70bf
00000020: 0183 65bf 4099 873d 9183 0b3f 6fb0 5bbf
00000030: 4c04 e7bc 4bf4 02bf 2fda cbbf 82c8 b4be
00000040: cd4a 2f3f d846 e7bd 8933 94be 0668 99bf
00000050: 5537 063f f088 afbe b0d6 14bd c019 f6be
00000060: 9e6e 6cbf ec23 7fbd d6bc af3e 53f3 8d3d
00000070: 848f 083f e429 d1be 319b d5be b2ac bdbf
00000080: f529 313f 8700 01bf 25e7 a63f ae85 963f
00000090: 4180 a2bb 6d87 693f 1c4e 14bf 36f0 43bf
000000a0: ad9b 6cbf 960a 333f 8488 5a3f dde6 d3bc
000000b0: b075 48be 119a 41bf cd4e eabf 1c89 83bf
000000c0: ef6f d6bf a67a 78bf bc7d 3a3f d688 9ebf
000000d0: c3a6 12bf 909b 693f 006d 4dbf 57cb 07bf
000000e0: ef0e 743e ce48 17bf 0d9f c8bf ea55 3a3d
000000f0: 767a e2bf 44b2 b4be ad6b 70bf 2652 8fbf
00000100: bc86 1c3d 5db1 8c3f 43db 433f 0a7f 25bf
00000110: 7744 cabe 6ff6 37bf 58c4 3f3f 1f3c 5bbf
00000120: 2042 5cbf 5dfc 423d 9332 83bf 9218 1abf
00000130: 6926 83bf fd49 5ebf 489a 16bf ddb6 a5be
00000140: 1f1a d4bf 5652 84bf 0946 623f f98e 353f
00000150: f0f3 b63e 4133 4fbb e572 0c3f a7a2 62be
00000160: f608 3fbf 7dbe 97bf 94e6 5dbe cfdd 9f3e
00000170: df30 d2be 21f6 a03f f3b6 253f 1ce9 1dbf
00000180: 9b58 50bf db87 acbf 4778 a5bf 2586 c0be
00000190: 1df7 053f 549b cf3e ae17 47bf ad5c 0abf
000001a0: a1b5 3b3f 37d0 cdbe c972 babf 88dd fabf
000001b0: bbfb 2bbf 1088 453d c77a 8a3e e3fc 8dbf
000001c0: ff94 1f3f e1a8 2abf 2674 3dbf bf69 99bf
000001d0: a026 08bf 344d 6abf edeb 773c f72b e3bb
000001e0: e738 36bf 4a47 663e 1636 53bf 49cf 993f
000001f0: c2c4 733f 856e dabe bb96 babf ca6b ad3e
00000200: 952c 143f 788b 693f f2f5 c8bb 0d6a ebbe
00000210: 8759 07bf 5d18 a8be bcfe c73e 896a 783f
00000220: f55b 21bf 5bf4 833e 122e 483f 1693 e13e
00000230: 1bac 87bf 8f6a 223f 6b5b abbf 65dc 28bf
00000240: 7a25 12bf bf22 103f 5aef 51bf 2fce 1b3f
00000250: 7029 9b3f 3507 823f 3728 9fbf cb8b 083f
00000260: 19a5 b9bf 6a9b 9e3f 1624 31bf b00a 82bf
00000270: aefa 0a3f 0b73 0dbf ab25 a43f e6d3 2b3f
00000280: 6dee afbd ad12 05bf 1a2b 5d3f 361e 14bf
00000290: 23c2 8e3e ff5f abbe 58c1 503f 3696 68bf
000002a0: 8d24 21bf 348f acbf 1743 82bf a8cc e0be
000002b0: 4458 883f 4bc8 93bf ee18 0ebf 0fcc 62bf
000002c0: 839c 10be 3e43 843f bcc7 4b3d 1da6 3c3f
000002d0: c8d1 63bf 9c7e b7be 4c20 7abf c1d6 47bf
000002e0: 0521 8e3f 57e8 923f 2d57 75be e4e9 88bf
000002f0: 46cb 4ebf 4774 273f c7f2 31bf 0976 3ebf
00000300: c043 2f3f ef3c 86bf e962 733f acf2 52be
00000310: bf6e a8be a9a2 b5bf c3de 9ebe 336d 61bf
00000320: 4ce6 f6bd 9432 1dbf 38b7 1e3d ef9c fbbe
00000330: 8c11 1b3f c676 fd3e 01e7 f13e 3282 24bf
00000340: 3cf1 24bf c750 5ebf fcd8 8bbe 31a1 9bbf
00000350: c4ff aabf b163 5f3d c681 47bf 109b ca3e
00000360: 0784 48bf 22b7 28be c597 3e3f 8c46 abbe
00000370: b823 68bf e5a7 68bf c249 6c3f bfe7 543f
00000380: bb93 c5be 1fd2 a43f fe7d 21bf dca8 82bf
00000390: bb0a 363f aadd 02bf 91e8 12bf 82b9 25be
000003a0: 2e38 1dbf ac73 0cbf bdf6 d2bf c863 47bf
000003b0: e755 e33d ba69 7dbf e75e 623f f5e9 853f
000003c0: 189b 6dbf 7b9c f6be 9228 2c3e fa8f 513e
000003d0: 5a63 b1bf 5c14 1bbf 2637 c6bf 1c62 37bf
000003e0: bd4f 863f 32e5 9c3e 50e6 4abf 6843 2bbf
000003f0: 1b5c 973f d974 1ebf 07d8 72bf 4c8b 54bf
-1.0387548 -0.126993 -0.56823844 -0.2111446 -0.68661726 1.1161171 -1.091641 -0.9395537
-0.8965302 0.06621027 0.5449763 -0.8581609 -0.028200291 -0.5115401 -1.5925959 -0.35309225
0.6847351 -0.11292809 -0.28945568 -1.198487 0.5242818 -0.34284163 -0.036337554 -0.4806652
-0.9235629 -0.062290117 0.34323758 0.06931176 0.5334399 -0.40852273 -0.41719964 -1.4818327
0.69204646 -0.5039143 1.303929 1.1759546 -0.0049591367 0.9122227 -0.57931685 -0.7653841
-0.9242504 0.6993803 0.85364556 -0.02586692 -0.19576144 -0.7562571 -1.8305298 -1.0276217
-1.675291 -0.97062147 0.72848105 -1.2385509 -0.5728571 0.91252995 -0.80244446 -0.53044647
0.23833822 -0.59095466 -1.5673538 0.04549209 -1.7693622 -0.35292256 -0.939143 -1.1196945
0.03821443 1.0991627 0.7650644 -0.6464697 -0.3950536 -0.718604 0.7490897 -0.8563861
-0.860384 0.047603954 -1.0249809 -0.6019374 -1.0246097 -0.8683165 -0.58829165 -0.32366076
-1.6570472 -1.0337627 0.88388115 0.70921284 0.35732985 -0.0031616243 0.54862815 -0.2213236
-0.7462305 -1.1855007 -0.2166999 0.31223914 -0.4105291 1.2575113 0.64732283 -0.6168382
-0.813852 -1.347896 -1.2927331 -0.37602344 0.5233019 0.40548193 -0.7777051 -0.5404766
0.7332402 -0.40197918 -1.456628 -1.9598856 -0.67180985 0.048225462 0.27046797 -1.10928
0.62336725 -0.6666394 -0.74005353 -1.1985396 -0.5318394 -0.9152405 0.015131933 -0.0069327313
-0.71180576 0.22488132 -0.82504404 1.2016383 0.95222104 -0.42662445 -1.4577249 0.338713
0.57880527 0.9122844 -0.0061328346 -0.45979348 -0.5287098 -0.32831088 0.39061534 0.9703756
-0.6303094 0.25772366 0.781953 0.4405753 -1.0599397 0.63443846 -1.3387274 -0.65961295
-0.57088435 0.5630302 -0.82005847 0.60861486 1.2122021 1.015845 -1.2434148 0.5333831
-1.4503509 1.2391179 -0.6919569 -1.0159512 0.54288757 -0.55253667 1.2823995 0.67120206
-0.08590398 -0.5198162 0.8639389 -0.578586 0.2788249 -0.33471677 0.8154502 -0.90854204
-0.629464 -1.3481202 -1.0176724 -0.4390614 1.0651937 -1.15455 -0.5550679 -0.8859262
-0.14122204 1.0333021 0.04975103 0.7369097 -0.88991976 -0.35838783 -0.9770553 -0.78062063
1.1103827 1.1477154 -0.23959036 -1.0696378 -0.8077892 0.654118 -0.69511074 -0.7439886
0.68462753 -1.0487345 0.950728 -0.20600384 -0.32896993 -1.4190265 -0.3102933 -0.8805725
-0.120556444 -0.614053 0.03874895 -0.49143168 0.6057365 0.4950468 0.47246554 -0.6426116
-0.64430594 -0.86842006 -0.27313983 -1.2158567 -1.3359303 0.054538433 -0.77932394 0.39571428
-0.7832646 -0.1647611 0.7445033 -0.3345226 -0.906795 -0.90881187 0.92300045 0.83166116
-0.38589272 1.2876624 -0.63082874 -1.0207782 0.71110123 -0.5111948 -0.5738612 -0.16184047
-0.6141385 -0.54864 -1.6481549 -0.7788663 0.11100369 -0.9898945 0.8842606 1.0462023
-0.9281478 -0.4816626 0.16812351 0.20465079 -1.3858445 -0.6057794 -1.548558 -0.7163408
1.0493084 0.30643612 -0.7925768 -0.6689973 1.1824983 -0.61897045 -0.9486088 -0.8302505

fc2.bias f4 [300]
00000000: 377b 27bf 894a 9cc0 64d3 9fc0 b16a afbf
00000010: f47a 1ebe fec9 f13e b84f 0d3b a79b dabe
00000020: 8881 103f 7a60 2d3f d9b0 b9bf d036 65be
00000030: 3b8a 3fbe da46 29bf b0f7 493d 5305 a4c0
00000040: d9c3 fc3c 83b2 3d3f 1078 d2be d305 6b3c
00000050: 237d 29c0 36cd fc3d d4fa 8fbd e23e 71bf
00000060: 8550 c3be f6e1 86bd 024e 80bf 1e25 363c
00000070: 7a06 e5bf 45ad 76c0 89b8 0c3f 05d5 513f
00000080: 914e 5abe 5086 4b3e ca83 76be 1eaf 0b3f
00000090: 5cbe 37bf 0583 84bf 4ab3 d2bf 7afa ebbe
000000a0: 1460 a7be 1230 6ec0 ede3 72be 0660 06bf
000000b0: 7127 f83e 84d0 a93e 3fa9 8e3e 0c78 073f
000000c0: e0d4 25be 9e46 a0bd d7b1 9bbe 4f00 fabe
000000d0: 2a69 1dc0 09e0 d6be 128f 533d 9666 57be
000000e0: e07e 34bf 6762 b2bc b3c2 683f e6c2 08be
000000f0: e20d 8dbf 7f6e 54c0 42b4 ffbe 6fe3 83be
00000100: f9a6 26be fbdf df3e 369e 08c0 bccd 02bf
00000110: 10ea b2bd 9fe1 45bf b7d8 c1be 04fa f8be
00000120: 36f7 93be bc68 c03c 615a 993d ff2d a8be
00000130: c721 90be a4eb 89be c7ef 0cbf 9bb0 063e
00000140: f369 51bf 9b92 cf3e d941 12bf a539 883d
00000150: e1c0 95c0 8eff eebe 9a89 9ebe d4a0 f0bc
00000160: 3b1d acc0 138f cdbe c012 d5bd 3fe5 ba3e
00000170: d328 b23e 7011 c63f ea2c c8bf d727 3bbf
00000180: 7d9e 10bf d69d 22be b4da 05be af9f 92bf
00000190: 6c15 b83e 19e0 03bf a962 713e 21f9 1bbf
000001a0: 0332 58bf 5c3a 50be c21b 41be 3f39 1cbf
000001b0: 4a4f e3be 3c6c 44bf 0683 4ebe c2c5 21bf
000001c0: acd3 5abf 6a8a 5ec0 9318 8abe 51ef 87ba
000001d0: 1196 06be b811 a6bf fdfd 09be 5c5e 02be
000001e0: 1f51 f73e 67a2 d0be 3b5f 6e3e fa82 82bd
000001f0: 0494 44bf 3170 37bf ab4a 88bf bb5a a1c0
00000200: 74c4 29bf f8a8 59be 7297 56bf 1090 e8be
00000210: cd41 6cbf 3d51 27be 1970 d5be 5a0f 17bf
00000220: 82f2 c7bf 66f9 2c3f 1bf6 48be 0ef2 bfbe
00000230: 88c5 febf aa16 a8bf cf42 0dbf c0fe 87c0
00000240: a3d8 8dbf bb7a 163f 10aa b3be b18a 1bbf
00000250: 46f5 5abf d696 a2bf baa1 aabd 3afb cfbf
00000260: a402 46bf e17b 1bbf c91d 74be 2d3c 1dbf
00000270: 7b46 9dbf fa89 12bf c9de 92bf 3d37 c1bc
00000280: e69c b6be 9c57 b0c0 420a 9d3d d1b0 fabd
00000290: 6c2d d5be df9b edbf 9eab 1abe d24c c93d
000002a0: 6474 cbbd 08bd 2fbf 3f36 6abf 4fdf 8e3e
000002b0: f2c1 bdbe 1d08 b1bd c201 87bd 369f 373e
000002c0: 2dc8 2fbd 1168 04bf ecd3 91bd 8fe6 5cbe
000002d0: 8b2c 3e3e 2daa 893d f773 5e3e d281 c9be
000002e0: de87 72bf b1c1 5c3e 8148 1dbe dd41 a5c0
000002f0: 0d09 71bf c9e7 723f 9ff4 06bf efca 68bf
00000300: 2ae9 aabe a76c a8bf 11e4 3cbf e574 22bf
00000310: 261e 3cbf 9a68 c8bf 35c8 063f 9937 5fbf
00000320: 2890 453e 5fde a5be 114f 13bf 22c3 393d
00000330: 2030 5ebd 823a 23bf 834d f0bf dfda 5abc
00000340: 45f8 a0be c135 ef3d 0490 b2bf 501e c3bf
00000350: 6f8e 80bf 74d5 dcbe 0187 983f 6ee3 7fbe
00000360: cec6 6bbe 7978 0abf 4085 55bf 26b8 99c0
00000370: 5f7f 913e 1fed 1dbf a039 21bf cd34 edbe
00000380: d017 f13e fe0d 58bf 5f5d d4be a9d3 38bf
00000390: 8606 23be 8790 04bb df18 7dbf f877 eabf
000003a0: 70f5 dfbe 89e5 89be 9504 453e 9f75 fcbd
000003b0: ad5f 64c0 bb44 08c0 28b4 1bbf f32a a3bf
000003c0: 715b b1bf 7932 1cc0 07ac e53f ad8a 543f
000003d0: a2be 25c0 5792 343e 93c5 633c 2585 8bbe
000003e0: 5208 83bb 7afb 1bbf 5456 28bf 1feb 1bbf
000003f0: f982 a0bf 8915 ce3e 1515 e9be 37cb b0bf
-0.65422386 -4.8840985 -4.9945545 -1.3704435 -0.1547659 0.4722442 0.0021562409 -0.42696878
0.5644765 0.67725337 -1.4507095 -0.2238419 -0.18705074 -0.66123736 0.04930848 -5.12565
0.030855106 0.7410051 -0.41107225 0.01434465 -2.6482627 0.123438284 -0.070302635 -0.94236577
-0.3814737 -0.065860674 -1.0023806 0.011117248 -1.7892601 -3.8543255 0.5496908 0.81965667
-0.21319033 0.19875455 -0.24073711 0.5456408 -0.7177484 -1.0352484 -1.6460965 -0.46089536
-0.3269049 -3.721684 -0.2371976 -0.5249027 0.4846759 0.33166897 0.278635 0.5291755
-0.16194487 -0.07825969 -0.3040912 -0.4882836 -2.4595437 -0.419678 0.051650114 -0.21035227
-0.70506096 -0.021775438 0.9092209 -0.13355598 -1.1019862 -3.3192441 -0.49942213 -0.25759456
-0.16274633 0.4372557 -2.1346564 -0.51095176 -0.0873605 -0.77297395 -0.37860653 -0.48628247
-0.28899544 0.023487441 0.074879415 -0.32847592 -0.2815077 -0.26937592 -0.5505337 0.13153307
-0.8180229 0.4054154 -0.57131726 0.0665162 -4.679795 -0.46679348 -0.30964357 -0.029373564
-5.378568 -0.4014822 -0.10403967 0.36503026 0.3479677 1.5474072 -1.5638707 -0.73107666
-0.56491834 -0.15880522 -0.1307171 -1.1454982 0.35953844 -0.5151382 0.23572792 -0.60927016
-0.8445131 -0.20334762 -0.18858245 -0.6102485 -0.4439643 -0.7672765 -0.20167169 -0.6319238
-0.85479236 -3.4771981 -0.26971874 -0.0010371004 -0.13143183 -1.2974157 -0.13475795 -0.12731308
0.48304078 -0.40748903 0.23278515 -0.06372638 -0.76788354 -0.71655566 -1.0647787 -5.0423255
-0.6631539 -0.21255863 -0.8382484 -0.4542241 -0.92287904 -0.16339584 -0.41687086 -0.590078
-1.5620883 0.6756805 -0.19625132 -0.3748936 -1.9904032 -1.3131917 -0.55180067 -4.2498474
-1.1081737 0.5878102 -0.35090685 -0.607585 -0.8553051 -1.2702281 -0.08331628 -1.6248543
-0.7734778 -0.607359 -0.23839487 -0.61419946 -1.2287134 -0.57241786 -1.1474239 -0.02358591
-0.3566658 -5.5106945 0.07667972 -0.12240756 -0.41636217 -1.8563193 -0.1510453 0.098291054
-0.09934309 -0.68647814 -0.9148902 0.27904746 -0.3706203 -0.086441256 -0.06592132 0.17931828
-0.042915512 -0.5172129 -0.07120499 -0.21572326 0.1857168 0.067219116 0.21723925 -0.39356858
-0.94738567 0.21558262 -0.1535969 -5.16429 -0.94154435 0.94884926 -0.5271701 -0.9093465
-0.33381015 -1.3158158 -0.737855 -0.63459617 -0.734835 -1.5656922 0.5264924 -0.8719421
0.19293272 -0.32396218 -0.5754252 0.04535211 -0.054245114 -0.6376115 -1.8773655 -0.013357847
-0.31439415 0.116801746 -1.39502 -1.5243626 -1.0043467 -0.43131602 1.19162 -0.24989101
-0.23025057 -0.54090077 -0.8340645 -4.803729 0.2841749 -0.61689943 -0.62978554 -0.46329346
0.4708848 -0.8439635 -0.41477486 -0.7219797 -0.15920457 -0.0020227747 -0.98866075 -1.8317862
-0.4374194 -0.26932934 0.19240029 -0.12327122 -3.5683396 -2.129195 -0.6082177 -1.2747482
-1.3856031 -2.4405806 1.7943124 0.830241 -2.5897603 0.17633949 0.013902086 -0.2725002
-0.0039987946 -0.609306 -0.65756726 -0.6090564 -1.253997 0.40250805 -0.45523897 -1.3812016
