checkpoint_actor.pth (torch_old, 894174 bytes, 16 tensors)

bn0.weight f4 [24]
0	0x3eb358c1	0.3502865
1	0x3f005875	0.50134975
2	0x3e115304	0.14191824
3	0x3e76fdfc	0.24120325
4	0x3f8ced05	1.1009833
5	0x3f87ed26	1.0619247
6	0x3f071916	0.52772653
7	0x3ee20489	0.44144085
8	0x3e9d98d4	0.3078066
9	0x3e0bb940	0.13644886
10	0x3de464eb	0.11152061
11	0x3e3be98f	0.18350814
12	0xb9774463	-0.00023581232
13	0x3e8067f8	0.25079322
14	0x3f11cb70	0.56951046
15	0x3ed293c1	0.41128352
16	0x3eed0cbe	0.46298784
17	0x3ece7318	0.40322185
18	0x3f1a28fb	0.6021878
19	0x3f4c2ca7	0.79755634
20	0x3f879334	1.0591798
21	0x3f301664	0.68784165
22	0x3e0b66b2	0.13613394
23	0x3e0a73c8	0.1352073

bn0.bias f4 [24]
0	0xbca13119	-0.019676732
1	0xbc8d5d36	-0.01725636
2	0xb9cd9e46	-0.0003921857
3	0xbc92082f	-0.017826168
4	0x3ab0e8f9	0.0013497166
5	0xbcd2892a	-0.02570017
6	0x3c87064c	0.016482495
7	0x3b759ea7	0.0037478597
8	0xbbcb0c1c	-0.006196512
9	0xbbda3196	-0.006658743
10	0xbc1a1778	-0.009405009
11	0xbbed8f01	-0.0072497134
12	0x3b27a634	0.0025581243
13	0x39dbed31	0.00041947656
14	0xbc992025	-0.018692086
15	0xbb04d8e0	-0.002027087
16	0xbb97118a	-0.004610245
17	0x3c4d237f	0.01252067
18	0x3beadaf7	0.007167216
19	0xbc0dec39	-0.008662277
20	0x3a0bd22d	0.0005333748
21	0xbc4ca31b	-0.012490059
22	0xbca3d7fa	-0.020000447
23	0xbaa0b746	-0.0012261651

bn0.running_mean f4 [24]
0	0xc094fa2c	-4.6555386
1	0xbd5be515	-0.053685267
2	0x4106bc02	8.4209
3	0x3bdfe83e	0.0068331053
4	0x3d4925cc	0.04910831
5	0x4086c552	4.211587
6	0x4106bc02	8.4209
7	0x3bdfe83e	0.0068331053
8	0xc0958d7a	-4.67352
9	0xbd4bb037	-0.0497286
10	0x411257fe	9.146482
11	0xbc546446	-0.01296336
12	0x3d7086dc	0.058722362
13	0x40869c0a	4.2065477
14	0x411257fe	9.146482
15	0xbc546446	-0.01296336
16	0xc096083b	-4.6885047
17	0xbd40ef24	-0.047103062
18	0x410cce44	8.800358
19	0xbd1fe114	-0.03903301
20	0x3d983d3a	0.07433553
21	0x40868391	4.2035604
22	0x410cce44	8.800358
23	0xbd1fe114	-0.03903301

bn0.running_var f4 [24]
0	0x41825405	16.291025
1	0x3f278c8a	0.6544882
2	0x4423dd81	655.461
3	0x419ffa41	19.997194
4	0x41d26fbd	26.30456
5	0x3ffeff69	1.9921695
6	0x4423dd81	655.461
7	0x419ffa41	19.997194
8	0x418084fe	16.064938
9	0x3f264173	0.6494362
10	0x441fc90f	639.14154
11	0x419e8df3	19.819311
12	0x41d508a1	26.629213
13	0x3fffe9f2	1.999327
14	0x441fc90f	639.14154
15	0x419e8df3	19.819311
16	0x417f5189	15.957406
17	0x3f23c137	0.639667
18	0x4420c1dd	643.0291
19	0x41a05003	20.039068
20	0x41d57938	26.684189
21	0x3ffdb09e	1.9819524
22	0x4420c1dd	643.0291
23	0x41a05003	20.039068

fc1.weight f4 [400, 24]
0	0x3d26b2e6	0.040697955
1	0x3c9b0b97	0.018926425
2	0x3d797150	0.06089908
3	0xbd74fd34	-0.059811786
4	0x3e8e15b0	0.2775092
5	0x3d973f32	0.073851004
6	0x3d864075	0.06555263
7	0xbe17c741	-0.14822103
8	0x3d233a38	0.039850444
9	0x3d42067e	0.047369473
10	0xbc86eab6	-0.01646934
11	0x3d07c72f	0.03314894
12	0x3c822eda	0.015891481
13	0x3d69e9f7	0.057107892
14	0xbd8351a4	-0.06412056
15	0x3d7cea66	0.061746977
16	0xbd3edc62	-0.046596892
17	0x3df4c0be	0.11950825
18	0xbcede0c5	-0.029037843
19	0xbd051049	-0.032486234
20	0xbe329dfa	-0.17443076
21	0x3d87aa19	0.066242404
22	0xbd96f671	-0.07371224
23	0xbd3f6bb7	-0.046733584
24	0xbe26da23	-0.1629415
25	0xbcdb4b22	-0.026769225
26	0xbd75c782	-0.06000472
27	0x3bf1567c	0.007365046
28	0xbcbde123	-0.023178643
29	0x3e95e0b5	0.29273
30	0xbc83d063	-0.016090577
31	0x3b3ef124	0.002913543
32	0xbd6f764e	-0.058462434
33	0xbcd6b13b	-0.026207557
34	0x3cd493ec	0.02594944
35	0xbd489eee	-0.048979692
36	0xbd2e87ad	-0.04260986
37	0xbb6a6eda	-0.003577164
38	0x3d9ffee7	0.07812291
39	0xbdf542da	-0.119756415
40	0x3cc01b58	0.023450539
41	0xbceadc7d	-0.02866959
42	0x3dee57d0	0.11637843
43	0x3da2bcd2	0.07946171
44	0x3dc30260	0.09521937
45	0xbe909588	-0.28239083
46	0x3d094115	0.033509333
47	0x3d39ca93	0.045359205
48	0xbde2a33a	-0.11066289
49	0x3c9ca5d6	0.019122045
50	0xbe012de0	-0.12615156
51	0xbd6b1e0d	-0.057401706
52	0x3d51b792	0.051200457
53	0xbe2bf3cb	-0.16792218
54	0xbdb848cd	-0.08998261
55	0xbd248b75	-0.04017206
56	0xbdc6fb49	-0.097158976
57	0x3d36ef68	0.04466191
58	0x3d33ee05	0.043928165
59	0xbdfe2918	-0.12410182
60	0x3d8ee01a	0.06976338
61	0x3db6c9e5	0.08925227
62	0xba0eac49	-0.00054425426
63	0xbe2a0416	-0.16603121
64	0xbda6f5f8	-0.081523836
65	0xbc71a761	-0.014749379
66	0xbe17d48a	-0.14827171
67	0xbd39f93e	-0.04540371
68	0x3d97e4f9	0.0741672
69	0x3f05b738	0.52232695
70	0xbe0d6a42	-0.13810065
71	0xbc81d0c0	-0.01584661
72	0xbe4d8d7b	-0.20073502
73	0x3de1eed1	0.11031879
74	0xbe1afc4f	-0.1513531
75	0xbe828db4	-0.25498736
76	0x3d157e2e	0.036497287
77	0xbd0864bc	-0.033299193
78	0xbe143843	-0.14474587
79	0xbe9a0fb8	-0.30090117
80	0xbe43eca4	-0.1913324
81	0x3d4e9b84	0.05044128
82	0xbd97b65e	-0.07407831
83	0xbdb0c475	-0.08631221
84	0xbdfe32b5	-0.12412015
85	0x3d31a66d	0.043371607
86	0xbc797d9a	-0.0152277
87	0xbe347264	-0.17621762
88	0xbcd77e77	-0.02630542
89	0x3e30a7f5	0.1725157
90	0x3eb07042	0.34460646
91	0x3df875c3	0.12131836
92	0x3dacdd77	0.084406786
93	0xbc3b412d	-0.011429113
94	0x3e90f335	0.28310552
95	0x3e0055be	0.12532708
96	0xbdcf9766	-0.10136299
97	0x3d6a220f	0.057161387
98	0xbe6c2ef6	-0.23064789
99	0x3e0b073f	0.13576983
100	0x3d240ca9	0.040051136
101	0x3d9dc174	0.07702914
102	0xbe3d15d9	-0.18465365
103	0x3e207551	0.15669753
104	0xbdd11c87	-0.10210519
105	0x3e0db6be	0.13839242
106	0xbdf2329a	-0.11826058
107	0x3da48b07	0.0803433
108	0xbd4be0d3	-0.049774956
109	0x3e608bbe	0.21928307
110	0xbe06e20f	-0.13172172
111	0x3cf26b7c	0.029592268
112	0xbe0de756	-0.13857779
113	0x3dd27338	0.102758825
114	0xbd752663	-0.05985106
115	0x3e41d3d7	0.18928467
116	0xbd8bd0e4	-0.06826952
117	0x3e673e4c	0.22582358
118	0xbdbadd6a	-0.09124263
119	0x3e744422	0.23854116
120	0x3d9f7e2d	0.07787738
121	0x3be2f998	0.0069267265
122	0x3f19491c	0.5987718
123	0xbdab8468	-0.08374864
124	0x3a49099a	0.0007668972
125	0x3d7722dc	0.06033598
126	0x3f174529	0.59089905
127	0x3bf95981	0.0076095467
128	0x3e079ebe	0.13244149
129	0x3cd34d47	0.025793685
130	0xbde6e33b	-0.112738095
131	0x3e135e89	0.14391531
132	0xbc403efa	-0.011733765
133	0xbd98de93	-0.07464328
134	0xbdb1732a	-0.08664544
135	0x3e155864	0.145845
136	0x3e20b01a	0.15692177
137	0xbda8ab33	-0.08235779
138	0xbcaa90b6	-0.020820957
139	0xbd695452	-0.05696518
140	0x3c783acd	0.015150738
141	0xbe115c09	-0.14195265
142	0xbb10a510	-0.0022071041
143	0xbda21127	-0.07913428
144	0xbc2cce4b	-0.010547231
145	0x3e0a2313	0.13489942
146	0x3de6abc9	0.11263234
147	0x3ca97a2d	0.02068814
148	0x3e273cba	0.16331759
149	0xbd46eee0	-0.048567653
150	0x3dab4df0	0.08364475
151	0x3db9e14c	0.09076175
152	0xbcedbc9f	-0.029020606
153	0xbd7bbe17	-0.06146058
154	0xbcc8de60	-0.0245201
155	0x3d42fba8	0.04760328
156	0x3e4e44ed	0.2014348
157	0xbc2d74cc	-0.010586929
158	0x3cb344b2	0.021883342
159	0x3d56e624	0.052465573
160	0x3de6c0cf	0.11267244
161	0xbdeb82c8	-0.11499554
162	0x3c82683a	0.01591884
163	0x3ea3dc5e	0.32004064
164	0x3db5838f	0.088629834
165	0x3e034e4f	0.12822841
166	0xbd1178b9	-0.03551552
167	0x3e83bfd9	0.25732306
168	0x3bc33524	0.0059572626
169	0x3dad37e0	0.08457923
170	0x3e726fef	0.23675512
171	0x3d8cae69	0.068692036
172	0x3e0aa544	0.13539606
173	0x3e1d89f3	0.15384655
174	0x3e28c858	0.16482675
175	0x3d808ddf	0.0627706
176	0x3dbc32a9	0.0918935
177	0x3e135984	0.14389616
178	0x3dca5c52	0.0988089
179	0x3dfd819f	0.12378239
180	0x3d8d5d4d	0.06902561
181	0x3b81ad9f	0.003957465
182	0x3e0077e0	0.12545729
183	0x3de0f4d2	0.10984196
184	0x3dd32c0d	0.103111364
185	0x3e76ba15	0.24094422
186	0xbda9d3fc	-0.08292386
187	0x3d75142e	0.059833698
188	0xbe25af57	-0.16180168
189	0xbe65545c	-0.22395462
190	0xbd7091de	-0.05873286
191	0x3d03bbf9	0.032161687
192	0xbebeb6c6	-0.3724882
193	0x3d9681a2	0.07348944
194	0x3daad0cf	0.08340608
195	0xbe71f1d0	-0.236274
196	0x3e18cd59	0.14922084
197	0xbcff3a39	-0.031155692
198	0x3d5d5ef2	0.054045625
199	0xbe62bcdc	-0.22142357
200	0xbe8d5af6	-0.2760846
201	0xbe1a3355	-0.15058644
202	0x3e156099	0.1458763
203	0xbd84800a	-0.06469734
204	0x3e012e27	0.12615262
205	0xbd932759	-0.07185239
206	0x3e100eaa	0.14068094
207	0xbd401a81	-0.046900276
208	0xbe0e8385	-0.13917358
209	0xbdb98df2	-0.09060277
210	0x3e188667	0.1489502
211	0x3d51d751	0.051230732
212	0x3c91a25c	0.017777614
213	0xbd843764	-0.064558774
214	0x3de6a9ce	0.112628564
215	0x3c1e8f20	0.009677678
216	0xbe45ffa7	-0.19335805
217	0x3d04542a	0.032306828
218	0xbc215293	-0.009846347
219	0xbe7003d7	-0.23438965
220	0x3db6d189	0.089266844
221	0x3e1715f3	0.14754467
222	0x3d2a0f3f	0.041518446
223	0xbe6a7a8a	-0.22898307
224	0xbd99eb99	-0.0751564
225	0xbb31fb6f	-0.0027157923
226	0x3e5bc142	0.21460441
227	0x3daaaf64	0.08334234
228	0x3d06d5d3	0.032918762
229	0x3dcdd725	0.10050801
230	0x3e6017e5	0.21884115
231	0x3db9ce48	0.09072548
232	0xbd0f5dc6	-0.03500154
233	0x3c8a8119	0.016907262
234	0xbdc11403	-0.09427645
235	0x3e952b14	0.29134429
236	0x3d2b06e1	0.041754607
237	0x3d8b1dc2	0.06792785
238	0xbd293007	-0.041305568
239	0x3e976dab	0.29575858
240	0x3e07558a	0.13216224
241	0x3e23cce7	0.15996133
242	0x3c9cd2ce	0.019143488
243	0x3de2ca1a	0.11073704
244	0x3dc48daf	0.095973365
245	0x3e92b303	0.286522
246	0x3c84b417	0.016199155
247	0x3de94ad1	0.11391223
248	0x3d5046a0	0.050848603
249	0x3d96b769	0.073592015
250	0xbcf5a017	-0.029983563
251	0xbdcf1d18	-0.10112971
252	0xbcba7ad0	-0.02276364
253	0xbd8ea5e2	-0.069652334
254	0xbc9868e8	-0.01860471
255	0xbdb628cb	-0.088944994

fc1.bias f4 [400]
0	0x3e39889e	0.18118522
1	0xbdf4a21b	-0.11944982
2	0xbd6ae43d	-0.05734657
3	0xbd709602	-0.05873681
4	0xbe156ee0	-0.14593077
5	0x3d4623dc	0.048374042
6	0xbdf23669	-0.11826784
7	0xbd91fcd1	-0.07128299
8	0xbcca05e1	-0.024661006
9	0xbcd0ee19	-0.025504159
10	0x3e05223b	0.13001339
11	0x3e209f4a	0.15685764
12	0x3c66d5a2	0.01408902
13	0x3b5eccc9	0.0033996573
14	0x3e070c04	0.13188177
15	0x3e2c9350	0.1685307
16	0xbe23e67a	-0.16005889
17	0x3e2abd18	0.16673696
18	0xbe0beb9e	-0.136641
19	0xbe334bf3	-0.17509441
20	0xbe02d3fd	-0.1277618
21	0x3e153a66	0.14573058
22	0xbd855dc7	-0.06512027
23	0x3e3ec36e	0.18629238
24	0x3e3f35b3	0.18672828
25	0x3bb85189	0.005624954
26	0xbd8852a7	-0.0665639
27	0x3dcb0814	0.0991365
28	0xbd744e96	-0.059645258
29	0x3e4f8a52	0.20267609
30	0xbdd8b70f	-0.10581791
31	0xbe4bc3b8	-0.1989888
32	0x3d8471aa	0.06466992
33	0x3dd0cb0e	0.101949796
34	0xbe06e083	-0.13171582
35	0x3c223073	0.0098992465
36	0xbe3e6c57	-0.18596016
37	0x3d46333c	0.048388705
38	0x3dddfdf3	0.108394526
39	0xbe443f85	-0.19164856
40	0x3da21985	0.07915024
41	0xbdcccf12	-0.10000433
42	0x3ddcd386	0.107825324
43	0xbde31326	-0.11087637
44	0xbe284503	-0.16432576
45	0x3e423fdd	0.18969674
46	0x3d855c9a	0.06511803
47	0x3d6512c5	0.055926103
48	0x3ceaf482	0.028681044
49	0xbe18a806	-0.14907846
50	0xbe2b6555	-0.16737874
51	0x3df54f95	0.1197807
52	0xbd9360d4	-0.07196203
53	0xbd076339	-0.03305361
54	0x3e442458	0.19154489
55	0xbdbfc2f4	-0.09363356
56	0xbc15bf29	-0.009139814
57	0x3de39bf0	0.11113727
58	0xbd5b0a72	-0.05347676
59	0xbdea50c4	-0.11441186
60	0xbe3ec861	-0.18631126
61	0xbdf68081	-0.12036229
62	0x3e151e78	0.14562404
63	0x3e254606	0.16139993
64	0x3dd07063	0.10177686
65	0x3e0b31fe	0.1359329
66	0x3e1fb18b	0.15595071
67	0x3e3412c2	0.1758528
68	0xbdcd6df2	-0.10030736
69	0x3e26f14e	0.16302988
70	0x3c0ad337	0.008473209
71	0x3d8f5a76	0.06999676
72	0x3c32f08f	0.010921611
73	0x3cd81cc5	0.026380906
74	0xbd8e6f27	-0.069547944
75	0xbe2d2694	-0.16909248
76	0x3d490bf1	0.049083654
77	0xbd82e0f8	-0.06390566
78	0x3e29fcc2	0.16600326
79	0x3e3d2abf	0.18473338
80	0xbe10df48	-0.14147675
81	0x3d2c0dca	0.042005338
82	0x3dbb1f2e	0.091368064
83	0xbd7c8f9d	-0.061660398
84	0xbd4baa94	-0.049723223
85	0xbd1ddb7a	-0.038539387
86	0x3e22b1a6	0.1588808
87	0x3c7134e2	0.014722081
88	0x3e22c6a8	0.15896094
89	0x3e196669	0.14980473
90	0xbe4a5ff2	-0.19763163
91	0x3e458c00	0.19291687
92	0x3d4a23ed	0.049350668
93	0x3cbe69d3	0.02324382
94	0x3e3a9197	0.182196
95	0x3da2eee2	0.079557195
96	0x3d0513ad	0.032489467
97	0xbd289160	-0.041154265
98	0xbd83608e	-0.06414901
99	0xbe123293	-0.14277105
100	0xbda38a6c	-0.07985386
101	0xbc0d5965	-0.00862727
102	0x3e0a4f93	0.13506918
103	0x3e282c56	0.16423163
104	0xbd9d0f75	-0.07668964
105	0x3cdad5f0	0.026713341
106	0x3e22135d	0.15827699
107	0xbe0f2da7	-0.13982259
108	0x3e057b7f	0.13035391
109	0x3de8c7eb	0.11366256
110	0x3d220968	0.03955975
111	0x3e1b4f26	0.15166911
112	0x3e14ed96	0.14543757
113	0x3dd82616	0.10554139
114	0x3da34f5d	0.07974122
115	0xbd9f1aec	-0.07768807
116	0x3d9683fa	0.07349391
117	0x3d056dd5	0.032575447
118	0xbce53785	-0.027980575
119	0xbdd580b7	-0.10424941
120	0x3df176be	0.117902264
121	0xbdd790b1	-0.105256446
122	0x3dd83d7e	0.10558604
123	0x3cde7320	0.027154505
124	0x3ded49b9	0.11586327
125	0xbe489515	-0.1958812
126	0x3d9edbdf	0.07756781
127	0x3e470800	0.19436646
128	0xbdfb3f75	-0.12267963
129	0xbe1ebcb0	-0.15501666
130	0x3e47bb55	0.19505055
131	0xbdda3984	-0.106555015
132	0xbcc8eda7	-0.024527384
133	0x3ddccbe4	0.107810766
134	0x3d2ea910	0.0426417
135	0x3e08e748	0.13369477
136	0x3e32c92b	0.17459552
137	0x3d9f5551	0.07779945
138	0xbdd595fc	-0.10428998
139	0x3da973b9	0.082740255
140	0x3d4fabba	0.05070088
141	0xbcecf3d0	-0.028924853
142	0x3e0a101a	0.13482705
143	0xbd9bdffb	-0.0761108
144	0xbe3e3ad6	-0.18577132
145	0xbd8daede	-0.06918119
146	0x3d2f6954	0.042825058
147	0xbbfdb885	-0.0077429437
148	0xbc5d697d	-0.01351392
149	0x3d99a49d	0.075021006
150	0xbe1da98c	-0.15396708
151	0x3e2724ac	0.16322583
152	0x3e1bc089	0.15210165
153	0x3e3cef7e	0.18450734
154	0xbd5c0b36	-0.05372163
155	0x3e13155a	0.14363614
156	0x3d98cfd6	0.074615166
157	0x3d5e853e	0.05432629
158	0x3df4e7a3	0.11958244
159	0xbd9c3aed	-0.07628427
160	0xbdbd506b	-0.09243854
161	0x3d7a2277	0.061068024
162	0x3e1b96df	0.15194272
163	0x3db6317b	0.088961564
164	0xbda51a5f	-0.080616705
165	0x3e03b5aa	0.12862268
166	0x3dee9844	0.11650136
167	0x3d5913ee	0.052997522
168	0x3dcb7532	0.099344626
169	0xbd821227	-0.063511185
170	0xbdecb285	-0.115574874
171	0x3c85a37e	0.01631331
172	0x3c6b3844	0.0143566765
173	0x3d310d1e	0.0432254
174	0xbcbf7eec	-0.02337595
175	0x3d71a30d	0.058993388
176	0x3db59653	0.08866563
177	0xbd451ec4	-0.048125044
178	0xbdb82955	-0.089922585
179	0x3e4fda9e	0.2029824
180	0x3ddf5c11	0.10906232
181	0xbd6212d2	-0.05519373
182	0xbe4273a1	-0.18989421
183	0xbd6d087d	-0.057869423
184	0xbe129903	-0.14316182
185	0x3cc8a54f	0.024492888
186	0x3df50d36	0.119654104
187	0xbe479a02	-0.19492343
188	0xbe283e64	-0.1643005
189	0xbe4e056f	-0.2011926
190	0x3daff895	0.08592335
191	0x3e1cac5f	0.1530013
192	0xbde40bda	-0.11135073
193	0xbd86f483	-0.06589606
194	0xbdb62223	-0.0889323
195	0x3dba51b3	0.09097614
196	0xbca11c9a	-0.019666959
197	0x3e3dfb38	0.18552864
198	0x3d974155	0.07385508
199	0xbd92f2dd	-0.07175229
200	0x3de365a4	0.11103371
201	0x3da29ed1	0.07940448
202	0xbe35f757	-0.17770134
203	0x3e505e8c	0.20348567
204	0xbcb4599c	-0.022015385
205	0xbdf63ef0	-0.12023723
206	0x3da9084e	0.08253537
207	0x3e403280	0.18769264
208	0xbd06f07b	-0.032944184
209	0x3e57321f	0.21015213
210	0x3df30a6d	0.11867223
211	0xbd932ccf	-0.07186281
212	0x3e102e8c	0.14080256
213	0xbd8a5bcf	-0.06755792
214	0x3dedb14b	0.116060816
215	0x3d8a0c91	0.06740678
216	0x3d74485a	0.059639312
217	0x3e4fec1c	0.20304912
218	0x3b87187f	0.004122793
219	0x3e2df17b	0.16986649
220	0x3d3c94da	0.046040393
221	0xbd7946af	-0.060858425
222	0x3e07bf1a	0.13256493
223	0xbe42b303	-0.190136
224	0xbc04a2bb	-0.008095439
225	0xbdb114b1	-0.08646525
226	0xbd25eec2	-0.0405109
227	0x3e04f51a	0.12984124
228	0x3e3c19c1	0.183692
229	0x3df59496	0.11991231
230	0x3d9a5201	0.07535172
231	0x3c958bdd	0.018255169
232	0xbe297634	-0.16548997
233	0x3d62e622	0.055395253
234	0x3de019a8	0.109423935
235	0xbe089fcb	-0.13342206
236	0x3e433da0	0.19066477
237	0xbca3a398	-0.019975469
238	0xbc8a4b6a	-0.016881663
239	0x3bcfb10c	0.0063382443
240	0x3e432467	0.19056855
241	0x3e2d02b1	0.16895558
242	0x3e48d173	0.19611149
243	0x3ded30d1	0.115815766
244	0x3c69bdc4	0.014266435
245	0xbd780d28	-0.06055942
246	0x3de71035	0.11282388
247	0x3d7d90a8	0.061905533
248	0x3c087966	0.008329725
249	0xbdeabbb7	-0.11461585
250	0x3dd26b3e	0.10274361
251	0xbddd6484	-0.108101875
252	0xbe40afb3	-0.18817024
253	0xbde0dd5f	-0.10979723
254	0x3e10205a	0.14074841
255	0x3d34960e	0.044088416

bn1.weight f4 [400]
0	0x3f715b1c	0.94279647
1	0x3f7f8e9d	0.99826986
2	0x3f661219	0.89871365
3	0x3eeb767a	0.45988828
4	0x3f2d7bd1	0.67767054
5	0x3ef8a803	0.48565683
6	0x3e37b196	0.17938837
7	0x3f02cef2	0.51097023
8	0x3ef20f3e	0.47277254
9	0x3e8b791a	0.2724083
10	0x3f6d9a74	0.928138
11	0x3e5b5db4	0.21422464
12	0x3e0322bb	0.12806217
13	0x3f63ad2f	0.8893613
14	0x3f689bb9	0.90862614
15	0x3f11bff3	0.56933516
16	0x3f47fbe1	0.7811871
17	0x3f632894	0.8873379
18	0x3f4eb23c	0.80740714
19	0x3f478c14	0.7794812
20	0x3ee6046c	0.4492525
21	0x3ec47035	0.38366857
22	0x3f42505e	0.7590388
23	0x3f32e526	0.698809
24	0x3f4c8a8b	0.798989
25	0x3e7802a2	0.24219754
26	0x3f4320b6	0.7622179
27	0x3e90f0b8	0.28308654
28	0x3e8a2d37	0.2698762
29	0x3e40ccad	0.18828078
30	0x3f157fa2	0.5839788
31	0x3e859192	0.26087624
32	0x3f556517	0.83357376
33	0x3f0f8515	0.5606244
34	0x3ef20de8	0.47276235
35	0x3ecaa35f	0.39577767
36	0x3f572af9	0.84049946
37	0x3f8e1e27	1.1102952
38	0x3ef1eeb4	0.4725243
39	0x3f5dd813	0.8665783
40	0x3f6d0ca9	0.9259744
41	0x3f2f4213	0.68460196
42	0x3f45274c	0.7701309
43	0x3ecfa613	0.40556392
44	0x3ef14e65	0.47130123
45	0x3f68c247	0.90921444
46	0x3f676a26	0.90396345
47	0x3f62b115	0.88551456
48	0x3f62b044	0.8855021
49	0x3f75f557	0.96077484
50	0x3fcb7fa1	1.5898324
51	0x3ee36c76	0.44418687
52	0x3f571365	0.8401397
53	0x3f4b515d	0.79421026
54	0x3ed6cbea	0.4195245
55	0x3f54047d	0.8281935
56	0x3f60f4e3	0.8787367
57	0x3f5111c8	0.8166776
58	0x3ebc51eb	0.36781248
59	0x3e9b8415	0.30374208
60	0x3f4e76a2	0.8064977
61	0x3f31081d	0.69153005
62	0x3f0ab81e	0.5418719
63	0x3ed4b5d5	0.41544977
64	0x3ea63b20	0.32466984
65	0x3f253000	0.6452637
66	0x3f4c725b	0.7986199
67	0x3f65a46e	0.89704025
68	0x3f35dbc0	0.71038437
69	0x3ed8ac1a	0.42318803
70	0x3f3823b5	0.71929485
71	0x3f216f48	0.63060427
72	0x3f135368	0.5754914
73	0x3f655bb6	0.89593065
74	0x3e178bd7	0.14799438
75	0x3ee7187c	0.45135868
76	0x3ef96542	0.48710066
77	0x3f410747	0.7540173
78	0x3f08a5bb	0.53377885
79	0x3f52736e	0.8220738
80	0x3f48366b	0.78208035
81	0x3f0ccf88	0.5500417
82	0x3f0338f0	0.51258755
83	0x3ea00058	0.31250262
84	0x3f1f4431	0.62213427
85	0x3edee19a	0.43531495
86	0x3f80bb24	1.0057111
87	0x3f6e65e7	0.9312424
88	0x3f30800a	0.6894537
89	0x3f35ecb6	0.7106432
90	0x3f610984	0.87905145
91	0x3f27eb8c	0.6559379
92	0x3f2a805d	0.66602117
93	0x3f6e0c6a	0.9298769
94	0x3f30092b	0.6876399
95	0x3ee08fb0	0.43859625
96	0x3f029cc7	0.51020473
97	0x3f66abc1	0.90105826
98	0x3ef3bcff	0.4760513
99	0x3fa33608	1.2750864
100	0x3f63b881	0.88953406
101	0x3e6e7eaa	0.23290506
102	0x3ea1e220	0.31617832
103	0x3f6df139	0.929462
104	0x3faca379	1.3487388
105	0x3f4beb09	0.7965551
106	0x3f4e423b	0.8056981
107	0x3f46e5de	0.776945
108	0x3f0a8de0	0.54122734
109	0x3e9b921a	0.30384904
110	0x3f4e13cd	0.80498964
111	0x3eac9ef7	0.3371503
112	0x3f761adb	0.9613473
113	0x3f91370d	1.1344925
114	0x3ecb6505	0.3972551
115	0x3f04e3a0	0.5190983
116	0x3eb90326	0.36135215
117	0x3e3f2bc6	0.18669042
118	0x3f41089c	0.7540376
119	0x3f65381c	0.8953874
120	0x3f97a435	1.1846987
121	0x3dfb7a75	0.12279216
122	0x3f29fca8	0.6640115
123	0x3f00814f	0.5019731
124	0x3e97dc81	0.2966042
125	0x3f0658c0	0.5247917
126	0x3f259210	0.64676
127	0x3f86fe54	1.0546365
128	0x3f214b03	0.63005084
129	0x3fa34acf	1.2757205
130	0x3ece11e0	0.40248013
131	0x3f1a3d29	0.60249573
132	0x3f486df0	0.7829275
133	0x3f05e47b	0.5230176
134	0x3f364dae	0.7121228
135	0x3f4dca30	0.8038664
136	0x3f3f22db	0.7466256
137	0x3f273bb1	0.65325457
138	0x3f323ec8	0.69627047
139	0x3f608ec7	0.8771786
140	0x3f744865	0.95422965
141	0x3f5e8b40	0.8693123
142	0x3fc180c0	1.5117416
143	0x3f10710e	0.5642251
144	0x3ec090b7	0.3761041
145	0x3f3f5dda	0.7475258
146	0x3ef64dbf	0.4810619
147	0x3ec9de24	0.39427292
148	0x3f07f3e7	0.5310654
149	0x3f4df155	0.8044637
150	0x3e474189	0.19458593
151	0x3e984c53	0.2974573
152	0x3eeb027d	0.45900336
153	0x3f5dacf9	0.8659206
154	0x3f30ce69	0.69064957
155	0x3f411ddc	0.75436187
156	0x3edecfa2	0.43517786
157	0x3eb4edfe	0.35337824
158	0x3f412064	0.7544005
159	0x3e905662	0.28190905
160	0x3e316e68	0.17327273
161	0x3f1fcde7	0.6242356
162	0x3eebdc0a	0.46066314
163	0x3f1b4d68	0.6066499
164	0x3f9354c0	1.1510239
165	0x3f491731	0.7855101
166	0x3e65cbbe	0.22441003
167	0x3f71d963	0.9447233
168	0x3fa9cdf3	1.3265976
169	0x3f4974c1	0.7869378
170	0x3ec0a4b2	0.37625653
171	0x3f350101	0.70704657
172	0x3ed9c497	0.425328
173	0x3f52f5df	0.8240642
174	0x3f296fa8	0.66186
175	0x3e6232fd	0.22089763
176	0x3f1e8415	0.6192029
177	0x3eff365c	0.4984616
178	0x3f63fe4d	0.8905991
179	0x3f6d367f	0.9266128
180	0x3ec4d5ab	0.38444266
181	0x3f0cda50	0.5502062
182	0x3f1adc07	0.60491985
183	0x3f38c056	0.7216848
184	0x3f5e33c9	0.8679777
185	0x3ed3526a	0.41273814
186	0x3f718024	0.9433615
187	0x3ed491e3	0.41517553
188	0x3e8860b2	0.26636273
189	0x3f175f3c	0.5912969
190	0x3e9bac74	0.3040501
191	0x3f7c5a61	0.9857541
192	0x3ef8f6e9	0.48625877
193	0x3f4bd85f	0.7962703
194	0x3f5033b9	0.8132892
195	0x3f3e14a2	0.74250233
196	0x3ea863ce	0.32888645
197	0x3f87705f	1.0581168
198	0x3eafcc52	0.34335572
199	0x3eeefdc3	0.4667798
200	0xbeb456ad	-0.35222378
201	0x3f54e119	0.8315597
202	0x3e7e2159	0.24817409
203	0x3f4f2f96	0.80931985
204	0x3ee54ce8	0.44785237
205	0x3f3e8875	0.74426967
206	0x3f8e2334	1.1104493
207	0x3f0e9e2b	0.55710095
208	0x3ec38809	0.38189724
209	0x3fe34f1f	1.7758521
210	0x3ef7782b	0.48333868
211	0x3f4672c8	0.7751889
212	0x3edef23c	0.43544185
213	0x3f26c65a	0.6514641
214	0x3ef18e74	0.47178996
215	0x3e70d983	0.23520474
216	0x3eb7666e	0.35820335
217	0x3ec4981f	0.3839731
218	0x3f423680	0.7586441
219	0x3e9eb7d4	0.30999625
220	0x3eb0494d	0.34430924
221	0x3f35744c	0.7088058
222	0x3e8f3e73	0.27977332
223	0x3efed8aa	0.49774677
224	0x3ee16ce2	0.44028383
225	0x3fa06bbd	1.2532879
226	0x3f64ac95	0.8932584
227	0x3f463f37	0.7744021
228	0x3f43bb7a	0.7645794
229	0x3f5b2370	0.8560095
230	0x3f0481f4	0.5176079
231	0x3f70ff7f	0.94139856
232	0x3f39acce	0.72529304
233	0x3f51db4b	0.8197524
234	0x3f703273	0.9382698
235	0x3eed11fb	0.4630278
236	0x3f8241ec	1.0176368
237	0x3f3bda86	0.73380315
238	0x3f04d23c	0.5188329
239	0x3ee89c11	0.4543157
240	0x3f67e837	0.90588707
241	0x3f3090b4	0.689708
242	0x3f0acbfb	0.542175
243	0x3f6607cf	0.89855665
244	0x3e681606	0.22664651
245	0x3f1a7c25	0.6034568
246	0x3f6dcdb5	0.9289201
247	0x3f12ff88	0.5742116
248	0x3f5a5340	0.8528328
249	0x3f17c6eb	0.592879
250	0x3e4a1b83	0.19737057
251	0x3f549ac2	0.8304864
252	0x3f2dcde8	0.67892313
253	0x3f49f685	0.78891784
254	0x3f2c25be	0.6724509
255	0x3f6c7eec	0.9238117

bn1.bias f4 [400]
0	0x3c501b59	0.012701833
1	0x3e02c6e0	0.12771177
2	0xbb4cf7b6	-0.0031275577
3	0x3c3695d7	0.011144123
4	0x3d953bb3	0.07286777
5	0x3d88de5f	0.06683039
6	0xbe3163b2	-0.17323187
7	0xbd8f43d8	-0.06995362
8	0xbd1d0bd8	-0.038341373
9	0xbb92f6de	-0.0044849953
10	0x3d87da61	0.06633449
11	0xbcfc15f8	-0.030772194
12	0xbdd59a9e	-0.104298815
13	0xbe4671a2	-0.19379285
14	0xbd75e77b	-0.06003521
15	0xbe7f3d68	-0.24925768
16	0xbda06df3	-0.07833471
17	0xbe470625	-0.19435938
18	0x3c6da308	0.014504202
19	0xbe053df7	-0.13011919
20	0xbe83432b	-0.25637183
21	0xbd861fbc	-0.065490216
22	0xbeab4dcd	-0.33457795
23	0xbe06f05a	-0.13177624
24	0x3e5145f3	0.2043684
25	0xbdc4bd71	-0.096064456
26	0xbdbc4900	-0.09193611
27	0xbe9d8765	-0.3076736
28	0xbe6e1768	-0.23251116
29	0xbe610bbe	-0.21977136
30	0xbec65ef2	-0.38744313
31	0xbe95b00b	-0.29235873
32	0xbe6cd271	-0.23127152
33	0xbeac2cc5	-0.33627906
34	0x3dd46570	0.1037091
35	0xbec09f93	-0.37621745
36	0xbeb33f77	-0.35009357
37	0x3deabb9a	0.114615634
38	0x3e530991	0.20609118
39	0xbe763f50	-0.2404759
40	0x3c04808d	0.0080872895
41	0x3e09c4cc	0.13453978
42	0x3e2eb489	0.17061056
43	0xbe270d62	-0.16313699
44	0xbe69f2dd	-0.22846551
45	0x3e3883a1	0.18018962
46	0x3cfa7292	0.03057221
47	0x3b95046f	0.0045476477
48	0xbe477617	-0.19478641
49	0x3e9910b1	0.29895547
50	0x3e72471a	0.23659936
51	0xbd8440ee	-0.06457697
52	0xbe32eacb	-0.17472379
53	0x3dc3adcb	0.09554633
54	0xbe42d37c	-0.19025987
55	0x3e1b1ded	0.15148135
56	0x3e448dab	0.19194667
57	0xbd89ed6a	-0.06734736
58	0x3d54fd11	0.051999155
59	0xbde3aa8c	-0.111165136
60	0xbe446422	-0.19178823
61	0xbdca5017	-0.09878557
62	0xbe095898	-0.13412702
63	0xbe815fd2	-0.25268418
64	0xbd933d9f	-0.07189488
65	0xbcc42c72	-0.023946974
66	0x3e85c167	0.26124117
67	0xbdc15168	-0.09439355
68	0xbe293468	-0.16523898
69	0xbe52eaba	-0.20597354
70	0xbd85e7b7	-0.06538337
71	0xbdf5492b	-0.11976846
72	0xbe3fa1dd	-0.1871409
73	0xbe918391	-0.2842069
74	0xbe2f557f	-0.17122458
75	0xbd8df3b6	-0.0693125
76	0xbe18346a	-0.14863744
77	0xbd9e17e7	-0.07719403
78	0x3ea6cde0	0.32578945
79	0xbe91e981	-0.28498462
80	0xbeab07cc	-0.33404386
81	0xbe7dc0bf	-0.24780558
82	0xbdeddbbb	-0.11614176
83	0xbe1c08ee	-0.15237781
84	0xbe257c78	-0.16160762
85	0xbe5b8d99	-0.21440734
86	0xbe1c5cbb	-0.15269749
87	0xbeb86bb1	-0.36019662
88	0xbe8e97fa	-0.27850324
89	0xbe186fbf	-0.14886378
90	0xbeb202c0	-0.34767723
91	0x3d702262	0.05862654
92	0x3d2ea046	0.042633317
93	0xbe78480e	-0.24246237
94	0xbe6bcc30	-0.2302711
95	0xbd0fed41	-0.035138372
96	0xbdf89c57	-0.121391945
97	0xbea119a0	-0.31464863
98	0xbeaa0990	-0.3321042
99	0xbde774d4	-0.1130158
100	0xbdf9b724	-0.121931344
101	0xbe4d07c8	-0.200225
102	0xbd70b884	-0.058769718
103	0xbe978ee9	-0.2960122
104	0x3ce315d1	0.027720364
105	0xbdab55af	-0.08365952
106	0xbdb979d4	-0.0905644
107	0xbe77cc3f	-0.24199007
108	0xbce1d7f1	-0.02756879
109	0xbe01fa35	-0.12693103
110	0xbe8f955d	-0.28043643
111	0xbe4bc359	-0.19898738
112	0x3cf2a45a	0.029619385
113	0xbbf7e93a	-0.0075656446
114	0xbe656602	-0.22402194
115	0xbe27af0f	-0.16375373
116	0xbe3a84c7	-0.18214713
117	0xbdbeb205	-0.09311298
118	0xbecb22dd	-0.39675036
119	0x3e9244e3	0.2856818
120	0x3d0bdc7f	0.03414583
121	0xbc78c204	-0.015182976
122	0x3d906893	0.07051196
123	0x3cfb5c74	0.030683734
124	0xbdf21030	-0.11819494
125	0xbe816d9a	-0.25278932
126	0xbec164a2	-0.3777209
127	0x3df5632a	0.11981805
128	0x3e197fb4	0.14990121
129	0xbc4020b0	-0.011726543
130	0x3dd49d19	0.103815265
131	0xbe0cfb6b	-0.13767783
132	0xbe1be616	-0.1522449
133	0x3dc3d178	0.09561437
134	0xbba4f9cd	-0.0050346614
135	0xbe3647c4	-0.17800814
136	0xbeb8e77e	-0.36114115
137	0xbe4cde5f	-0.20006703
138	0xbe8079a8	-0.25092816
139	0xbc522fdf	-0.012828796
140	0xbed83a3a	-0.42231923
141	0x3ea0912a	0.3136075
142	0x3ef53bf4	0.47897303
143	0xbe5a5418	-0.21321142
144	0xbe08869c	-0.133326
145	0x3d12702f	0.035751518
146	0x3eda5d75	0.42649427
147	0xbdf92962	-0.12166096
148	0xbbcb6dd6	-0.006208162
149	0x3d589868	0.05287972
150	0xbe46fc76	-0.19432244
151	0xbd97d2f4	-0.07413283
152	0x3a754a34	0.00093570654
153	0x3e6968ba	0.22793856
154	0xbf04c8a7	-0.5186867
155	0x3d28228e	0.04104858
156	0xbe3d9fcf	-0.18517993
157	0xbdbaae04	-0.09115222
158	0xbea3808d	-0.31934014
159	0xbe6850e5	-0.22687109
160	0xbdfa0676	-0.122082636
161	0x3e24ae29	0.16082062
162	0x3d7731c0	0.06035018
163	0xbe193f2c	-0.14965504
164	0xbe9f950e	-0.31168407
165	0xbe2dc60b	-0.16970079
166	0xbe1fcb81	-0.15604974
167	0xbe5c8fec	-0.21539277
168	0xbe08a8eb	-0.13345687
169	0xbe1063eb	-0.14100616
170	0xbddb0b75	-0.10695545
171	0xbec5c22b	-0.386247
172	0xbde485b9	-0.11158318
173	0x3bffb188	0.007803146
174	0x3d163267	0.03666916
175	0x3d1a7945	0.037713308
176	0xbe26ef40	-0.16302204
177	0xbe95eea9	-0.29283646
178	0xbe14d9cc	-0.14536208
179	0xbebeaaad	-0.3723959
180	0x3e9547a3	0.29156217
181	0xbe82d7a4	-0.25555146
182	0xbef45b40	-0.47725868
183	0xbe6efa75	-0.2333773
184	0xbe3a49c0	-0.18192196
185	0xbd49c1e9	-0.049257193
186	0xbe033100	-0.12811661
187	0xbdec7ef8	-0.11547655
188	0x3e99897b	0.29987702
189	0xbdbdf75c	-0.09275696
190	0xbe9057e7	-0.28192064
191	0x3cb83164	0.022484489
192	0xbe2fc6b9	-0.1716565
193	0xbe2255e4	-0.15853077
194	0xbe70757e	-0.2348232
195	0xbdb3c536	-0.087778494
196	0xbe1eeb10	-0.15519357
197	0xbdc5f403	-0.09665682
198	0xbe89c1fc	-0.2690581
199	0xbe5c079f	-0.21487282
200	0xbe28adce	-0.16472551
201	0xbe25c6a8	-0.16189063
202	0xbe51c098	-0.20483625
203	0xbda67d26	-0.08129339
204	0xbe246d0f	-0.16057228
205	0x3d5b826f	0.053591188
206	0x3e192112	0.14954022
207	0xbd93be6c	-0.072140545
208	0xbd24877f	-0.04016828
209	0x3ebb7064	0.36609185
210	0xbec98136	-0.39356393
211	0x3e92c98c	0.28669393
212	0xbe7a7302	-0.24457934
213	0x3da6d280	0.081456184
214	0x3e0789f2	0.13236216
215	0xbe91eeca	-0.28502494
216	0xbd538d4f	-0.051648434
217	0x3d51b0c9	0.051193986
218	0xbd54cd2e	-0.051953487
219	0x3d8ccc61	0.0687492
220	0x3d64b6d3	0.055838417
221	0x3dcaf748	0.099104464
222	0xbe506ddd	-0.2035441
223	0xbe09ceaf	-0.1345775
224	0xbd0d80dc	-0.034546718
225	0xbe209de3	-0.15685229
226	0xbdc884b3	-0.09790935
227	0x3ec76c25	0.38949695
228	0x3d9031af	0.070407264
229	0x3e0bdc74	0.13658315
230	0xbe8b187b	-0.27167115
231	0xbea9ec45	-0.33188072
232	0xbe13870d	-0.14406987
233	0xbdbf5968	-0.09343225
234	0xbdfc31e2	-0.12314202
235	0xbe15d466	-0.14631805
236	0xbe362723	-0.17788367
237	0xbe9407c5	-0.28912178
238	0xbd3923d2	-0.045200177
239	0xbce7af6e	-0.028281894
240	0xbe798458	-0.24366891
241	0x3cee7751	0.029109629
242	0xbe24885f	-0.16067646
243	0x3c33519d	0.010944751
244	0x3e6c60c9	0.23083796
245	0xbdd3209a	-0.10308953
246	0xbe04992b	-0.12949054
247	0x3caaf551	0.02086893
248	0xbecf98e6	-0.4054634
249	0xbdd2adff	-0.10287093
250	0xbdd2ba6c	-0.102894634
251	0xbe94bfa1	-0.2905245
252	0x3dcf2acb	0.10115584
253	0xbc2f82af	-0.01071231
254	0x3c8b1d91	0.016981872
255	0xbc8154e5	-0.015787551

bn1.running_mean f4 [400]
0	0x3e3b5b2f	0.18296503
1	0xbdf98487	-0.12183481
2	0xbd5f2e3a	-0.054487444
3	0xbd5da3d2	-0.05411131
4	0xbe1a1a33	-0.15049057
5	0x3d6969b6	0.05698558
6	0xbdfbc6c4	-0.12293771
7	0xbd9a8f4b	-0.07546862
8	0xbc776844	-0.015100542
9	0xbd008d60	-0.031384826
10	0x3dfa8284	0.12231925
11	0x3e26ca12	0.16288021
12	0x3cc41053	0.023933565
13	0x3abcc4b7	0.0014401887
14	0x3dfac40b	0.122444235
15	0x3e2dce34	0.16973191
16	0xbe259515	-0.16170152
17	0x3e2306f7	0.15920626
18	0xbe07bcba	-0.13255587
19	0xbe3f5dcd	-0.18688126
20	0xbe03e5a7	-0.12880574
21	0x3e114f52	0.14190415
22	0xbd7111a9	-0.058854733
23	0x3e3d880f	0.18508933
24	0x3e35a4ee	0.17738697
25	0x398dae95	0.0002702369
26	0xbd8c54aa	-0.06852086
27	0x3dd23f9b	0.10266038
28	0xbd7f032c	-0.062258884
29	0x3e51badd	0.20481439
30	0xbdd72659	-0.10505361
31	0xbe3b6fbf	-0.18304347
32	0x3d6c506c	0.057693884
33	0x3dce7baa	0.10082181
34	0xbdfea430	-0.1243366
35	0x3c5afa0a	0.013365278
36	0xbe3ef86a	-0.1864945
37	0x3d4c942b	0.04994599
38	0x3dfae501	0.1225071
39	0xbe3acea7	-0.18242894
40	0x3da7a557	0.08185833
41	0xbddc38d8	-0.107530296
42	0x3dd42b4c	0.10359821
43	0xbde29fa0	-0.11065602
44	0xbe36a265	-0.17835386
45	0x3e437625	0.19088037
46	0x3d8a814d	0.067629434
47	0x3d6027bb	0.05472539
48	0x3ccef49a	0.02526312
49	0xbe2a62f4	-0.1663931
50	0xbe24ee75	-0.16106589
51	0x3dfd7022	0.12374903
52	0xbd9b74ba	-0.07590623
53	0xbc99b66a	-0.01876374
54	0x3e42cffc	0.19024652
55	0xbdc2794c	-0.09495792
56	0xbc9086b0	-0.017642349
57	0x3e03d731	0.12875058
58	0xbd40e2ea	-0.047091402
59	0xbdf84757	-0.12122982
60	0xbe39284b	-0.18081777
61	0xbde94b90	-0.113913655
62	0x3e164ce2	0.14677766
63	0x3e2d569c	0.1692757
64	0x3dc9ae23	0.09847667
65	0x3e031822	0.12802175
66	0x3e2a8bd5	0.16654904
67	0x3e263edb	0.16234915
68	0xbde13c97	-0.10997885
69	0x3e2e5f3b	0.17028515
70	0x3c5b17bb	0.013372357
71	0x3d9ccb56	0.07655971
72	0x3c91f7f6	0.017818432
73	0x3cef13ff	0.02918434
74	0xbd59d86d	-0.053184915
75	0xbe31e6aa	-0.17373148
76	0x3d171775	0.036887605
77	0xbd78e104	-0.060761467
78	0x3e2ba23d	0.16761108
79	0x3e349d6d	0.17638178
80	0xbe1534fb	-0.14570992
81	0x3d290702	0.04126645
82	0x3db39e78	0.0877046
83	0xbd83b7bb	-0.06431528
84	0xbd52623f	-0.051363226
85	0xbd23039b	-0.03979836
86	0x3e1cfbdd	0.15330453
87	0x3c455ec7	0.012046522
88	0x3e2dd5b4	0.16976053
89	0x3e17ed15	0.14836533
90	0xbe4e0a77	-0.2012118
91	0x3e3d5d50	0.18492627
92	0x3d63f0af	0.055649456
93	0x3c8bb10a	0.017052192
94	0x3e417f2f	0.18896173
95	0x3da5c0b6	0.08093397
96	0x3cf2066a	0.029544074
97	0xbd275e29	-0.040861282
98	0xbd6e035e	-0.05810868
99	0xbe17574b	-0.14779393
100	0xbda98456	-0.08277194
101	0xbc9375e5	-0.018000552
102	0x3e006232	0.12537459
103	0x3e2084f9	0.15675725
104	0xbd9a381a	-0.07530232
105	0x3d090c0f	0.033458766
106	0x3e247ab3	0.16062431
107	0xbe1099f5	-0.1412123
108	0x3e12bba6	0.14329395
109	0x3de8ad93	0.11361232
110	0x3d1a6dbe	0.037702315
111	0x3e17ec2b	0.14836185
112	0x3e125444	0.14289957
113	0x3dd1169d	0.10209391
114	0x3d8d2143	0.0689111
115	0xbd81bd40	-0.06334925
116	0x3da2b8cc	0.079454035
117	0x3cff5df7	0.031172736
118	0xbce64b67	-0.028112127
119	0xbdd41827	-0.10356169
120	0x3dee2aa6	0.11629228
121	0xbdd667fb	-0.104690515
122	0x3dd146dd	0.10218594
123	0x3d08de7a	0.033415295
124	0x3dd72601	0.105052955
125	0xbe4a4157	-0.19751488
126	0x3d9aa747	0.07551437
127	0x3e450f9d	0.19244237
128	0xbdfe7c43	-0.12426045
129	0xbe3295d0	-0.17439961
130	0x3e47c257	0.19507729
131	0xbde49258	-0.11160725
132	0xbc205350	-0.009785488
133	0x3db5ffaa	0.08886655
134	0x3d588a85	0.052866478
135	0x3e00df35	0.12585147
136	0x3e2e8588	0.17043126
137	0x3d956e99	0.072964855
138	0xbdebdc1b	-0.11516591
139	0x3dc3d552	0.09562172
140	0x3d6bb817	0.05754861
141	0xbd177b35	-0.036982734
142	0x3e0d8784	0.13821226
143	0xbdaa8dee	-0.08327852
144	0xbe41a3a7	-0.18910085
145	0xbd859d9b	-0.065242015
146	0x3d3c326e	0.04594653
147	0xbc2abf75	-0.0104216235
148	0xbb9222d0	-0.0044597164
149	0x3da6bb1c	0.08141157
150	0xbe249d57	-0.16075645
151	0x3e2bde7f	0.16784094
152	0x3e0b548e	0.13606474
153	0x3e2c7403	0.1684113
154	0xbd2ad4af	-0.041706737
155	0x3e041918	0.12900198
156	0x3db45215	0.088047184
157	0x3d685c5c	0.056728706
158	0x3df9c0e7	0.12194996
159	0xbda1770c	-0.078840345
160	0xbdbed28c	-0.093175024
161	0x3d5adf99	0.053435896
162	0x3e16c9a9	0.14725365
163	0x3dc22ef3	0.09481611
164	0xbdb3fc9d	-0.087884165
165	0x3e0249ce	0.12723467
166	0x3df30ed5	0.11868063
167	0x3d4745aa	0.04865042
168	0x3dbd2a6a	0.092366055
169	0xbd836baf	-0.064170234
170	0xbdf65975	-0.12028781
171	0x3ca030c2	0.0195545
172	0x3bedbcb1	0.00725516
173	0x3d47462a	0.048650898
174	0xbcd63070	-0.026146144
175	0x3d6ee11d	0.058320154
176	0x3dd4ccf2	0.10390653
177	0xbd1f2bcb	-0.038860124
178	0xbdcaf1be	-0.0990939
179	0x3e43e38f	0.19129775
180	0x3deb189c	0.11479303
181	0xbd17cd88	-0.037061244
182	0xbe345dff	-0.17613982
183	0xbd5af740	-0.053458452
184	0xbe161a88	-0.14658558
185	0x3c907592	0.017634187
186	0x3debf7b8	0.11521858
187	0xbe4743da	-0.19459477
188	0xbe2b6153	-0.16736345
189	0xbe586ef8	-0.21136081
190	0x3dc6d3b2	0.097083464
191	0x3e1307a2	0.1435838
192	0xbddf8dec	-0.10915741
193	0xbd8cc65a	-0.0687377
194	0xbdb8e84c	-0.09028682
195	0x3da65e11	0.081234105
196	0xbcac8e8c	-0.021064065
197	0x3e323156	0.17401633
198	0x3d8de913	0.06929221
199	0xbd94953b	-0.07255026
200	0x3de15d54	0.11004129
201	0x3d9864eb	0.074411236
202	0xbe4031ec	-0.18769044
203	0x3e57ce00	0.21074677
204	0xbd0983b4	-0.033572868
205	0xbe026360	-0.12733221
206	0x3dbac7f7	0.091201715
207	0x3e3cc9ee	0.18436405
208	0xbcec2c0c	-0.028829597
209	0x3e5be0a7	0.21472417
210	0x3e0751df	0.13214825
211	0xbd9851c4	-0.074374706
212	0x3e1396e3	0.14413027
213	0xbd847339	-0.064672895
214	0x3debd299	0.11514778
215	0x3dab54c3	0.083657764
216	0x3d936090	0.07196152
217	0x3e4618be	0.19345376
218	0x3aff7257	0.0019489032
219	0x3e2504ed	0.1611516
220	0x3d574691	0.05255753
221	0xbd7eef5d	-0.062239993
222	0x3e0eab00	0.13932419
223	0xbe444d6d	-0.1917016
224	0x3a883de4	0.0010394421
225	0xbdb80ebd	-0.08987186
226	0xbd21c4dd	-0.039494384
227	0x3e120f66	0.14263687
228	0x3e3dab8f	0.18522476
229	0x3deca1be	0.115542874
230	0x3d9d7367	0.07688027
231	0x3cc3b87f	0.023891686
232	0xbe31e791	-0.17373492
233	0x3d6030d7	0.054734077
234	0x3dea94ba	0.114541486
235	0xbe1181ad	-0.14209624
236	0x3e432e57	0.19060646
237	0xbc91a82f	-0.017780391
238	0xbca14cd1	-0.01968995
239	0x3b90375a	0.0044011297
240	0x3e49f690	0.19722962
241	0x3e2ce7a2	0.16885236
242	0x3e427929	0.18991531
243	0x3df3706a	0.11886676
244	0x3c496299	0.012291574
245	0xbd678f73	-0.05653329
246	0x3dccbb9a	0.0999672
247	0x3d4ed196	0.050492845
248	0x3be34ff6	0.0069370223
249	0xbde54305	-0.111944236
250	0x3dd6d252	0.10489334
251	0xbdc80482	-0.09766485
252	0xbe456ffa	-0.19280997
253	0xbdea51d3	-0.11441388
254	0x3e07c871	0.13260056
255	0x3d136a86	0.03599026

bn1.running_var f4 [400]
0	0x3d604102	0.054749496
1	0x3d72c10f	0.059266146
2	0x3dd649b7	0.10463279
3	0x3e0d88c6	0.13821706
4	0x3e50afa8	0.20379508
5	0x3e51c1ef	0.20484136
6	0x3e308b03	0.17240529
7	0x3da2eb82	0.07955076
8	0x3de276c1	0.11057807
9	0x3e1a35f8	0.1505965
10	0x3da054ee	0.07828699
11	0x3d606300	0.054781914
12	0x3d80fcbb	0.062982045
13	0x3e45510f	0.19269203
14	0x3e8d4255	0.2758967
15	0x3ddac62b	0.10682329
16	0x3de06bd2	0.10958065
17	0x3e9b3db3	0.3032051
18	0x3e4a44fe	0.19752881
19	0x3d82b8d4	0.063829094
20	0x3e563148	0.20917237
21	0x3db1f26b	0.08688816
22	0x3e0181a3	0.12647109
23	0x3e080b77	0.13285623
24	0x3df77d6a	0.12084468
25	0x3dc5b97e	0.096545205
26	0x3daa23a6	0.08307581
27	0x3daebe52	0.085323945
28	0x3db2be02	0.08727647
29	0x3ea34540	0.3188877
30	0x3d42cfd1	0.04756147
31	0x3e9f932e	0.31166977
32	0x3e36add0	0.17839742
33	0x3e1228c3	0.14273362
34	0x3deca5ff	0.11555099
35	0x3e6732b4	0.22577935
36	0x3e702bb4	0.23454171
37	0x3e172cef	0.14763235
38	0x3e3a22e6	0.18177375
39	0x3e9f098b	0.31061968
40	0x3e085c79	0.13316526
41	0x3dcf0154	0.10107675
42	0x3d9f70c6	0.07785182
43	0x3df756f7	0.12077134
44	0x3e11d57c	0.14241594
45	0x3d4b09fc	0.04957007
46	0x3dff2bba	0.12459512
47	0x3e028768	0.12746966
48	0x3df56a16	0.11983125
49	0x3e56a035	0.20959552
50	0x3cbf00d7	0.02331583
51	0x3e059dbf	0.13048457
52	0x3db822bf	0.08991002
53	0x3d8a6bfb	0.06758877
54	0x3dd225a1	0.102610834
55	0x3e91d326	0.28481406
56	0x3e6541ed	0.2238843
57	0x3e782957	0.2423452
58	0x3d91fd76	0.07128422
59	0x3e10a915	0.14127
60	0x3dd71ed4	0.10503927
61	0x3d5c9bdb	0.053859573
62	0x3dec47cd	0.115371324
63	0x3e3863b6	0.18006787
64	0x3e60dab7	0.21958433
65	0x3deb03ab	0.11475309
66	0x3e7e5076	0.24835381
67	0x3dd8895b	0.105730735
68	0x3e0bb8a1	0.13644649
69	0x3e01262c	0.12612218
70	0x3db69548	0.08915192
71	0x3e39d8a0	0.18149042
72	0x3e3aa791	0.18227984
73	0x3e5992bc	0.21247381
74	0x3e9ce247	0.30641386
75	0x3e06dc3d	0.13169952
76	0x3dceb6b8	0.100934446
77	0x3dc9772a	0.09837182
78	0x3d6198ff	0.05507755
79	0x3da762f8	0.08173174
80	0x3e8e11fe	0.27748102
81	0x3e41644c	0.18885916
82	0x3e61ad91	0.22038867
83	0x3ddacf45	0.10684065
84	0x3d2aeff0	0.04173273
85	0x3e0ac19e	0.13550422
86	0x3e098944	0.13431269
87	0x3dd3c88a	0.10340984
88	0x3e63dc82	0.22252086
89	0x3daac5bc	0.08338496
90	0x3e5fed19	0.2186779
91	0x3e33ca8a	0.17557731
92	0x3e8749da	0.26423532
93	0x3e6b5779	0.22982587
94	0x3e1c99c8	0.15293038
95	0x3e0739a0	0.13205576
96	0x3e2182b5	0.15772517
97	0x3d5270fe	0.05137729
98	0x3e3df474	0.18550283
99	0x3d5dc799	0.05414543
100	0x3d860a76	0.06544964
101	0x3dba5111	0.090974934
102	0x3e2f76c0	0.17135143
103	0x3d4cb8dc	0.049980983
104	0x3d5e13b6	0.054218017
105	0x3dd5f05e	0.10446237
106	0x3e278a53	0.1636136
107	0x3e18ca59	0.1492094
108	0x3e5ce95e	0.21573398
109	0x3e1ab55d	0.15108247
110	0x3e88eae0	0.26741695
111	0x3e875570	0.2643237
112	0x3dba2df9	0.090908
113	0x3e16f769	0.14742817
114	0x3dba78ff	0.091051094
115	0x3d862178	0.065493524
116	0x3e01910b	0.12652986
117	0x3e232dec	0.15935487
118	0x3dc6afb4	0.097014815
119	0x3dad0ea0	0.08450055
120	0x3de05d71	0.109553225
121	0x3dacf3bd	0.08444927
122	0x3e93ab30	0.28841543
123	0x3e1fc41f	0.15602158
124	0x3e0979b9	0.1342534
125	0x3e1189e1	0.14212753
126	0x3e2cea49	0.16886248
127	0x3d6b6b6e	0.0574755
128	0x3e2053d7	0.15656982
129	0x3df922ce	0.121648416
130	0x3e47e058	0.19519174
131	0x3e0892d3	0.13337259
132	0x3e401a0b	0.18759935
133	0x3e7739f8	0.24143207
134	0x3d983dd7	0.0743367
135	0x3e028cee	0.12749073
136	0x3de6f6c3	0.11277535
137	0x3e72d702	0.23714831
138	0x3e0379cd	0.12839432
139	0x3e1fbc92	0.15599278
140	0x3df16f30	0.117887855
141	0x3e92bf82	0.28661734
142	0x3ce4e9ad	0.027943457
143	0x3e4c322c	0.19941014
144	0x3e89038b	0.26760516
145	0x3e336eaf	0.17522691
146	0x3dc1621f	0.09442543
147	0x3e1d85ae	0.15383026
148	0x3d64dcda	0.055874683
149	0x3e0a0f5c	0.13482422
150	0x3e2a2d42	0.16618827
151	0x3e7d6c6c	0.24748391
152	0x3e5ea6f4	0.21743375
153	0x3e7a0b78	0.24418437
154	0x3ea6e488	0.3259623
155	0x3e11ef4d	0.14251442
156	0x3de10fcd	0.10989342
157	0x3e1a80e0	0.15088224
158	0x3e1626a9	0.14663185
159	0x3e3f2c23	0.1866918
160	0x3e228d58	0.15874231
161	0x3e33eb5d	0.17570253
162	0x3e1c286f	0.15249799
163	0x3e2946d5	0.16530927
164	0x3e91274d	0.28350297
165	0x3d98872e	0.074476585
166	0x3e4d6bc2	0.20060638
167	0x3e7d431f	0.24732636
168	0x3e8fe730	0.2810607
169	0x3d3f49f8	0.0467014
170	0x3db201a5	0.0869172
171	0x3e03b507	0.12862025
172	0x3dc87a40	0.09788942
173	0x3e57bad9	0.2106737
174	0x3e6e74bb	0.23286717
175	0x3e819a7d	0.25313178
176	0x3e431ccb	0.19053952
177	0x3db17d95	0.08666531
178	0x3e1c5c2e	0.15269539
179	0x3e09c0b6	0.1345242
180	0x3e20b718	0.15694845
181	0x3e10f890	0.14157319
182	0x3e233caf	0.15941118
183	0x3de0d62c	0.1097835
184	0x3dca5676	0.09879772
185	0x3e07571c	0.13216823
186	0x3de137d4	0.109969765
187	0x3dfc72b7	0.123265676
188	0x3e849e52	0.2590204
189	0x3dd800e5	0.105470456
190	0x3e88915b	0.26673397
191	0x3e7311d5	0.23737271
192	0x3d65dbb4	0.05611773
193	0x3e82024a	0.2539237
194	0x3e176d0b	0.1478769
195	0x3e77c704	0.24197012
196	0x3dc7f965	0.09764365
197	0x3e676f2d	0.22601004
198	0x3e8e13bc	0.2774943
199	0x3df8b5af	0.121440284
200	0x3cee9d98	0.02912788
201	0x3e25d926	0.16196117
202	0x3d97af5c	0.07406494
203	0x3e1ff0ca	0.15619197
204	0x3dafc11f	0.08581757
205	0x3dc22bd6	0.09481017
206	0x3d90b874	0.07066432
207	0x3e3c0e6d	0.18364878
208	0x3dd5ff81	0.10449124
209	0x3ca4a004	0.020095833
210	0x3e08142d	0.13288946
211	0x3ea58f28	0.32335782
212	0x3e9f28d5	0.3108584
213	0x3d5831a0	0.0527817
214	0x3e08eac1	0.13370802
215	0x3e09d2cb	0.13459317
216	0x3e1a173d	0.15047927
217	0x3e94ba16	0.29048222
218	0x3d9c8e6c	0.07644352
219	0x3df8a827	0.121414475
220	0x3e50cd71	0.2039087
221	0x3e5157a9	0.20443596
222	0x3ddfb6db	0.10923549
223	0x3e0893b0	0.13337588
224	0x3de65f8a	0.112486914
225	0x3e40878f	0.18801711
226	0x3e396bcf	0.18107532
227	0x3d8c9178	0.068636835
228	0x3e34d47d	0.17659183
229	0x3d51f82e	0.051262073
230	0x3e4dd293	0.20099859
231	0x3e3c62b4	0.18397027
232	0x3e33599b	0.1751465
233	0x3e3e63b4	0.18592721
234	0x3e16ad05	0.14714439
235	0x3e6b6824	0.22988945
236	0x3da4fe9c	0.080563754
237	0x3d52e9cf	0.05149251
238	0x3e2e4768	0.17019427
239	0x3e25d539	0.16194619
240	0x3e154754	0.14577991
241	0x3dfc490a	0.123186186
242	0x3de0f868	0.1098488
243	0x3e068147	0.13135253
244	0x3ec12b72	0.3772846
245	0x3e212929	0.15738358
246	0x3e88c898	0.2671554
247	0x3ddd8a32	0.10817374
248	0x3dfd6ddd	0.123744704
249	0x3e4d9923	0.20077948
250	0x3eaa114b	0.33216318
251	0x3db09822	0.08622767
252	0x3dc9142a	0.09818299
253	0x3e0a8cc2	0.13530257
254	0x3d342c6e	0.043987684
255	0x3decd6b3	0.11564388

fc2.weight f4 [300, 400]
0	0x3d802e59	0.0625884
1	0x3e434a14	0.19071227
2	0xbdbd5a47	-0.09245735
3	0xbd6192ca	-0.05507163
4	0x3e136e35	0.1439751
5	0xbd2bcbf4	-0.04194255
6	0xbe65e50c	-0.22450656
7	0xbdd77af6	-0.105215
8	0xbddb7b91	-0.10716928
9	0x3c0ce94f	0.008600547
10	0xbcefc81b	-0.029270222
11	0x3e7f320f	0.2492144
12	0xbe92117b	-0.28528962
13	0x3cfc79c0	0.030819774
14	0x3d6d18de	0.057885043
15	0x3e4b3fda	0.19848576
16	0xbe6d4eb8	-0.2317456
17	0x3e5413b1	0.20710637
18	0x3dff9196	0.1247894
19	0x3df054ad	0.117349006
20	0x3e4b36d7	0.19845138
21	0xbd325d3a	-0.04354594
22	0xbe95bc90	-0.29245424
23	0xbd33dd15	-0.043912012
24	0x3e29b334	0.16572267
25	0x3cd09fe0	0.02546686
26	0x3cf5b9b3	0.029995775
27	0x3da3b27d	0.07993028
28	0x3ed2dff3	0.41186485
29	0xbd24fee3	-0.04028214
30	0xbe397184	-0.18109709
31	0xbdeff01d	-0.1171572
32	0xbc7dc717	-0.015489361
33	0xbd35a9f8	-0.044351548
34	0x3e499992	0.19687489
35	0xbd910752	-0.07081474
36	0xbdccaf3d	-0.099943615
37	0x3d142ab6	0.036173545
38	0xbdaa7493	-0.08323016
39	0x3e31cb95	0.17362817
40	0xbe7f6c2a	-0.24943605
41	0xbe430126	-0.19043407
42	0x3d9d9787	0.07694917
43	0xbc04527f	-0.008076309
44	0xbebf411d	-0.37354365
45	0xbd6a5f1a	-0.057219602
46	0x3db0f934	0.08641282
47	0xbe3f1943	-0.1866198
48	0x3cbcd10f	0.023048906
49	0xbea66543	-0.32499132
50	0x3e0d8b65	0.13822706
51	0xbe9129f1	-0.2835231
52	0x3d27036d	0.04077475
53	0xbe1948bd	-0.14969154
54	0xbcf1b3b5	-0.029504636
55	0xbcd51265	-0.026009748
56	0xbc07da03	-0.008291724
57	0x3c808b9e	0.015691575
58	0x3c91ad5b	0.017782858
59	0xbec4e0e5	-0.3845283
60	0x3db4192a	0.08793862
61	0xbe71c056	-0.23608527
62	0x3e89e19b	0.26929936
63	0xbe4c17bc	-0.19930929
64	0x3c714cce	0.014727784
65	0x3d442cec	0.047894403
66	0xbd96e520	-0.07367921
67	0xbeb7bbd0	-0.35885477
68	0x3bc11c25	0.0058932477
69	0x3d555796	0.05208548
70	0xbe6d40be	-0.23169228
71	0xbd44e3cc	-0.048068807
72	0x3dd6e2f2	0.10492505
73	0xbe6083fa	-0.21925345
74	0x3d9299e8	0.071582615
75	0xbed6fff6	-0.41992158
76	0xbdf3f3af	-0.11911713
77	0x3d0fd81e	0.035118215
78	0xbdb8c3de	-0.09021734
79	0xbe79aae4	-0.24381596
80	0xbe2f5b5c	-0.17124695
81	0xbe14c574	-0.14528447
82	0xbd32866d	-0.04358523
83	0x3e519583	0.2046719
84	0x3e361ac0	0.17783642
85	0xbd560c75	-0.052257974
86	0x3e1f0e0b	0.155327
87	0x3d45b482	0.04826785
88	0x3d97f023	0.07418849
89	0x3d133b2d	0.035945106
90	0x3e09ee30	0.13469768
91	0xbe99698c	-0.29963338
92	0x3ddf855a	0.10914107
93	0xbdef8e63	-0.1169708
94	0xbd0223df	-0.03177249
95	0x3e0ace98	0.13555372
96	0x3e04abd8	0.12956178
97	0x3ca0c4df	0.019625125
98	0x3e41e63e	0.18935487
99	0x3da856a3	0.0821965
100	0xbcfc5e17	-0.030806584
101	0xbe08b44b	-0.13350026
102	0xbd812223	-0.06305339
103	0xbc146751	-0.009057836
104	0x3e2d787e	0.16940495
105	0xbde17edd	-0.110105254
106	0x3c917141	0.017754199
107	0x3b113077	0.0022154131
108	0x3e4c3c61	0.19944908
109	0xbe403e99	-0.18773879
110	0xbd0fc369	-0.035098467
111	0xbe0d7320	-0.13813448
112	0xbd9e567f	-0.077313416
113	0xbe1a5440	-0.15071201
114	0x3e151489	0.14558615
115	0xbe042b01	-0.1290703
116	0xbde926b9	-0.11384339
117	0xbe824e8d	-0.25450554
118	0xbd8b5b04	-0.06804469
119	0x3b69775c	0.0035624122
120	0xbe10d37e	-0.14143178
121	0x3db2d3ca	0.08731802
122	0x3e389659	0.18026103
123	0xbe3b1a91	-0.18271853
124	0xbeb3fc5f	-0.3515348
125	0xbb8552a1	-0.004068688
126	0x3c43ca7a	0.01195013
127	0xbd327e7a	-0.04357765
128	0x3ddbc600	0.10731125
129	0xbedfda18	-0.4372108
130	0xbeda38bf	-0.4262142
131	0xbe3ee6e5	-0.18642767
132	0x3dea390f	0.11436664
133	0xbe2644ef	-0.16237234
134	0xbe05829f	-0.13038109
135	0xbca6649a	-0.020311642
136	0xbddce0f7	-0.10785096
137	0xbd6db53f	-0.058034178
138	0x3c0fc4c1	0.008774937
139	0x3dd43231	0.10361136
140	0x3e7c11c2	0.24616149
141	0xbe078a21	-0.13236286
142	0xbe28c50d	-0.16481419
143	0x3db24d65	0.08706168
144	0xbd49d3a5	-0.049274106
145	0x3dff38f7	0.12462037
146	0xbd220ad3	-0.039561104
147	0x3e3f45d0	0.18678975
148	0xbdf431b0	-0.1192354
149	0x3e08d01d	0.13360639
150	0x3e259cdd	0.1617312
151	0xbe6c3c92	-0.2306998
152	0xbe98f52b	-0.29874548
153	0xbea1f150	-0.3162942
154	0x3ca25966	0.01981802
155	0x3b1b14f7	0.002366362
156	0xbe1f5f5f	-0.15563725
157	0xbdd1573b	-0.10221716
158	0xbd2641be	-0.04059004
159	0xbe832436	-0.25613564
160	0x3d2445a0	0.040105462
161	0xbdb13186	-0.08652024
162	0xbf0e9c10	-0.5570688
163	0xbd84393f	-0.06456231
164	0x3dc2ad83	0.09505751
165	0xbe2c6b31	-0.16837765
166	0x3e7b186c	0.24521035
167	0x3df36cf6	0.11886017
168	0xbe41d0ff	-0.18927382
169	0xbd102403	-0.035190593
170	0xbe7f7f13	-0.24950819
171	0x3c4610d2	0.012088971
172	0x3e4c3e55	0.19945653
173	0x3b9f89e4	0.0048687328
174	0x3d6c6a61	0.05771864
175	0xbec27706	-0.37981433
176	0x3db0d5b4	0.08634511
177	0xbce24011	-0.02761844
178	0x3e5e3394	0.21699363
179	0xbe4dc8d3	-0.2009614
180	0xbe8d7d20	-0.27634525
181	0x3d00d450	0.031452477
182	0xbc52e7a0	-0.0128726065
183	0xbb225af7	-0.0024773458
184	0xbb526f2f	-0.0032109728
185	0xbe43816f	-0.19092344
186	0x3aeabe20	0.0017909445
187	0xbdae9c36	-0.085258886
188	0x3b92cfff	0.0044803615
189	0xbdd23ebc	-0.10265872
190	0x3cdd7a8d	0.027035976
191	0x3b3fb617	0.002925282
192	0xbe37bbe8	-0.17942774
193	0xbe923380	-0.28554916
194	0x3e0f5996	0.13999018
195	0xbdd0089e	-0.101578936
196	0xbe099ae8	-0.13437998
197	0xbec7e7af	-0.39043948
198	0xbc1a7f84	-0.009429816
199	0x3ca87ff7	0.02056883
200	0x3ee787de	0.45220846
201	0xbe3381ad	-0.17529936
202	0xbedc5477	-0.43033192
203	0xbdcbb9d5	-0.09947554
204	0x3d9112a2	0.07083632
205	0xbe34b914	-0.17648727
206	0xbd5b56b8	-0.0535495
207	0xbded6177	-0.115908556
208	0x3e728a8f	0.23685668
209	0x3e845b43	0.25850877
210	0xbd149a3c	-0.0362799
211	0xbde2e83e	-0.11079453
212	0xbe2745fb	-0.16335289
213	0x3d71fb58	0.05907759
214	0xbe753827	-0.23947202
215	0x3e298133	0.16553192
216	0x3e016a23	0.12638144
217	0xbe9d3259	-0.30702475
218	0x3a07acda	0.0005175598
219	0x3e84a12f	0.25904223
220	0x3ded29d2	0.11580242
221	0x3d19ac4b	0.037517827
222	0xbd9d621e	-0.0768473
223	0x3d66491f	0.056222077
224	0x3c41b219	0.011822247
225	0xbe087c5b	-0.13328688
226	0xbe1297ae	-0.14315674
227	0xbe155453	-0.14582948
228	0xbdc2fb9e	-0.095206484
229	0xbda543a5	-0.08069543
230	0x3de072d0	0.10959399
231	0xbc0f420a	-0.008743772
232	0xbeae3359	-0.3402355
233	0xbdb8178a	-0.08988865
234	0x3d539be4	0.05166234
235	0xbdc50cba	-0.09621568
236	0xbd52d8d3	-0.05147631
237	0xbd767c90	-0.060177386
238	0xbe0f5e03	-0.14000706
239	0xbd35fa12	-0.04442794
240	0xbe1d957f	-0.1538906
241	0x3c438a04	0.011934761
242	0xbdb181ae	-0.086673126
243	0xbe01e176	-0.12683663
244	0xbd0cabf8	-0.03434369
245	0x3d85239f	0.06500935
246	0xbe340189	-0.1757871
247	0x3e8599b5	0.26093832
248	0xbc2efd1f	-0.010680466
249	0xbe7dc1e5	-0.24780996
250	0xbc6cdfa0	-0.014457613
251	0xbd38233a	-0.04495547
252	0x3da4b0e6	0.08041553
253	0xbdcd0637	-0.10010951
254	0xbe084a0d	-0.13309498
255	0xbcc86657	-0.024462862
