checkpoint_critic.pth (torch_old, 895373 bytes, 15 tensors)

bn0.weight f4 [24]
0	0x3da7c338	0.08191532
1	0x3efb765e	0.49113744
2	0x3ece7c76	0.4032933
3	0x3ec5974c	0.38591993
4	0x3f619e57	0.8813223
5	0x3f618fb1	0.8810988
6	0x3f396847	0.7242474
7	0x3f00d69d	0.50327474
8	0x3f532a7f	0.8248672
9	0x3e86e0e8	0.26343465
10	0x3e9f5b4e	0.31124347
11	0x3f1843d9	0.5947853
12	0x3ddf9970	0.10917938
13	0x3f1f0dfa	0.621307
14	0x3f3c2b18	0.73503256
15	0x3f7d6527	0.9898247
16	0x3f6a9f92	0.91649735
17	0x3ea6331a	0.32460862
18	0x3f5f1a8e	0.87149894
19	0x3f633020	0.8874531
20	0x3f674f5b	0.9035546
21	0x3e61a504	0.22035605
22	0x3ecc96a4	0.3995868
23	0x3e6e8550	0.23293042

bn0.bias f4 [24]
0	0x00000000	0.0
1	0x00000000	0.0
2	0x00000000	0.0
3	0x00000000	0.0
4	0x00000000	0.0
5	0x00000000	0.0
6	0x00000000	0.0
7	0x00000000	0.0
8	0x00000000	0.0
9	0x00000000	0.0
10	0x00000000	0.0
11	0x00000000	0.0
12	0x00000000	0.0
13	0x00000000	0.0
14	0x00000000	0.0
15	0x00000000	0.0
16	0x00000000	0.0
17	0x00000000	0.0
18	0x00000000	0.0
19	0x00000000	0.0
20	0x00000000	0.0
21	0x00000000	0.0
22	0x00000000	0.0
23	0x00000000	0.0

bn0.running_mean f4 [24]
0	0x00000000	0.0
1	0x00000000	0.0
2	0x00000000	0.0
3	0x00000000	0.0
4	0x00000000	0.0
5	0x00000000	0.0
6	0x00000000	0.0
7	0x00000000	0.0
8	0x00000000	0.0
9	0x00000000	0.0
10	0x00000000	0.0
11	0x00000000	0.0
12	0x00000000	0.0
13	0x00000000	0.0
14	0x00000000	0.0
15	0x00000000	0.0
16	0x00000000	0.0
17	0x00000000	0.0
18	0x00000000	0.0
19	0x00000000	0.0
20	0x00000000	0.0
21	0x00000000	0.0
22	0x00000000	0.0
23	0x00000000	0.0

bn0.running_var f4 [24]
0	0x3f800000	1.0
1	0x3f800000	1.0
2	0x3f800000	1.0
3	0x3f800000	1.0
4	0x3f800000	1.0
5	0x3f800000	1.0
6	0x3f800000	1.0
7	0x3f800000	1.0
8	0x3f800000	1.0
9	0x3f800000	1.0
10	0x3f800000	1.0
11	0x3f800000	1.0
12	0x3f800000	1.0
13	0x3f800000	1.0
14	0x3f800000	1.0
15	0x3f800000	1.0
16	0x3f800000	1.0
17	0x3f800000	1.0
18	0x3f800000	1.0
19	0x3f800000	1.0
20	0x3f800000	1.0
21	0x3f800000	1.0
22	0x3f800000	1.0
23	0x3f800000	1.0

fcs1.weight f4 [400, 24]
0	0x3e486370	0.19569182
1	0xbf145242	-0.57938015
2	0xbcc87890	-0.024471551
3	0x3c83e486	0.01610018
4	0xbea3f2b3	-0.32021102
5	0xbdea20b9	-0.114320226
6	0xbccf4212	-0.02530006
7	0x3d10023f	0.035158392
8	0x3e85aec3	0.26109895
9	0xbf235d62	-0.63814366
10	0xbb3ed34f	-0.002911765
11	0x3dde4354	0.108526856
12	0xbe95344d	-0.29141465
13	0xbdb3ac9a	-0.087731555
14	0x3c64016c	0.013916355
15	0x3e0f980d	0.14022847
16	0x3e9bcac4	0.30428135
17	0xbf217f79	-0.6308513
18	0x3d1df4d6	0.038563572
19	0xbc1b8467	-0.009492016
20	0xbea514d1	-0.32242444
21	0xbe3efd9b	-0.1865143
22	0x3d5d45d3	0.054021668
23	0x3d8c2278	0.06842512
24	0x3f9d7a29	1.2302905
25	0x3f1bce89	0.6086202
26	0xbdbd388f	-0.09239303
27	0xbe233f04	-0.15942007
28	0x3ecba065	0.3977081
29	0xbeb0dc10	-0.34542894
30	0xbda4a763	-0.08039739
31	0xbe51b70b	-0.20479982
32	0x3e1bffbc	0.15234274
33	0x3f0458a4	0.51697755
34	0x3db5165b	0.088421546
35	0xbcdd44d6	-0.027010363
36	0x3e202d65	0.15642317
37	0xbf250f50	-0.6447649
38	0x3db87ca1	0.09008146
39	0x3a41e64a	0.00073966815
40	0xbc9a8cb7	-0.018865926
41	0x3ed1f3ad	0.41006222
42	0x3be9f586	0.0071398644
43	0xbe6547d2	-0.22390679
44	0xbebbddff	-0.36692807
45	0x3c0de8e0	0.008661479
46	0x3c9bb3da	0.019006658
47	0xbe6f685b	-0.23379652
48	0xbe42f2af	-0.19037889
49	0x3f3bee54	0.73410535
50	0xbd68df80	-0.05685377
51	0x3ae665d6	0.0017577957
52	0x3d8e1669	0.06937868
53	0xbeac4a24	-0.33650315
54	0xbba4180a	-0.0050077485
55	0x3c806b7f	0.015676258
56	0xbe65fe7e	-0.22460362
57	0x3f1b5304	0.60673547
58	0x3c87823c	0.016541593
59	0x3d2f642e	0.04282015
60	0x3d1cc0d8	0.038269848
61	0xbf2cf8c5	-0.6756709
62	0x3c930cfb	0.017950526
63	0x3c0d07f7	0.008607856
64	0xbe39b1eb	-0.18134277
65	0x3f04f45e	0.51935375
66	0xbcbc6117	-0.022995515
67	0x3dc733f4	0.09726706
68	0x3d2d6798	0.042335123
69	0xbfa57e0b	-1.292909
70	0x3d194da4	0.03742756
71	0x3c6242d7	0.013809881
72	0x3f02d2f9	0.5110317
73	0xbeb69e50	-0.35667658
74	0xbd6fb5fe	-0.05852317
75	0x3d79e90f	0.061013278
76	0x3e5ce20c	0.21570605
77	0xbf143561	-0.5789395
78	0xbb9fd5ab	-0.004877766
79	0x3cb65a31	0.022259803
80	0x3ebeb758	0.37249255
81	0xbe8a2e67	-0.26988527
82	0xbcb776aa	-0.02239545
83	0xbdb1efda	-0.08688326
84	0x3e28fd2d	0.16502829
85	0xbea82c07	-0.3284609
86	0xbd881873	-0.06645288
87	0xbd417216	-0.04722794
88	0x3ed5311a	0.41639024
89	0xbe1a69cd	-0.15079422
90	0x3bacbb6c	0.005271366
91	0x3d86fcd5	0.06591193
92	0x3ef3b60a	0.47599822
93	0xc01c8e05	-2.4461682
94	0xbd4408e2	-0.047860034
95	0x3d3572de	0.044299
96	0xbe0aa88e	-0.13540861
97	0x3f3f92aa	0.74833167
98	0x3d42e6ba	0.04758332
99	0x3ddbb2dc	0.10727474
100	0xbd278f67	-0.040908244
101	0xbec2a3fa	-0.3801573
102	0xbcee583d	-0.02909481
103	0x3e085323	0.13312964
104	0xbe3a220c	-0.1817705
105	0x3f3e18c5	0.74256545
106	0x3c15bbac	0.009138983
107	0xba426278	-0.00074151857
108	0x3d354991	0.04425961
109	0xbf0fec64	-0.5622008
110	0x3ba77f80	0.0051116347
111	0xbda66aa6	-0.0812581
112	0xbe374b9c	-0.17899936
113	0x3f3eed0f	0.7458047
114	0xbdd75aa7	-0.105153374
115	0xbddaa557	-0.10676067
116	0x3e7a6efa	0.24456397
117	0xbfc6892e	-1.5510614
118	0xbcfd913d	-0.030953044
119	0xbdadd6c2	-0.084882274
120	0xbd17b776	-0.037040196
121	0x3db0327e	0.086033806
122	0x3bb38333	0.0054782867
123	0xbc605ec5	-0.01369447
124	0xbdc449e8	-0.09584409
125	0xbe89e974	-0.26935923
126	0xbc1d8b16	-0.00961568
127	0x3b0c4b93	0.002140735
128	0x3d5240d1	0.051331345
129	0x3de36a85	0.11104301
130	0xbd0027e7	-0.031288054
131	0x3d4aa325	0.049471993
132	0xbdc4ea37	-0.096149854
133	0x3c03e4fb	0.008050199
134	0x3caee296	0.021348279
135	0x3cd6111e	0.026131209
136	0x3e153a01	0.14572908
137	0x3db3f388	0.08786684
138	0x3ca41dd5	0.020033756
139	0x3bffa1df	0.007801279
140	0x3df4d261	0.11954189
141	0x3deb582c	0.11491427
142	0xbcdf4f91	-0.02725962
143	0xbd522031	-0.05130023
144	0x3d25d842	0.040489443
145	0x3e27440f	0.16334556
146	0xbcc33c3f	-0.023832439
147	0x3e01c2e5	0.12672003
148	0xbd5c5c73	-0.053799104
149	0xbea9a2bc	-0.3313197
150	0x3c870109	0.016479986
151	0x3ddbff21	0.10742021
152	0x3cbbbef0	0.022918195
153	0x3ec6e2f6	0.38845032
154	0xbdc00b17	-0.09377115
155	0x3e2dfda4	0.16991287
156	0x3cd003be	0.02539241
157	0xbf0cab67	-0.5494904
158	0xbcbeb52b	-0.023279747
159	0x3db8f5ea	0.090312794
160	0x3e6254b9	0.22102632
161	0x3e94ac1b	0.29037556
162	0x3d479865	0.04872932
163	0xbee6915f	-0.45032784
164	0x3e19a4bb	0.15004246
165	0xbee8692e	-0.45392746
166	0x3caf153e	0.021372434
167	0xbee48349	-0.44631413
168	0xbd28196b	-0.041039865
169	0x3f887001	1.0659181
170	0x3d888702	0.06666376
171	0x3d94470f	0.07240116
172	0xbd02e6d8	-0.03195843
173	0xbea1f4ea	-0.31632167
174	0x3c249611	0.010045544
175	0x3c5d0ba6	0.013491547
176	0xbdf7735c	-0.1208255
177	0x3f8de6cb	1.1086057
178	0x3db4ad4a	0.08822115
179	0x3e2ac07e	0.16674992
180	0xbd613401	-0.054981235
181	0xbf1b0c51	-0.6056567
182	0x3d0eed8e	0.03489452
183	0x3e407ae9	0.18796887
184	0xbdb7d119	-0.08975429
185	0x3f9609cc	1.172174
186	0xbc7b1be5	-0.015326475
187	0x3dd19ebc	0.10235354
188	0x3d717d00	0.0589571
189	0xbfd16603	-1.6359257
190	0xbdc595c4	-0.09647706
191	0x3d70cd18	0.058789343
192	0x3c6fe8be	0.014642892
193	0x3e046505	0.12929161
194	0x3a98c038	0.0011653965
195	0xbd5b8a49	-0.053598676
196	0xbe92bfd1	-0.2866197
197	0xbf176f0d	-0.59153825
198	0x3dac389d	0.084092356
199	0xbdb1e2e3	-0.08685853
200	0x3e472756	0.19448599
201	0x3c3e6c70	0.011622533
202	0xbcf7e24a	-0.03025927
203	0xbe3f6218	-0.18689764
204	0xbe2dc700	-0.16970444
205	0xbf495050	-0.7863817
206	0xbb6ff56d	-0.003661479
207	0xbe087401	-0.13325502
208	0x3e4a72b0	0.19770312
209	0xbd72607f	-0.059174057
210	0x3e045134	0.12921602
211	0xbd5e4761	-0.05426729
212	0x3d803c72	0.06261529
213	0xbf719a6f	-0.9437627
214	0x3e098e57	0.13433205
215	0xbd9c2e01	-0.07625962
216	0x3dc54bc2	0.0963359
217	0x3d2845cf	0.0410822
218	0xbd0c239b	-0.034213644
219	0xbd53cac3	-0.05170704
220	0x3d16422b	0.036684196
221	0xbe94c2c6	-0.2905485
222	0x3d5dc8d3	0.0541466
223	0xbc09d1c0	-0.008411825
224	0x3dcefb1b	0.10106488
225	0x3dfbd41b	0.12296315
226	0xbcd37367	-0.025811864
227	0x3d8a080d	0.06739817
228	0xbc83f04d	-0.016105795
229	0xbe7bf38c	-0.24604625
230	0xbc2efb4e	-0.010680033
231	0xbba7c0fc	-0.005119441
232	0x3dcf5d42	0.101252094
233	0x3e34023d	0.17578979
234	0xbd5cb8b7	-0.053887095
235	0xbc0b442f	-0.008500143
236	0xbe8f330f	-0.27968642
237	0xbe42bdbf	-0.19017695
238	0x3d028ddb	0.031873565
239	0xbdd51217	-0.10403841
240	0x3d137fe5	0.03601064
241	0x3e822ef5	0.2542645
242	0xbd042d78	-0.032269925
243	0xbd8c737a	-0.06857963
244	0xbe265075	-0.1624163
245	0xbe2aff15	-0.16698869
246	0x3c244bcc	0.010027837
247	0xbceef400	-0.029169083
248	0x3d3356c2	0.04378391
249	0x3ed567b6	0.41680688
250	0xbcad7fc4	-0.021179087
251	0x3d14f247	0.036363866
252	0xbd96cb90	-0.07363045
253	0xbd947f6a	-0.07250865
254	0x3c9bbd5d	0.019011194
255	0xbcd0df41	-0.02549708

fcs1.bias f4 [400]
0	0xbe589003	-0.21148686
1	0xbd47943d	-0.048725355
2	0x3d4b379a	0.049613573
3	0xbea53771	-0.3226886
4	0xbe2eebba	-0.1708211
5	0xbf00dc47	-0.50336117
6	0xbe7bb5bf	-0.2458105
7	0xbb729e66	-0.0037020682
8	0xbde2c38a	-0.11072452
9	0xbf0c6216	-0.5483717
10	0xbeb7509e	-0.35803694
11	0x3e91efc8	0.2850325
12	0x3d8c29fa	0.06843944
13	0xbe036204	-0.12830359
14	0xbe47e977	-0.19522654
15	0xbea7a144	-0.32740223
16	0xbeaf091d	-0.3418664
17	0x3f019cae	0.506297
18	0xbe35c3b3	-0.17750435
19	0xbc93125e	-0.017953094
20	0xbf58072e	-0.84385955
21	0xbf2fb402	-0.68634045
22	0xbde082b6	-0.10962431
23	0x3eeb9c00	0.46017456
24	0xbe2de5b0	-0.1698215
25	0xbf385e3a	-0.7201878
26	0xbf647c5b	-0.8925225
27	0xbeb8ccef	-0.36093852
28	0xbf263789	-0.6492849
29	0xbe68c5d7	-0.2273172
30	0xbf2186a2	-0.6309606
31	0xbe22af39	-0.15887155
32	0xbf4348c3	-0.762829
33	0x3e9ebb77	0.310024
34	0xbf4acd7c	-0.79219794
35	0xbf392c9b	-0.7233369
36	0xbea6fc9c	-0.326146
37	0xbf30008c	-0.68750834
38	0xbe8fccf1	-0.28086045
39	0xbf19d049	-0.6008344
40	0xbca1d1e6	-0.019753408
41	0xbf656c64	-0.89618516
42	0xbf3a2176	-0.7270731
43	0xbf1a173b	-0.60191697
44	0xbf0bcea9	-0.54612213
45	0x3e153ab0	0.14573169
46	0x3f02a7b5	0.5103715
47	0xbdcef08e	-0.10104476
48	0xbd9450b4	-0.072419554
49	0xbe1c3b20	-0.1525693
50	0xbf4aecaf	-0.792674
51	0x3db69324	0.089147836
52	0xbdf47e09	-0.11938102
53	0xbf358274	-0.7090218
54	0xbddf3485	-0.10898689
55	0xbed47c3e	-0.4150104
56	0xbf2065f3	-0.6265556
57	0xbee74ea6	-0.45177191
58	0xbeeb9948	-0.46015382
59	0xbeb3eed8	-0.3514316
60	0xbf0ca03c	-0.54932
61	0x3c8b9727	0.017039848
62	0x3e0a9f65	0.13537367
63	0xbd8134f2	-0.06308927
64	0xbefd950c	-0.49527776
65	0xbe65f798	-0.22457731
66	0xbf35c7e7	-0.7100815
67	0xbd07942f	-0.033100303
68	0x3bdb241d	0.0066876546
69	0x3d93d8f2	0.072191134
70	0xbe57ddaf	-0.2108066
71	0x3e0d51b5	0.138007
72	0xbf003d28	-0.5009332
73	0xbe3df346	-0.18549833
74	0xbde58299	-0.1120655
75	0xbf855a0e	-1.0418108
76	0xbee8a0d2	-0.45435196
77	0xbe4fa59e	-0.20278022
78	0xbe62a658	-0.22133768
79	0xbe459e5b	-0.19298689
80	0xbe29cbb6	-0.16581616
81	0x3de11477	0.109902315
82	0xbefce8d7	-0.49396393
83	0xbf29f966	-0.66396177
84	0xbea9a558	-0.3313396
85	0xbec273d5	-0.37978998
86	0xbf05fe3c	-0.52341056
87	0xbd9b2ee2	-0.075773016
88	0x3ec3c37f	0.3823509
89	0xbc845e52	-0.016158257
90	0xbf94936d	-1.1607491
91	0x3d29348c	0.04130988
92	0xbf088daf	-0.5334119
93	0xbf25282e	-0.64514434
94	0x3c00ebfc	0.007868763
95	0xbdbbc938	-0.09169239
96	0xbe9ccae0	-0.3062353
97	0x3e524cdd	0.20537134
98	0xbe8ab244	-0.2708913
99	0x3d42cee4	0.047560588
100	0xbf2b1360	-0.6682644
101	0xbf4cd108	-0.80006456
102	0x3e2bdbf2	0.16783121
103	0xbed83384	-0.42226803
104	0xbef8dc51	-0.48605588
105	0x3d6150df	0.055008765
106	0x3f3a9798	0.72887564
107	0xbf1a3292	-0.60233414
108	0x3efae158	0.4900005
109	0xbec971df	-0.3934469
110	0xbed9bc4b	-0.4252647
111	0xbce2067a	-0.027590979
112	0xbf16fb7e	-0.58977497
113	0x3d78cbd9	0.06074128
114	0xbe95e328	-0.2927487
115	0xbee2c259	-0.442889
116	0xbed53d35	-0.4164826
117	0xbdd6fd90	-0.10497582
118	0xbed58132	-0.4170013
119	0xbe560ad7	-0.20902573
120	0xbf24a44a	-0.64313185
121	0xbeea9101	-0.45813754
122	0xbdaefd99	-0.08544464
123	0xbf32bf18	-0.69822836
124	0xbefb529c	-0.49086463
125	0xbee34da1	-0.44395164
126	0x3cfed8de	0.03110927
127	0x3dce6b46	0.100790545
128	0xbf61a317	-0.8813948
129	0xbf6a28e9	-0.91468674
130	0xbeefc45f	-0.46829507
131	0xbef0a11d	-0.4699792
132	0xbf2f25f9	-0.68417317
133	0xbe614081	-0.21997263
134	0xbf3fc089	-0.7490316
135	0xbf054dc3	-0.5207178
136	0x3e0d47f7	0.13796984
137	0xbe0a61cd	-0.1351387
138	0xbf52900a	-0.82251036
139	0x3e7ecfcc	0.24883956
140	0xbd2b878b	-0.04187731
141	0xbf31e8e6	-0.69496
142	0x3df03cd4	0.11730352
143	0xbefd1d8c	-0.49436605
144	0xbef42230	-0.47682333
145	0xbf672c7c	-0.9030225
146	0x3e62fc41	0.2216654
147	0xbf2475b8	-0.64242125
148	0xbf49fa24	-0.7889731
149	0xbf180efc	-0.59397864
150	0x3d9b5e2f	0.075863235
151	0xbe601c5d	-0.2188582
152	0x3de19edb	0.110166274
153	0xbe35c1a9	-0.17749657
154	0xbebeec0f	-0.37289473
155	0x3df41f31	0.11920012
156	0xbdec1469	-0.115273304
157	0xbf2711da	-0.65261614
158	0xbf188f09	-0.59593254
159	0xbf55d49f	-0.8352756
160	0xbe11b608	-0.14229596
161	0xbe47d876	-0.19516167
162	0xbf2b0b16	-0.6681379
163	0x3e1ac332	0.15113524
164	0xbdb92b63	-0.090414785
165	0xbf0f8f75	-0.56078273
166	0xbe93ef52	-0.28893524
167	0x3e504101	0.20337297
168	0x3cc78203	0.024353987
169	0xbede23c8	-0.43386674
170	0xbf28eab1	-0.6598311
171	0xbe50a6ef	-0.2037618
172	0xbf32baf5	-0.69816524
173	0x3beb594a	0.007182275
174	0xbe2379ea	-0.15964475
175	0xbe8c162e	-0.27360672
176	0x3d903219	0.07040805
177	0xbf2f9a5d	-0.68594915
178	0xbee6e500	-0.45096588
179	0xbeab343e	-0.33438295
180	0x3cbf788d	0.023372913
181	0xbeb5ca8e	-0.355061
182	0xbe17babe	-0.1481733
183	0xbe38eea2	-0.18059781
184	0xbefdd52b	-0.49576697
185	0xbf3f41f9	-0.7471004
186	0xbe5ed7bb	-0.21761982
187	0xbdede2c5	-0.116155185
188	0xbdd82936	-0.10554735
189	0xbf64a873	-0.89319533
190	0x3ccb303e	0.024803277
191	0x3d2b5fd9	0.041839454
192	0xbebafc38	-0.36520553
193	0x3cc66b2a	0.024221022
194	0xbf5748fd	-0.84095746
195	0xbd0b808c	-0.03405814
196	0xbe018d48	-0.12651551
197	0xbe03a203	-0.12854771
198	0x3e971f3c	0.29516017
199	0xbcf26b94	-0.029592313
200	0x3c9ec947	0.019383086
201	0x3e19872b	0.14992969
202	0xbe5d3286	-0.21601304
203	0x3ba56759	0.0050477204
204	0xbf18816f	-0.595725
205	0xbf1ab39a	-0.604303
206	0xbf3cd300	-0.7375946
207	0x3e78bd5b	0.24290983
208	0xbed66041	-0.4187031
209	0x3e5975ef	0.21236394
210	0x3d44768c	0.047964618
211	0xbeaa5570	-0.3326831
212	0x3e0ba8f5	0.1363867
213	0xbf085268	-0.5325074
214	0xbec6ec02	-0.38851935
215	0xbec0d4e8	-0.37662435
216	0x3d9eb390	0.077490926
217	0x3d2d54ee	0.042317323
218	0xbebb4dcf	-0.365828
219	0x3e1b5265	0.1516815
220	0xbd66a036	-0.056305133
221	0xbeb3cd73	-0.35117683
222	0xbf1723e7	-0.5903916
223	0xbf4ca323	-0.79936427
224	0x3d7ecae1	0.0622052
225	0xbf37d21f	-0.71804994
226	0xbf478b7f	-0.7794723
227	0x3e68e049	0.22741808
228	0xbda04173	-0.078249834
229	0x3ddb0f9f	0.10696339
230	0x3e333971	0.17502381
231	0xbe502870	-0.20327926
232	0xbf4e28f5	-0.80531245
233	0x3e1c830c	0.15284365
234	0xbe09206d	-0.13391276
235	0xbef01c0d	-0.468964
236	0x3e98f5ec	0.29875124
237	0x3e07fa98	0.13279188
238	0xbf1f2a8b	-0.6217429
239	0xbf09e124	-0.5385916
240	0x3e0af5ef	0.13570379
241	0xbe65a5fb	-0.22426598
242	0xbef9da37	-0.48799297
243	0xbf3cb965	-0.7372039
244	0xbe9f0677	-0.3105962
245	0xbeab0a75	-0.33406416
246	0x3e3821bb	0.17981617
247	0xbf1e32ff	-0.61796564
248	0xbf36404d	-0.71191865
249	0xbf1d50f8	-0.61451674
250	0xbc9aa2cf	-0.018876461
251	0xbe1cc0b9	-0.15307893
252	0xbf5c4724	-0.8604605
253	0xbf26fe9c	-0.65232253
254	0x3e9b4051	0.30322507
255	0x3ed03b3b	0.4067019

bn1.weight f4 [400]
0	0x3f5872c3	0.8455011
1	0x3f74497f	0.95424646
2	0x3f02b7a1	0.51061445
3	0x3e97e092	0.2966352
4	0x3f1afd87	0.605431
5	0x3e1e97f8	0.15487659
6	0x3e3fb8d4	0.1872285
7	0x3f1a42a1	0.6025792
8	0x3efa3c4c	0.48874128
9	0x3e147a34	0.14499742
10	0x3f64936c	0.8928745
11	0x3cf6caa0	0.030125916
12	0x3d978010	0.07397473
13	0x3f581410	0.8440561
14	0x3f2d5e06	0.67721593
15	0x3f1dcdbd	0.61642057
16	0x3f370ce6	0.71504056
17	0x3f39df42	0.7260629
18	0x3f679bb9	0.9047199
19	0x3f31274d	0.69200593
20	0x3efc0338	0.49221206
21	0x3dfa0be8	0.12209302
22	0x3f642dce	0.8913239
23	0x3f226464	0.63434434
24	0x3f344898	0.7042327
25	0x3d743df0	0.05962938
26	0x3f0fa643	0.5611307
27	0x3efd14b6	0.49429864
28	0x3ea9742c	0.33096445
29	0x3c19a640	0.009378016
30	0x3f5a51af	0.8528089
31	0x3e9e69c6	0.30940074
32	0x3f3069f3	0.68911666
33	0x3f1ea677	0.61972755
34	0x3e645e04	0.22301489
35	0x3e8bd92a	0.2731412
36	0x3f70ce42	0.94064724
37	0x3f510d7a	0.8166119
38	0x3dd9e100	0.106386185
39	0x3f6ef77f	0.933464
40	0x3f3e0e5c	0.7424066
41	0x3ecac7f6	0.39605683
42	0x3e960504	0.29300702
43	0x3d7ce1c0	0.06173873
44	0x3ecf900a	0.4053958
45	0x3f136872	0.57581246
46	0x3f50360b	0.81332463
47	0x3f2828c9	0.65687233
48	0x3f58a502	0.8462678
49	0x3f13a2ca	0.5767027
50	0x3f6abc3d	0.9169348
51	0x3e360c40	0.1777811
52	0x3f62b74c	0.8856094
53	0x3eb51962	0.35370928
54	0x3f2f19d1	0.6839877
55	0x3f080f38	0.5314822
56	0x3f36837d	0.71294385
57	0x3f3187c8	0.6934781
58	0x3db46680	0.08808613
59	0x3e7dd580	0.24788475
60	0x3f314bc2	0.6925622
61	0x3f28962e	0.65854156
62	0x3e9a5ed0	0.3015046
63	0x3eb81d46	0.35959834
64	0x3efd5d22	0.49485117
65	0x3ee0e198	0.43922114
66	0x3e55f718	0.2089504
67	0x3f29410a	0.66114867
68	0x3f3543f0	0.7080679
69	0x3ebc0932	0.36725765
70	0x3ed5ef1a	0.41783983
71	0x3f45cf44	0.7726939
72	0x3ee2f22a	0.44325382
73	0x3f717a2d	0.9432705
74	0x3d922180	0.07135296
75	0x3eb416fe	0.35173792
76	0x3f6e29e8	0.93032694
77	0x3f373d5a	0.7157799
78	0x3de734d8	0.11289376
79	0x3f6888f1	0.90833956
80	0x3f4101ef	0.75393575
81	0x3f3c51c2	0.7356225
82	0x3f203d65	0.6259368
83	0x3e6995a8	0.22810996
84	0x3f17c800	0.5928955
85	0x3de9bb30	0.11412656
86	0x3f755650	0.9583483
87	0x3f66c2d4	0.90141034
88	0x3f7ba6ed	0.98301584
89	0x3f1fd8fc	0.62440467
90	0x3f4cd43b	0.8001134
91	0x3e8f02fc	0.27931964
92	0x3f4928ef	0.78578085
93	0x3f4f21ef	0.80911154
94	0x3f4e5bf2	0.8060905
95	0x3ea937a0	0.3305025
96	0x3f07ad17	0.5299849
97	0x3f40b385	0.75273925
98	0x3f412441	0.75445944
99	0x3f785405	0.97003204
100	0x3f5fe359	0.8745628
101	0x3ddca940	0.107744694
102	0x3e1452c4	0.14484698
103	0x3f6efae0	0.93351555
104	0x3f7d63b0	0.98980236
105	0x3f3da922	0.740862
106	0x3f18b7f8	0.59655714
107	0x3f4d2457	0.80133575
108	0x3ea7854a	0.3271888
109	0x3eb87eee	0.3603434
110	0x3f485c81	0.7826615
111	0x3dea4fa0	0.114409685
112	0x3f22e399	0.63628536
113	0x3f657376	0.89629304
114	0x3e89d10c	0.26917303
115	0x3e8a6630	0.27031088
116	0x3e59d070	0.21270919
117	0x3dec98d0	0.11552584
118	0x3f4e6df3	0.8063652
119	0x3f134e6d	0.57541543
120	0x3f7a2687	0.9771504
121	0x3d8e2990	0.06941521
122	0x3f4a5a48	0.7904401
123	0x3e9f8824	0.31158555
124	0x3e7d5904	0.24740988
125	0x3ec66de4	0.38755715
126	0x3f2eea67	0.6832642
127	0x3f0b3a71	0.5438605
128	0x3eb4d04e	0.35315174
129	0x3f6b3b52	0.9188739
130	0x3e4560f4	0.19275266
131	0x3e8bd83e	0.27313417
132	0x3f7b399f	0.981348
133	0x3e4dd300	0.20100021
134	0x3e7c829c	0.24659199
135	0x3f33cc99	0.70234066
136	0x3f6d9be2	0.92815983
137	0x3f3b17e8	0.73083353
138	0x3f23fd49	0.6405836
139	0x3f34651e	0.7046679
140	0x3f7df697	0.9920439
141	0x3ef5c8da	0.480048
142	0x3f10f22e	0.56619537
143	0x3f34af80	0.7058029
144	0x3d750820	0.0598222
145	0x3eebfa30	0.46089315
146	0x3e3c896c	0.18411797
147	0x3e820b82	0.25399405
148	0x3c9914e0	0.018686712
149	0x3f236f2c	0.6384151
150	0x3e90c980	0.28278732
151	0x3d545b50	0.051844895
152	0x3e8f9c8e	0.2804913
153	0x3ecd2b58	0.4007213
154	0x3f4600f0	0.7734518
155	0x3f23d0fe	0.6399077
156	0x3e8de9ae	0.27717346
157	0x3d438300	0.047732353
158	0x3f4f0b55	0.80876666
159	0x3e027d00	0.12742996
160	0x3c9fce40	0.019507527
161	0x3ebaf884	0.36517727
162	0x3e1fe680	0.15615273
163	0x3f2f129c	0.6838777
164	0x3f532a4f	0.8248643
165	0x3f42ec65	0.7614196
166	0x3e40e670	0.18837905
167	0x3f556f55	0.83373004
168	0x3f7b6372	0.98198617
169	0x3f3758d9	0.71619946
170	0x3e2e1f6c	0.17004174
171	0x3f472a22	0.77798665
172	0x3eb08c6e	0.3448214
173	0x3f51b254	0.8191273
174	0x3ef3ce32	0.47618252
175	0x3ecf5b4e	0.40499347
176	0x3f123656	0.5711416
177	0x3ec97fbe	0.39355272
178	0x3f59ab80	0.85027313
179	0x3f4d8184	0.8027575
180	0x3da08160	0.07837176
181	0x3eef845a	0.46780664
182	0x3f59bcde	0.85053813
183	0x3f2d69c5	0.67739516
184	0x3f72bb1a	0.94816744
185	0x3e04a398	0.12953031
186	0x3f3d6a7c	0.7399061
187	0x3c2c2cc0	0.010508716
188	0x3e683b08	0.22678769
189	0x3f08b082	0.5339433
190	0x3eda92b2	0.42690045
191	0x3f7c68a3	0.9859716
192	0x3e538fd8	0.20660341
193	0x3f5f5e30	0.87253094
194	0x3ef99fe4	0.487548
195	0x3f5f4db9	0.8722797
196	0x3e523274	0.20527059
197	0x3f66185a	0.8988091
198	0x3ecac390	0.39602327
199	0x3efe222c	0.49635446
200	0x38a5a000	7.8976154e-05
201	0x3f3bcb79	0.7335735
202	0x3e1ce160	0.15320349
203	0x3f46ad85	0.7760852
204	0x3ed70758	0.4199779
205	0x3ec063aa	0.37576038
206	0x3f4866bd	0.78281766
207	0x3e259ed0	0.16173863
208	0x3f27ef93	0.65599936
209	0x3f6ee2e1	0.9331494
210	0x3f02313f	0.50856394
211	0x3ec0e5b4	0.3767525
212	0x3e520654	0.20510226
213	0x3ee8e51e	0.45487303
214	0x3da0cb20	0.07851243
215	0x3e678a60	0.2261138
216	0x3ece26d8	0.4026401
217	0x3e7bbca4	0.2458368
218	0x3f28428c	0.6572654
219	0x3e640c58	0.22270334
220	0x3e4650fc	0.1936683
221	0x3f430980	0.7618637
222	0x3e954aa4	0.2915851
223	0x3ec6bb7a	0.38814908
224	0x3ec8131a	0.39077073
225	0x3f70a0b8	0.9399524
226	0x3f5a4a03	0.8526918
227	0x3f052f02	0.52024853
228	0x3f1884f6	0.5957788
229	0x3f03eef1	0.5153647
230	0x3f1546c2	0.5831109
231	0x3f5ce8c8	0.86292696
232	0x3f0a89cf	0.5411653
233	0x3f2412c5	0.6409114
234	0x3f394e8c	0.7238548
235	0x3daaf738	0.083479345
236	0x3f758de9	0.9591966
237	0x3f3eb17c	0.7448957
238	0x3ecc5e5a	0.39915735
239	0x3e33f2a4	0.17573029
240	0x3f66102e	0.8986844
241	0x3d6aa250	0.0572837
242	0x3e8be09e	0.27319807
243	0x3efb8be4	0.49130166
244	0x3e2ca664	0.16860348
245	0x3f1e30e6	0.61793363
246	0x3f57efee	0.8435048
247	0x3e7e0e74	0.24810201
248	0x3f6f0fc7	0.9338345
249	0x3f09c36b	0.5381381
250	0x3e614f60	0.22002935
251	0x3f71220c	0.94192576
252	0x3eadf744	0.3397771
253	0x3f52cac7	0.82340664
254	0x3e63b64c	0.2223751
255	0x3f35adde	0.70968425

bn1.bias f4 [400]
0	0x00000000	0.0
1	0x00000000	0.0
2	0x00000000	0.0
3	0x00000000	0.0
4	0x00000000	0.0
5	0x00000000	0.0
6	0x00000000	0.0
7	0x00000000	0.0
8	0x00000000	0.0
9	0x00000000	0.0
10	0x00000000	0.0
11	0x00000000	0.0
12	0x00000000	0.0
13	0x00000000	0.0
14	0x00000000	0.0
15	0x00000000	0.0
16	0x00000000	0.0
17	0x00000000	0.0
18	0x00000000	0.0
19	0x00000000	0.0
20	0x00000000	0.0
21	0x00000000	0.0
22	0x00000000	0.0
23	0x00000000	0.0
24	0x00000000	0.0
25	0x00000000	0.0
26	0x00000000	0.0
27	0x00000000	0.0
28	0x00000000	0.0
29	0x00000000	0.0
30	0x00000000	0.0
31	0x00000000	0.0
32	0x00000000	0.0
33	0x00000000	0.0
34	0x00000000	0.0
35	0x00000000	0.0
36	0x00000000	0.0
37	0x00000000	0.0
38	0x00000000	0.0
39	0x00000000	0.0
40	0x00000000	0.0
41	0x00000000	0.0
42	0x00000000	0.0
43	0x00000000	0.0
44	0x00000000	0.0
45	0x00000000	0.0
46	0x00000000	0.0
47	0x00000000	0.0
48	0x00000000	0.0
49	0x00000000	0.0
50	0x00000000	0.0
51	0x00000000	0.0
52	0x00000000	0.0
53	0x00000000	0.0
54	0x00000000	0.0
55	0x00000000	0.0
56	0x00000000	0.0
57	0x00000000	0.0
58	0x00000000	0.0
59	0x00000000	0.0
60	0x00000000	0.0
61	0x00000000	0.0
62	0x00000000	0.0
63	0x00000000	0.0
64	0x00000000	0.0
65	0x00000000	0.0
66	0x00000000	0.0
67	0x00000000	0.0
68	0x00000000	0.0
69	0x00000000	0.0
70	0x00000000	0.0
71	0x00000000	0.0
72	0x00000000	0.0
73	0x00000000	0.0
74	0x00000000	0.0
75	0x00000000	0.0
76	0x00000000	0.0
77	0x00000000	0.0
78	0x00000000	0.0
79	0x00000000	0.0
80	0x00000000	0.0
81	0x00000000	0.0
82	0x00000000	0.0
83	0x00000000	0.0
84	0x00000000	0.0
85	0x00000000	0.0
86	0x00000000	0.0
87	0x00000000	0.0
88	0x00000000	0.0
89	0x00000000	0.0
90	0x00000000	0.0
91	0x00000000	0.0
92	0x00000000	0.0
93	0x00000000	0.0
94	0x00000000	0.0
95	0x00000000	0.0
96	0x00000000	0.0
97	0x00000000	0.0
98	0x00000000	0.0
99	0x00000000	0.0
100	0x00000000	0.0
101	0x00000000	0.0
102	0x00000000	0.0
103	0x00000000	0.0
104	0x00000000	0.0
105	0x00000000	0.0
106	0x00000000	0.0
107	0x00000000	0.0
108	0x00000000	0.0
109	0x00000000	0.0
110	0x00000000	0.0
111	0x00000000	0.0
112	0x00000000	0.0
113	0x00000000	0.0
114	0x00000000	0.0
115	0x00000000	0.0
116	0x00000000	0.0
117	0x00000000	0.0
118	0x00000000	0.0
119	0x00000000	0.0
120	0x00000000	0.0
121	0x00000000	0.0
122	0x00000000	0.0
123	0x00000000	0.0
124	0x00000000	0.0
125	0x00000000	0.0
126	0x00000000	0.0
127	0x00000000	0.0
128	0x00000000	0.0
129	0x00000000	0.0
130	0x00000000	0.0
131	0x00000000	0.0
132	0x00000000	0.0
133	0x00000000	0.0
134	0x00000000	0.0
135	0x00000000	0.0
136	0x00000000	0.0
137	0x00000000	0.0
138	0x00000000	0.0
139	0x00000000	0.0
140	0x00000000	0.0
141	0x00000000	0.0
142	0x00000000	0.0
143	0x00000000	0.0
144	0x00000000	0.0
145	0x00000000	0.0
146	0x00000000	0.0
147	0x00000000	0.0
148	0x00000000	0.0
149	0x00000000	0.0
150	0x00000000	0.0
151	0x00000000	0.0
152	0x00000000	0.0
153	0x00000000	0.0
154	0x00000000	0.0
155	0x00000000	0.0
156	0x00000000	0.0
157	0x00000000	0.0
158	0x00000000	0.0
159	0x00000000	0.0
160	0x00000000	0.0
161	0x00000000	0.0
162	0x00000000	0.0
163	0x00000000	0.0
164	0x00000000	0.0
165	0x00000000	0.0
166	0x00000000	0.0
167	0x00000000	0.0
168	0x00000000	0.0
169	0x00000000	0.0
170	0x00000000	0.0
171	0x00000000	0.0
172	0x00000000	0.0
173	0x00000000	0.0
174	0x00000000	0.0
175	0x00000000	0.0
176	0x00000000	0.0
177	0x00000000	0.0
178	0x00000000	0.0
179	0x00000000	0.0
180	0x00000000	0.0
181	0x00000000	0.0
182	0x00000000	0.0
183	0x00000000	0.0
184	0x00000000	0.0
185	0x00000000	0.0
186	0x00000000	0.0
187	0x00000000	0.0
188	0x00000000	0.0
189	0x00000000	0.0
190	0x00000000	0.0
191	0x00000000	0.0
192	0x00000000	0.0
193	0x00000000	0.0
194	0x00000000	0.0
195	0x00000000	0.0
196	0x00000000	0.0
197	0x00000000	0.0
198	0x00000000	0.0
199	0x00000000	0.0
200	0x00000000	0.0
201	0x00000000	0.0
202	0x00000000	0.0
203	0x00000000	0.0
204	0x00000000	0.0
205	0x00000000	0.0
206	0x00000000	0.0
207	0x00000000	0.0
208	0x00000000	0.0
209	0x00000000	0.0
210	0x00000000	0.0
211	0x00000000	0.0
212	0x00000000	0.0
213	0x00000000	0.0
214	0x00000000	0.0
215	0x00000000	0.0
216	0x00000000	0.0
217	0x00000000	0.0
218	0x00000000	0.0
219	0x00000000	0.0
220	0x00000000	0.0
221	0x00000000	0.0
222	0x00000000	0.0
223	0x00000000	0.0
224	0x00000000	0.0
225	0x00000000	0.0
226	0x00000000	0.0
227	0x00000000	0.0
228	0x00000000	0.0
229	0x00000000	0.0
230	0x00000000	0.0
231	0x00000000	0.0
232	0x00000000	0.0
233	0x00000000	0.0
234	0x00000000	0.0
235	0x00000000	0.0
236	0x00000000	0.0
237	0x00000000	0.0
238	0x00000000	0.0
239	0x00000000	0.0
240	0x00000000	0.0
241	0x00000000	0.0
242	0x00000000	0.0
243	0x00000000	0.0
244	0x00000000	0.0
245	0x00000000	0.0
246	0x00000000	0.0
247	0x00000000	0.0
248	0x00000000	0.0
249	0x00000000	0.0
250	0x00000000	0.0
251	0x00000000	0.0
252	0x00000000	0.0
253	0x00000000	0.0
254	0x00000000	0.0
255	0x00000000	0.0

bn1.running_mean f4 [400]
0	0x00000000	0.0
1	0x00000000	0.0
2	0x00000000	0.0
3	0x00000000	0.0
4	0x00000000	0.0
5	0x00000000	0.0
6	0x00000000	0.0
7	0x00000000	0.0
8	0x00000000	0.0
9	0x00000000	0.0
10	0x00000000	0.0
11	0x00000000	0.0
12	0x00000000	0.0
13	0x00000000	0.0
14	0x00000000	0.0
15	0x00000000	0.0
16	0x00000000	0.0
17	0x00000000	0.0
18	0x00000000	0.0
19	0x00000000	0.0
20	0x00000000	0.0
21	0x00000000	0.0
22	0x00000000	0.0
23	0x00000000	0.0
24	0x00000000	0.0
25	0x00000000	0.0
26	0x00000000	0.0
27	0x00000000	0.0
28	0x00000000	0.0
29	0x00000000	0.0
30	0x00000000	0.0
31	0x00000000	0.0
32	0x00000000	0.0
33	0x00000000	0.0
34	0x00000000	0.0
35	0x00000000	0.0
36	0x00000000	0.0
37	0x00000000	0.0
38	0x00000000	0.0
39	0x00000000	0.0
40	0x00000000	0.0
41	0x00000000	0.0
42	0x00000000	0.0
43	0x00000000	0.0
44	0x00000000	0.0
45	0x00000000	0.0
46	0x00000000	0.0
47	0x00000000	0.0
48	0x00000000	0.0
49	0x00000000	0.0
50	0x00000000	0.0
51	0x00000000	0.0
52	0x00000000	0.0
53	0x00000000	0.0
54	0x00000000	0.0
55	0x00000000	0.0
56	0x00000000	0.0
57	0x00000000	0.0
58	0x00000000	0.0
59	0x00000000	0.0
60	0x00000000	0.0
61	0x00000000	0.0
62	0x00000000	0.0
63	0x00000000	0.0
64	0x00000000	0.0
65	0x00000000	0.0
66	0x00000000	0.0
67	0x00000000	0.0
68	0x00000000	0.0
69	0x00000000	0.0
70	0x00000000	0.0
71	0x00000000	0.0
72	0x00000000	0.0
73	0x00000000	0.0
74	0x00000000	0.0
75	0x00000000	0.0
76	0x00000000	0.0
77	0x00000000	0.0
78	0x00000000	0.0
79	0x00000000	0.0
80	0x00000000	0.0
81	0x00000000	0.0
82	0x00000000	0.0
83	0x00000000	0.0
84	0x00000000	0.0
85	0x00000000	0.0
86	0x00000000	0.0
87	0x00000000	0.0
88	0x00000000	0.0
89	0x00000000	0.0
90	0x00000000	0.0
91	0x00000000	0.0
92	0x00000000	0.0
93	0x00000000	0.0
94	0x00000000	0.0
95	0x00000000	0.0
96	0x00000000	0.0
97	0x00000000	0.0
98	0x00000000	0.0
99	0x00000000	0.0
100	0x00000000	0.0
101	0x00000000	0.0
102	0x00000000	0.0
103	0x00000000	0.0
104	0x00000000	0.0
105	0x00000000	0.0
106	0x00000000	0.0
107	0x00000000	0.0
108	0x00000000	0.0
109	0x00000000	0.0
110	0x00000000	0.0
111	0x00000000	0.0
112	0x00000000	0.0
113	0x00000000	0.0
114	0x00000000	0.0
115	0x00000000	0.0
116	0x00000000	0.0
117	0x00000000	0.0
118	0x00000000	0.0
119	0x00000000	0.0
120	0x00000000	0.0
121	0x00000000	0.0
122	0x00000000	0.0
123	0x00000000	0.0
124	0x00000000	0.0
125	0x00000000	0.0
126	0x00000000	0.0
127	0x00000000	0.0
128	0x00000000	0.0
129	0x00000000	0.0
130	0x00000000	0.0
131	0x00000000	0.0
132	0x00000000	0.0
133	0x00000000	0.0
134	0x00000000	0.0
135	0x00000000	0.0
136	0x00000000	0.0
137	0x00000000	0.0
138	0x00000000	0.0
139	0x00000000	0.0
140	0x00000000	0.0
141	0x00000000	0.0
142	0x00000000	0.0
143	0x00000000	0.0
144	0x00000000	0.0
145	0x00000000	0.0
146	0x00000000	0.0
147	0x00000000	0.0
148	0x00000000	0.0
149	0x00000000	0.0
150	0x00000000	0.0
151	0x00000000	0.0
152	0x00000000	0.0
153	0x00000000	0.0
154	0x00000000	0.0
155	0x00000000	0.0
156	0x00000000	0.0
157	0x00000000	0.0
158	0x00000000	0.0
159	0x00000000	0.0
160	0x00000000	0.0
161	0x00000000	0.0
162	0x00000000	0.0
163	0x00000000	0.0
164	0x00000000	0.0
165	0x00000000	0.0
166	0x00000000	0.0
167	0x00000000	0.0
168	0x00000000	0.0
169	0x00000000	0.0
170	0x00000000	0.0
171	0x00000000	0.0
172	0x00000000	0.0
173	0x00000000	0.0
174	0x00000000	0.0
175	0x00000000	0.0
176	0x00000000	0.0
177	0x00000000	0.0
178	0x00000000	0.0
179	0x00000000	0.0
180	0x00000000	0.0
181	0x00000000	0.0
182	0x00000000	0.0
183	0x00000000	0.0
184	0x00000000	0.0
185	0x00000000	0.0
186	0x00000000	0.0
187	0x00000000	0.0
188	0x00000000	0.0
189	0x00000000	0.0
190	0x00000000	0.0
191	0x00000000	0.0
192	0x00000000	0.0
193	0x00000000	0.0
194	0x00000000	0.0
195	0x00000000	0.0
196	0x00000000	0.0
197	0x00000000	0.0
198	0x00000000	0.0
199	0x00000000	0.0
200	0x00000000	0.0
201	0x00000000	0.0
202	0x00000000	0.0
203	0x00000000	0.0
204	0x00000000	0.0
205	0x00000000	0.0
206	0x00000000	0.0
207	0x00000000	0.0
208	0x00000000	0.0
209	0x00000000	0.0
210	0x00000000	0.0
211	0x00000000	0.0
212	0x00000000	0.0
213	0x00000000	0.0
214	0x00000000	0.0
215	0x00000000	0.0
216	0x00000000	0.0
217	0x00000000	0.0
218	0x00000000	0.0
219	0x00000000	0.0
220	0x00000000	0.0
221	0x00000000	0.0
222	0x00000000	0.0
223	0x00000000	0.0
224	0x00000000	0.0
225	0x00000000	0.0
226	0x00000000	0.0
227	0x00000000	0.0
228	0x00000000	0.0
229	0x00000000	0.0
230	0x00000000	0.0
231	0x00000000	0.0
232	0x00000000	0.0
233	0x00000000	0.0
234	0x00000000	0.0
235	0x00000000	0.0
236	0x00000000	0.0
237	0x00000000	0.0
238	0x00000000	0.0
239	0x00000000	0.0
240	0x00000000	0.0
241	0x00000000	0.0
242	0x00000000	0.0
243	0x00000000	0.0
244	0x00000000	0.0
245	0x00000000	0.0
246	0x00000000	0.0
247	0x00000000	0.0
248	0x00000000	0.0
249	0x00000000	0.0
250	0x00000000	0.0
251	0x00000000	0.0
252	0x00000000	0.0
253	0x00000000	0.0
254	0x00000000	0.0
255	0x00000000	0.0

bn1.running_var f4 [400]
0	0x3f800000	1.0
1	0x3f800000	1.0
2	0x3f800000	1.0
3	0x3f800000	1.0
4	0x3f800000	1.0
5	0x3f800000	1.0
6	0x3f800000	1.0
7	0x3f800000	1.0
8	0x3f800000	1.0
9	0x3f800000	1.0
10	0x3f800000	1.0
11	0x3f800000	1.0
12	0x3f800000	1.0
13	0x3f800000	1.0
14	0x3f800000	1.0
15	0x3f800000	1.0
16	0x3f800000	1.0
17	0x3f800000	1.0
18	0x3f800000	1.0
19	0x3f800000	1.0
20	0x3f800000	1.0
21	0x3f800000	1.0
22	0x3f800000	1.0
23	0x3f800000	1.0
24	0x3f800000	1.0
25	0x3f800000	1.0
26	0x3f800000	1.0
27	0x3f800000	1.0
28	0x3f800000	1.0
29	0x3f800000	1.0
30	0x3f800000	1.0
31	0x3f800000	1.0
32	0x3f800000	1.0
33	0x3f800000	1.0
34	0x3f800000	1.0
35	0x3f800000	1.0
36	0x3f800000	1.0
37	0x3f800000	1.0
38	0x3f800000	1.0
39	0x3f800000	1.0
40	0x3f800000	1.0
41	0x3f800000	1.0
42	0x3f800000	1.0
43	0x3f800000	1.0
44	0x3f800000	1.0
45	0x3f800000	1.0
46	0x3f800000	1.0
47	0x3f800000	1.0
48	0x3f800000	1.0
49	0x3f800000	1.0
50	0x3f800000	1.0
51	0x3f800000	1.0
52	0x3f800000	1.0
53	0x3f800000	1.0
54	0x3f800000	1.0
55	0x3f800000	1.0
56	0x3f800000	1.0
57	0x3f800000	1.0
58	0x3f800000	1.0
59	0x3f800000	1.0
60	0x3f800000	1.0
61	0x3f800000	1.0
62	0x3f800000	1.0
63	0x3f800000	1.0
64	0x3f800000	1.0
65	0x3f800000	1.0
66	0x3f800000	1.0
67	0x3f800000	1.0
68	0x3f800000	1.0
69	0x3f800000	1.0
70	0x3f800000	1.0
71	0x3f800000	1.0
72	0x3f800000	1.0
73	0x3f800000	1.0
74	0x3f800000	1.0
75	0x3f800000	1.0
76	0x3f800000	1.0
77	0x3f800000	1.0
78	0x3f800000	1.0
79	0x3f800000	1.0
80	0x3f800000	1.0
81	0x3f800000	1.0
82	0x3f800000	1.0
83	0x3f800000	1.0
84	0x3f800000	1.0
85	0x3f800000	1.0
86	0x3f800000	1.0
87	0x3f800000	1.0
88	0x3f800000	1.0
89	0x3f800000	1.0
90	0x3f800000	1.0
91	0x3f800000	1.0
92	0x3f800000	1.0
93	0x3f800000	1.0
94	0x3f800000	1.0
95	0x3f800000	1.0
96	0x3f800000	1.0
97	0x3f800000	1.0
98	0x3f800000	1.0
99	0x3f800000	1.0
100	0x3f800000	1.0
101	0x3f800000	1.0
102	0x3f800000	1.0
103	0x3f800000	1.0
104	0x3f800000	1.0
105	0x3f800000	1.0
106	0x3f800000	1.0
107	0x3f800000	1.0
108	0x3f800000	1.0
109	0x3f800000	1.0
110	0x3f800000	1.0
111	0x3f800000	1.0
112	0x3f800000	1.0
113	0x3f800000	1.0
114	0x3f800000	1.0
115	0x3f800000	1.0
116	0x3f800000	1.0
117	0x3f800000	1.0
118	0x3f800000	1.0
119	0x3f800000	1.0
120	0x3f800000	1.0
121	0x3f800000	1.0
122	0x3f800000	1.0
123	0x3f800000	1.0
124	0x3f800000	1.0
125	0x3f800000	1.0
126	0x3f800000	1.0
127	0x3f800000	1.0
128	0x3f800000	1.0
129	0x3f800000	1.0
130	0x3f800000	1.0
131	0x3f800000	1.0
132	0x3f800000	1.0
133	0x3f800000	1.0
134	0x3f800000	1.0
135	0x3f800000	1.0
136	0x3f800000	1.0
137	0x3f800000	1.0
138	0x3f800000	1.0
139	0x3f800000	1.0
140	0x3f800000	1.0
141	0x3f800000	1.0
142	0x3f800000	1.0
143	0x3f800000	1.0
144	0x3f800000	1.0
145	0x3f800000	1.0
146	0x3f800000	1.0
147	0x3f800000	1.0
148	0x3f800000	1.0
149	0x3f800000	1.0
150	0x3f800000	1.0
151	0x3f800000	1.0
152	0x3f800000	1.0
153	0x3f800000	1.0
154	0x3f800000	1.0
155	0x3f800000	1.0
156	0x3f800000	1.0
157	0x3f800000	1.0
158	0x3f800000	1.0
159	0x3f800000	1.0
160	0x3f800000	1.0
161	0x3f800000	1.0
162	0x3f800000	1.0
163	0x3f800000	1.0
164	0x3f800000	1.0
165	0x3f800000	1.0
166	0x3f800000	1.0
167	0x3f800000	1.0
168	0x3f800000	1.0
169	0x3f800000	1.0
170	0x3f800000	1.0
171	0x3f800000	1.0
172	0x3f800000	1.0
173	0x3f800000	1.0
174	0x3f800000	1.0
175	0x3f800000	1.0
176	0x3f800000	1.0
177	0x3f800000	1.0
178	0x3f800000	1.0
179	0x3f800000	1.0
180	0x3f800000	1.0
181	0x3f800000	1.0
182	0x3f800000	1.0
183	0x3f800000	1.0
184	0x3f800000	1.0
185	0x3f800000	1.0
186	0x3f800000	1.0
187	0x3f800000	1.0
188	0x3f800000	1.0
189	0x3f800000	1.0
190	0x3f800000	1.0
191	0x3f800000	1.0
192	0x3f800000	1.0
193	0x3f800000	1.0
194	0x3f800000	1.0
195	0x3f800000	1.0
196	0x3f800000	1.0
197	0x3f800000	1.0
198	0x3f800000	1.0
199	0x3f800000	1.0
200	0x3f800000	1.0
201	0x3f800000	1.0
202	0x3f800000	1.0
203	0x3f800000	1.0
204	0x3f800000	1.0
205	0x3f800000	1.0
206	0x3f800000	1.0
207	0x3f800000	1.0
208	0x3f800000	1.0
209	0x3f800000	1.0
210	0x3f800000	1.0
211	0x3f800000	1.0
212	0x3f800000	1.0
213	0x3f800000	1.0
214	0x3f800000	1.0
215	0x3f800000	1.0
216	0x3f800000	1.0
217	0x3f800000	1.0
218	0x3f800000	1.0
219	0x3f800000	1.0
220	0x3f800000	1.0
221	0x3f800000	1.0
222	0x3f800000	1.0
223	0x3f800000	1.0
224	0x3f800000	1.0
225	0x3f800000	1.0
226	0x3f800000	1.0
227	0x3f800000	1.0
228	0x3f800000	1.0
229	0x3f800000	1.0
230	0x3f800000	1.0
231	0x3f800000	1.0
232	0x3f800000	1.0
233	0x3f800000	1.0
234	0x3f800000	1.0
235	0x3f800000	1.0
236	0x3f800000	1.0
237	0x3f800000	1.0
238	0x3f800000	1.0
239	0x3f800000	1.0
240	0x3f800000	1.0
241	0x3f800000	1.0
242	0x3f800000	1.0
243	0x3f800000	1.0
244	0x3f800000	1.0
245	0x3f800000	1.0
246	0x3f800000	1.0
247	0x3f800000	1.0
248	0x3f800000	1.0
249	0x3f800000	1.0
250	0x3f800000	1.0
251	0x3f800000	1.0
252	0x3f800000	1.0
253	0x3f800000	1.0
254	0x3f800000	1.0
255	0x3f800000	1.0

fc2.weight f4 [300, 402]
0	0xbeedf121	-0.4647303
1	0xbc875e12	-0.016524348
2	0xbd8e9217	-0.06961458
3	0x3cdd7306	0.027032387
4	0xbe8564a5	-0.26053348
5	0x3e0c6208	0.13709271
6	0xbc71b4f7	-0.014752618
7	0xbeb9aff9	-0.3626707
8	0xbe9c4285	-0.305195
9	0xbeca0ef8	-0.39464545
10	0x3d8bdefd	0.06829641
11	0xbe16ab29	-0.1471373
12	0xbdafa388	-0.08576113
13	0xbe5f8254	-0.2182706
14	0xbed3d5a5	-0.41373935
15	0xbdbcf70d	-0.09226809
16	0x3b246ff4	0.0025091143
17	0x3a183586	0.00058063155
18	0xbcbe2b88	-0.023214117
19	0xbee75c0e	-0.4518742
20	0x3e7cde2a	0.24694124
21	0xbe386731	-0.18008114
22	0xbd9d2ab7	-0.07674163
23	0x3df554e8	0.11979085
24	0xbe9b05d2	-0.30277878
25	0xbe6fdcbf	-0.23424052
26	0xbe11c3b4	-0.14234811
27	0xbe2cdb26	-0.16880473
28	0x3d8305b7	0.063975744
29	0xbd60ee2d	-0.054914642
30	0xbe10fd45	-0.14159115
31	0xbf2b5af3	-0.6693565
32	0x3c413880	0.011793256
33	0xbe5aa515	-0.21352036
34	0x3e2e7bbc	0.17039388
35	0x3ebd4104	0.36963665
36	0x3da77a7f	0.08177661
37	0x3e464f8e	0.19366285
38	0x3ca11034	0.019661047
39	0xbce1851b	-0.02752929
40	0xbee3a028	-0.44458127
41	0x3e8d6240	0.2761402
42	0x3e954e37	0.29161236
43	0xbdddb0ed	-0.108247615
44	0xbdee21fb	-0.11627575
45	0xbeb6e9ca	-0.35725242
46	0xbf6134b5	-0.8797105
47	0xbeb2fa44	-0.34956563
48	0xbf3f1b2d	-0.7465084
49	0xbe915888	-0.28387856
50	0xbd82e445	-0.06391195
51	0xbf14cf2d	-0.58128625
52	0xbe932020	-0.28735447
53	0x3ccba8aa	0.024860699
54	0xbe261419	-0.16218604
55	0xbc300008	-0.010742195
56	0xbc919b9c	-0.017774396
57	0xbdc2c7e4	-0.09510782
58	0xbf05b504	-0.5222933
59	0x3e39f497	0.1815971
60	0xbf32aacb	-0.6979186
61	0xbaca861d	-0.0015451346
62	0xbed06278	-0.40700126
63	0xbf14eba8	-0.5817208
64	0x3da914ab	0.08255895
65	0xbaf4a9af	-0.0018666292
66	0x3ce89830	0.028392881
67	0xbec9eedf	-0.39440057
68	0xbdc29a0f	-0.095020406
69	0xbeda0c1f	-0.42587373
70	0x3e4658bf	0.19369791
71	0xbea256a7	-0.31706735
72	0xbe6748d3	-0.22586374
73	0xbd9a498b	-0.075335585
74	0xbea1ac63	-0.31576833
75	0xbd96a082	-0.07354833
76	0xbeacedff	-0.33775327
77	0xbe3c59a8	-0.18393576
78	0x3c534769	0.0128954435
79	0xbb9edffa	-0.0048484774
80	0xbf2366dd	-0.6382883
81	0xbe0b3c65	-0.13597257
82	0x3d02e94a	0.031960763
83	0x3db77bf9	0.08959193
84	0xbea66d3c	-0.32505214
85	0xbe2d5ac3	-0.16929154
86	0x3e8623ef	0.2619929
87	0xbe556e4d	-0.20842858
88	0xbe501743	-0.20321374
89	0xbeb58d05	-0.35459152
90	0xbd95cfb8	-0.0731501
91	0x3df223e3	0.11823251
92	0xbdca91ff	-0.09891128
93	0x3eb48f88	0.35265756
94	0x3ea8d435	0.329744
95	0xbe5de6d2	-0.21670082
96	0xbee2909f	-0.44250962
97	0xbf3dd1c2	-0.7414819
98	0xbea8a2aa	-0.32936603
99	0xbddba063	-0.10723951
100	0x3dffac85	0.12484077
101	0xbda93ddd	-0.082637526
102	0xbe5b2564	-0.21400982
103	0xbe6acee1	-0.2293048
104	0xbe329967	-0.17441331
105	0xbe3a776a	-0.18209615
106	0xbf18b71a	-0.5965439
107	0xbf3ed157	-0.7453818
108	0xbe4fe139	-0.2030076
109	0xbcebc0f8	-0.028778538
110	0xbe824e33	-0.25450286
111	0xbee520ac	-0.4475149
112	0xbd322516	-0.0434924
113	0xbe5716f1	-0.21004845
114	0xbeb4df52	-0.3532663
115	0xbef45966	-0.47724456
116	0xbd9612cd	-0.07327805
117	0xbe787d30	-0.24266505
118	0xbee7b7a0	-0.45257282
119	0x3cf90fad	0.030402983
120	0xbed982bb	-0.42482552
121	0x3d05699c	0.03257142
122	0xbe89d8d7	-0.26923248
123	0x3e3e1f76	0.18566689
124	0x3d8c9bcf	0.06865656
125	0xbd09945a	-0.033588745
126	0xbed95b03	-0.4245225
127	0x3de21079	0.11038298
128	0x3e4fdecf	0.20299838
129	0x3e28251c	0.16420406
130	0xbd67ac0d	-0.056560565
131	0xbf135c55	-0.5756276
132	0xbe91906a	-0.28430492
133	0xbe17de09	-0.14830793
134	0x3e3c2864	0.18374783
135	0xbd153011	-0.036422793
136	0x3c471a6b	0.012152295
137	0xbe82beed	-0.2553629
138	0x3da39bae	0.07988678
139	0x3dd1ef7d	0.10250757
140	0xbd430820	-0.04761517
141	0xbd4c564b	-0.049886983
142	0xbf1a64f9	-0.6031032
143	0xbed293a7	-0.41128275
144	0xbe419442	-0.18904212
145	0x3ea94f9f	0.3306856
146	0xbdca7d17	-0.0988714
147	0xbe10b015	-0.1412967
148	0x3eb496ed	0.35271397
149	0x3e25ed6a	0.16203848
150	0xbee68fad	-0.4503149
151	0xbe697081	-0.22796823
152	0xbf46a2bc	-0.7759206
153	0x3e41d693	0.1892951
154	0xbe88d316	-0.26723546
155	0xbe2dc164	-0.16968304
156	0x3ca54ef0	0.020179242
157	0xbd8123a7	-0.06305628
158	0x3e96aac9	0.29427174
159	0x3cbeb76a	0.023280818
160	0x3dab39a0	0.083606005
161	0xbe882178	-0.26588035
162	0x3e8350cb	0.25647578
163	0xbedb0dd9	-0.42784002
164	0x3d071b88	0.03298524
165	0x3d4b1903	0.0495844
166	0x3dd69080	0.1047678
167	0xbeb29712	-0.34880883
168	0xbde39e4a	-0.111141756
169	0xbefdc635	-0.49565282
170	0xbeb1ad83	-0.3470269
171	0xbe8944bb	-0.2681025
172	0x3e033a03	0.12815098
173	0xbe586f25	-0.21136148
174	0xbe223ff7	-0.15844713
175	0xbe83bfcd	-0.2573227
176	0x3ca81bc0	0.020521045
177	0x3e265292	0.16242436
178	0xbdf6a570	-0.120432734
179	0x3e687f61	0.22704841
180	0xbf0a166d	-0.5394047
181	0xbde87f06	-0.11352353
182	0xbeb058dc	-0.34442794
183	0xbe8feccb	-0.28110346
184	0x3e216031	0.1575935
185	0x3e9960db	0.29956707
186	0xbe8ec77b	-0.27886567
187	0xbe880c5e	-0.26571935
188	0xbef18d97	-0.47178337
189	0xbde0ec70	-0.10982597
190	0xbe58061b	-0.21096079
191	0xbeb1de19	-0.3473976
192	0xbe026eab	-0.12737529
193	0xbeb0a3b5	-0.344999
194	0x3ebf2208	0.3733065
195	0xbe3811f1	-0.17975594
196	0xbd74c1f0	-0.059755266
197	0xbeca7433	-0.39541778
198	0xbd92ff62	-0.07177617
199	0xbec9a3e3	-0.39382848
200	0x3d65c781	0.056098465
201	0xbda626cc	-0.08112869
202	0xbdf92238	-0.1216473
203	0x3db75939	0.08952565
204	0xbdef6b84	-0.11690429
205	0xbe198afa	-0.14994422
206	0x3e875e39	0.26439074
207	0xbde9add8	-0.11410111
208	0xbe9a8d5b	-0.3018597
209	0xbed3f4b0	-0.4139762
210	0x3ce9cf4e	0.028541233
211	0xbeaf9d3f	-0.34299657
212	0xbecb3980	-0.39692307
213	0xbe8dc157	-0.2768657
214	0xbe9a64ab	-0.3015493
215	0x3e674ac1	0.2258711
216	0xbeb39a5a	-0.35078698
217	0xbe82a1e4	-0.25514138
218	0x3ca0ac97	0.019613547
219	0xbd1478df	-0.036248084
220	0xbee17e28	-0.44041562
221	0xbeb70f46	-0.3575384
222	0xbd7bf5e5	-0.0615138
223	0xbe252353	-0.16126756
224	0xbe136608	-0.1439439
225	0x3e917346	0.2840826
226	0xbe28c695	-0.16482003
227	0xbd9c2e9f	-0.0762608
228	0x3d8a3331	0.06748045
229	0xbe806f99	-0.25085142
230	0xbe197296	-0.14985117
231	0xbeb8eb0a	-0.3611682
232	0xbe01d1c2	-0.12677673
233	0xbe1b9ee8	-0.15197337
234	0xbec794e7	-0.3898079
235	0xbeb0d2ea	-0.34535915
236	0xbe165158	-0.14679468
237	0xbe345dee	-0.17613956
238	0x3e24ae60	0.16082144
239	0x3e5aa9e9	0.21353878
240	0xbf082b0f	-0.531907
241	0xbe5057a3	-0.20345931
242	0xbe8b845f	-0.2724943
243	0x3d459b38	0.04824373
244	0xbf034d01	-0.51289374
245	0xbe26edf2	-0.16301706
246	0xbf107b4d	-0.5643814
247	0xbeb5b8c0	-0.35492516
248	0x3e0cc13c	0.13745588
249	0xbd63aeed	-0.055586744
250	0xbe838ca8	-0.2569325
251	0xbe20e11e	-0.15710875
252	0x3e36836d	0.17823572
253	0xbe3a1182	-0.18170741
254	0xbe70959a	-0.23494568
255	0xbe797224	-0.24359947

fc2.bias f4 [300]
0	0xbf1aa5a1	-0.6040898
1	0xbf824327	-1.0176743
2	0xbf3b108b	-0.7307212
3	0xbf19ba3c	-0.60049796
4	0xbdbb5833	-0.09147682
5	0x3e8b4ee4	0.27208626
6	0xbd658453	-0.056034397
7	0xbe556060	-0.20837545
8	0x3e6a23a7	0.22865163
9	0xbeee34d4	-0.4652468
10	0xbefdd230	-0.49574423
11	0xbd967867	-0.07347184
12	0xbe10d930	-0.1414535
13	0xbef1a2f3	-0.47194633
14	0x3da0f7fa	0.07859798
15	0xbf87030f	-1.0547808
16	0x3cbee0ef	0.023300616
17	0x3e7d381f	0.2472844
18	0xbdde4783	-0.108534835
19	0x3abee4db	0.0014564054
20	0xbf0a5927	-0.54042286
21	0x3d6134cc	0.05498199
22	0xbd654b6e	-0.05598014
23	0xbee5d182	-0.44886404
24	0xbe712a4e	-0.23551294
25	0xbc88c5aa	-0.016695816
26	0xbee92986	-0.45539492
27	0x3bd2df2e	0.0064352965
28	0xbf3f7a16	-0.74795663
29	0xbf8e0495	-1.1095148
30	0x3ebdedb6	0.37095422
31	0x3ee18e17	0.44053718
32	0xbd83925a	-0.06424399
33	0x3e1d0a6e	0.1533601
34	0xbd9f1f1e	-0.07769607
35	0x3e16e424	0.14735466
36	0xbeb0c1da	-0.34522897
37	0xbf297d58	-0.66206884
38	0xbf3f1bd8	-0.7465186
39	0xbe87dead	-0.26537076
40	0xbe90c275	-0.2827336
41	0xbf2914b9	-0.66047245
42	0xbc2a4876	-0.010393253
43	0xbec3eae4	-0.38265145
44	0x3e7919c4	0.24326235
45	0x3ce43d7a	0.027861346
46	0x3e20611e	0.15662047
47	0x3eaed0e1	0.34143737
48	0xbdc7f654	-0.0976378
49	0xbe0afefb	-0.1357383
50	0xbe6568b6	-0.22403225
51	0xbe4ce7c2	-0.20010284
52	0xbe75b107	-0.23993312
53	0xbea441fd	-0.32081595
54	0x3c55b6f0	0.013044104
55	0x3d8cc003	0.06872561
56	0xbea1163e	-0.31462282
57	0x3d753221	0.05986226
58	0x3e944aea	0.28963405
59	0xbdeaabd1	-0.11458553
60	0xbf0185b1	-0.5059462
61	0xbf80acd1	-1.0052739
62	0xbeb430c5	-0.35193458
63	0xbe20dccd	-0.15709229
64	0xbe065271	-0.13117386
65	0x3e3f012a	0.18652788
66	0xbf79a7d3	-0.97521704
67	0xbe63077a	-0.22170821
68	0xbde3ec8f	-0.11129104
69	0xbea8c42f	-0.32962176
70	0xbe805df5	-0.25071684
71	0xbe7529ba	-0.23941699
72	0xbe373a73	-0.1789339
73	0x3df36737	0.11884921
74	0xbe58d51a	-0.21175042
75	0xbe570597	-0.20998226
76	0xbe422032	-0.18957594
77	0xbea17108	-0.31531549
78	0xbe6f4df8	-0.23369586
79	0x3d11ccc2	0.035595663
80	0xbed08638	-0.407274
81	0x3ea26070	0.317142
82	0xbe885b1c	-0.2663201
83	0x3db760c3	0.08954003
84	0xbf703a4a	-0.9383894
85	0xbe7300ad	-0.23730727
86	0xbe808bd7	-0.2510669
87	0x3cf90bde	0.030401167
88	0xbf9577d2	-1.1677191
89	0xbe4f909b	-0.20270006
90	0xbbbee6b9	-0.005825844
91	0x3e1b4a11	0.15164973
92	0x3ce5aa24	0.028035231
93	0x3f2221db	0.6333291
94	0xbf2593b3	-0.64678496
95	0xbe981c66	-0.29709166
96	0xbda8a6c1	-0.08234931
97	0xbcdbb94b	-0.026821753
98	0xbd98f5d9	-0.07468767
99	0xbf35467f	-0.70810694
100	0x3db93c9e	0.09044765
101	0xbe9516fe	-0.29119104
102	0xbc6eea37	-0.014582208
103	0xbed8d174	-0.423473
104	0xbecf31f4	-0.404678
105	0xbc9c4fb9	-0.019080983
106	0xbd1a9b98	-0.037746042
107	0xbec0e62b	-0.37675604
108	0xbe9aaa9e	-0.30208296
109	0xbe3caea9	-0.18426003
110	0xbdd04dbf	-0.10171079
111	0xbefb3773	-0.49065742
112	0xbe11e0e5	-0.14245947
113	0xbf0c45e7	-0.5479416
114	0x3a8f1a80	0.0010917932
115	0xbd277a71	-0.040888254
116	0xbd7f2749	-0.062293325
117	0xbe474483	-0.19459729
118	0xbcae4380	-0.02127242
119	0x3dfb6c77	0.122765474
120	0xbe729db6	-0.23692974
121	0xbe5cfde8	-0.21581233
122	0x3dc76dda	0.097377494
123	0xbe072095	-0.13196023
124	0xbf07710b	-0.52906865
125	0xbeb8ca74	-0.3609196
126	0xbf30c475	-0.6904977
127	0xbf5e791f	-0.86903566
128	0xbeb9cc50	-0.3628869
129	0xbd9f5e0f	-0.07781612
130	0xbefde1e8	-0.49586415
131	0xbdbdaa3d	-0.09260986
132	0xbed7c8e4	-0.42145455
133	0xbd8bf108	-0.068330824
134	0xbe1d27db	-0.15347235
135	0xbe85b981	-0.2611809
136	0xbf1c7551	-0.6111651
137	0xbf024dd1	-0.5089999
138	0xbdd21738	-0.10258335
139	0xbea23ae1	-0.31685546
140	0xbf6f89f5	-0.9356988
141	0xbea2ddb3	-0.31809768
142	0xbeabf3f4	-0.3358456
143	0xbf5ee40d	-0.8706673
144	0xbeca80ec	-0.39551485
145	0x3db575a4	0.08860329
146	0xbe347a0b	-0.1762468
147	0xbe8bff5b	-0.27343258
148	0xbeae6456	-0.34060925
149	0xbf1642bc	-0.5869558
150	0xbe0aa250	-0.1353848
151	0xbf30039d	-0.68755513
152	0xbebc7905	-0.3681108
153	0xbe8dd02a	-0.2769788
154	0xbe388557	-0.18019615
155	0xbe86b6f1	-0.26311448
156	0xbf0bb08e	-0.54566276
157	0xbe71d4ee	-0.23616382
158	0xbf0a5064	-0.54028916
159	0x3dc2183f	0.09477281
160	0xbe5744f4	-0.21022397
161	0xbf980ae1	-1.187832
162	0xbca04bcd	-0.019567395
163	0xbe0c0cc0	-0.13676739
164	0xbe5e6cbd	-0.21721168
165	0xbea1d8f6	-0.3161084
166	0xbe2de365	-0.16981275
167	0x3dd21331	0.10257567
168	0xbd9334f1	-0.07187832
169	0xbe8ec5ff	-0.27885434
170	0xbef3e301	-0.47634128
171	0x3e809ac4	0.25118077
172	0xbe37c35b	-0.17945616
173	0x3de3c1e6	0.111209676
174	0xbd64aa4c	-0.05582647
175	0xbc9dae31	-0.0192481
176	0xbe2f79d1	-0.17136313
177	0xbe516ab2	-0.20450857
178	0xbd8e3ce0	-0.06945205
179	0xbe1f1beb	-0.15537994
180	0x3d247e6e	0.040159635
181	0x3d8b0c59	0.067894645
182	0x3d93c2b3	0.0721487
183	0xbe6a0f73	-0.22857456
184	0xbec94472	-0.39310032
185	0x3d57edbe	0.052716963
186	0xbd9ceae2	-0.07661988
187	0xbf628ab0	-0.8849287
188	0xbf2bd31e	-0.67119014
189	0x3e1f7173	0.15570621
190	0xbe87124d	-0.2638115
191	0xbf242308	-0.64115953
192	0xbda3b3a8	-0.07993251
193	0xbed0d934	-0.40790713
194	0xbec12614	-0.37724364
195	0xbd924aa1	-0.071431406
196	0xbec49623	-0.38395795
197	0xbf3587fd	-0.70910627
198	0x3d3f3207	0.04667857
199	0xbec54662	-0.3853026
200	0xbd14a6e7	-0.036291983
201	0xbe02fc6c	-0.12791604
202	0xbe53c1f2	-0.20679453
203	0xbcbc2fbd	-0.022971982
204	0x3d7783f1	0.060428564
205	0xbe97e28c	-0.2966503
206	0xbf32692d	-0.69691736
207	0xbca15f0f	-0.019698648
208	0xbdf6924a	-0.12039621
209	0x3d815d6b	0.06316646
210	0xbeb4d696	-0.35319966
211	0xbf135907	-0.5755772
212	0xbefc4fbb	-0.4927958
213	0xbe99c705	-0.30034652
214	0xbe773b13	-0.24143629
215	0xbe2ec3c1	-0.17066862
216	0xbdcd1c6f	-0.10015189
217	0xbe0fbe2f	-0.14037393
218	0xbe8e482e	-0.27789444
219	0xbf0c50df	-0.548109
220	0xbd21d9b3	-0.039514255
221	0xbead69f4	-0.33869898
222	0xbe8e2db1	-0.27769235
223	0xbe680618	-0.22658575
224	0x3d72d2c5	0.059283037
225	0xbe022ab6	-0.12711605
226	0xbe1988f2	-0.14993647
227	0xbe871ebf	-0.26390645
228	0xbd902ecb	-0.07040175
229	0x3d38e649	0.045141492
230	0xbedef243	-0.43544206
231	0xbf4f1596	-0.8089231
232	0xbecaf9a4	-0.39643586
233	0xbdc12313	-0.09430518
234	0xbd6bd331	-0.057574455
235	0xbced05b5	-0.028933385
236	0xbf43e756	-0.76524866
237	0xbf35c2e1	-0.71000487
238	0xbe7aad4c	-0.2448017
239	0xbf253838	-0.6453891
240	0xbed7412a	-0.42041904
241	0xbf1f3b8f	-0.62200254
242	0xbe561631	-0.20906903
243	0x3e771d77	0.24132334
244	0xbf43bf5c	-0.76463866
245	0x3e2c934a	0.16853061
246	0x3d95dd87	0.073176436
247	0xbe46deba	-0.19420901
248	0x3d919766	0.07108955
249	0xbe923cbc	-0.28561962
250	0xbedb9971	-0.42890504
251	0xbe988071	-0.29785493
252	0xbf15d857	-0.58533233
253	0x3e40310f	0.18768714
254	0xbe48f0a6	-0.1962305
255	0xbebea443	-0.37234697
