checkpoint_actor.pth (torch_old, 894174 bytes, 16 tensors)

bn0.weight f4 [24]
000000 96 ff 75 3e f0 41 00 3f 9e 7c 87 3e 2c 7b 8f 3e
       0.2402328 0.5010061 0.26462263 0.2802366
000010 45 d7 82 3f 1f 7a 73 3f e6 5b 1b 3f d6 8e ef 3e
       1.0221945 0.95108217 0.606871 0.46788663
000020 5e 16 28 3f 86 91 6f 3e 14 e7 68 3e dc 81 b0 3e
       0.6565913 0.23395357 0.227444 0.34474075
000030 ca 51 c6 b9 a8 f0 f4 3e 76 51 1f 3f 0f 09 22 3f
       -0.0003782644 0.47839856 0.62233675 0.6329507
000040 73 f7 2e 3f 94 37 bd 3e fc e9 34 3f 32 b5 60 3f
       0.6834633 0.36956465 0.7066953 0.8777648
000050 d3 b8 81 3f 87 c4 0a 3f a3 fb 75 3e c7 4f 6a 3e
       1.0134529 0.54206127 0.24021773 0.22881995

bn0.bias f4 [24]
000000 a0 22 48 bb 3a 68 a0 39 ea 56 e5 b9 99 b5 ed 3a
       -0.0030538216 0.00030595233 -0.0004374304 0.0018135785
000010 b9 74 b7 bb 24 00 f1 ba 52 af 4a 39 e7 d8 03 3b
       -0.005598631 -0.0018386883 0.00019329533 0.0020118298
000020 d5 6c 3c ba 7c 87 0c b9 48 9c ea 3a 00 6c 72 39
       -0.0007187848 -0.00013401912 0.0017899359 0.00023119152
000030 bf 52 7c ba b0 5a 77 b9 1e d7 b3 ba 27 96 71 3a
       -0.0009625367 -0.0002358954 -0.0013720726 0.0009215795
000040 3b 43 ab 3a df 57 43 ba 50 7e 57 3a a5 80 48 bb
       0.0013066301 -0.00074517535 0.0008220421 -0.0030594256
000050 c1 44 4f ba a3 5c 46 3b 18 ff f6 ba e7 16 94 ba
       -0.00079066685 0.0030267618 -0.0018844334 -0.0011298329

bn0.running_mean f4 [24]
000000 71 e1 ae c0 28 f2 71 be b3 b8 e0 40 54 d3 f0 3d
       -5.4650197 -0.23627532 7.0225463 0.11759058
000010 2d 48 97 3d 90 f8 81 40 b3 b8 e0 40 54 d3 f0 3d
       0.07386813 4.061592 7.0225463 0.11759058
000020 43 ea b0 c0 e3 43 65 be 91 1d ea 40 87 5e bc 3d
       -5.5285964 -0.22389178 7.316109 0.09197717
000030 fb 19 a5 3d 0e 62 82 40 91 1d ea 40 87 5e bc 3d
       0.08061596 4.0744696 7.316109 0.09197717
000040 5a 62 b1 c0 80 16 64 be 1c 23 03 41 fb 09 f1 3b
       -5.543256 -0.22274208 8.196072 0.007355926
000050 e4 fd 74 3d 38 95 82 40 1c 23 03 41 fb 09 f1 3b
       0.05981244 4.080715 8.196072 0.007355926

bn0.running_var f4 [24]
000000 4f dc 89 41 52 d8 57 3f 53 bd 13 44 85 a8 8e 41
       17.232573 0.84314454 590.9582 17.832285
000010 3b 43 d4 41 88 00 0b 40 53 bd 13 44 85 a8 8e 41
       26.532827 2.1719074 590.9582 17.832285
000020 f4 e9 8b 41 a1 cb 55 3f ae e7 10 44 aa 7a 8c 41
       17.489235 0.8351384 579.62 17.559895
000030 0c 2e d8 41 f7 f9 09 40 ae e7 10 44 aa 7a 8c 41
       27.022484 2.1558816 579.62 17.559895
000040 71 9e 8c 41 d4 63 58 3f 51 42 0d 44 d7 be 8b 41
       17.577364 0.84527326 565.0362 17.468184
000050 17 c0 de 41 f0 22 0d 40 51 42 0d 44 d7 be 8b 41
       27.843794 2.2052574 565.0362 17.468184

fc1.weight f4 [400, 24]
000000 87 17 21 3c 5e 42 95 3c 61 a1 89 3c 94 19 00 bd
       0.0098322695 0.018220123 0.016800584 -0.031274393
000010 c7 a2 0f 3e 22 ca f3 3c a0 9c b2 3c 11 73 f3 bd
       0.14026938 0.02975947 0.0218032 -0.118871816
000020 ea bd 4b 3d ad 4c af 3c 35 d1 91 bb fd b4 b3 bd
       0.049741663 0.021398867 -0.0044499882 -0.08774755
000030 71 3e 5b 3d ce db 64 bc c5 7c 52 bd 07 d7 6e bd
       0.053526346 -0.013968421 -0.05138852 -0.058310535
000040 f2 bc 9d 3c a0 85 50 3d 23 a1 3f 3b 9a ed b2 bc
       0.019255135 0.050908685 0.0029240332 -0.021841813
000050 6a b7 11 be f6 de e6 bc 0f f2 2a bd 5a 83 20 bd
       -0.14230123 -0.028182488 -0.04173475 -0.039187767
000060 98 5b bb bd 4b 1b 0a 3d 41 96 ab bd c4 f2 3a 3c
       -0.091483295 0.033717435 -0.08378268 0.011410419
000070 ef 1c 46 bc 1d 69 24 3e ac e9 23 bd 3e 2a e8 3b
       -0.012091859 0.16055723 -0.04001777 0.007085114
000080 47 45 57 bd 18 2c 1b 3d 53 f1 b8 3c 06 7a ad b9
       -0.052556302 0.037883848 0.02257601 -0.00033088046
000090 15 d9 82 3d 3e 31 ba bc 3a 20 97 3d ba b2 92 bd
       0.06389061 -0.022728559 0.073791936 -0.07162996
0000a0 7f d0 ac bc 95 52 be bb b9 43 d2 3c e5 1c 8e 3d
       -0.021095512 -0.0058081844 0.025667058 0.06939105
0000b0 f2 5c 15 3d f2 76 3e be a3 4b 6e bd 56 52 15 3d
       0.036465593 -0.18600062 -0.0581776 0.036455475
0000c0 14 f7 e7 3b 7d c2 9e 3b c7 cb db bd e8 37 70 bd
       0.0070790146 0.004844962 -0.10732227 -0.058647066
0000d0 7a b4 8e 3c bc 32 4f bd 58 04 93 bd 77 ad 28 bd
       0.017420042 -0.050585493 -0.07178563 -0.041181054
0000e0 71 08 96 bc a2 76 b4 3c 13 56 63 3c c1 34 4b bd
       -0.018314572 0.022029225 0.013875502 -0.049610857
0000f0 af 5b 90 bc 39 10 a8 3d 80 ca 02 bd 10 04 bb bd
       -0.017621843 0.08206219 -0.0319314 -0.09131634
000100 c0 f6 23 3b 35 c4 00 bd 44 79 5d bd c9 0e bb bc
       0.00250189 -0.031437118 -0.054070726 -0.022834199
000110 67 11 82 3d e5 7b 9d 3e ca 48 38 bd 20 d8 c8 3b
       0.063509755 0.30758587 -0.044991292 0.0061292797
000120 43 9a c0 bd 3e 94 8c 3d e5 ad bd bd 82 47 3e bd
       -0.09404423 0.068642125 -0.092616834 -0.046454914
000130 03 a4 09 bd 2b 5f 8c bd 1c 77 b1 bd df 49 bc bd
       -0.03360368 -0.06854089 -0.086652964 -0.09193777
000140 f5 0b 5c bd d3 46 20 3d 1e 95 e0 bb cd 09 98 3c
       -0.05372234 0.039130043 -0.0068537137 0.01855936
000150 34 2d e4 3b 60 6d c3 bc 2e 96 4a 3d 1c 6e 92 bd
       0.0069633964 -0.023855865 0.04945963 -0.07149908
000160 a9 27 e9 3c b4 29 f8 3d 28 12 3a 3e 16 8d 53 3d
       0.028461294 0.12117329 0.18170989 0.051648222
000170 fb 8e b3 3c 18 2a 9a bd 59 45 fa 3d 74 f7 66 3d
       0.021918764 -0.0752756 0.12220258 0.056388333
000180 f8 17 e7 bc 9c f5 ac 3c 15 a9 db bd 64 78 2a 3c
       -0.028209671 0.02111321 -0.10725609 0.01040468
000190 9e 59 2c 3d dc b6 36 3d 34 39 75 bd 7f 04 fc 3c
       0.042077653 0.044607982 -0.059869006 0.030763863
0001a0 1b be 6e bd 2f bf 6c 3d f4 2e c9 bd 69 04 ad 3d
       -0.058286767 0.057799514 -0.09823409 0.08448107
0001b0 b4 fb c5 3b 66 b3 fb 3d 5a 8a e4 bd 1a 90 0a 3d
       0.0060419682 0.12290077 -0.11159201 0.033828832
0001c0 4b a7 05 be 35 b0 8b bb 5c 91 13 bd 70 53 a8 3d
       -0.13052098 -0.004262949 -0.036027297 0.082190394
0001d0 c1 87 3b bd a5 b8 ab 3d ed f5 8b bd 2a d3 07 3e
       -0.045783762 0.083848275 -0.06834016 0.13264146
0001e0 4b b0 96 bb 80 84 4d bc 89 31 43 3e 10 6e f9 bd
       -0.0045986525 -0.0125437975 0.19061865 -0.12179196
0001f0 e0 de 9e bc 61 d5 36 3d 87 4d 3b 3e 0e 3e f7 bc
       -0.019393384 0.044637088 0.18291293 -0.030180957
000200 c7 f4 af 3b 66 38 e3 3c 96 2d 09 be ee b3 84 3d
       0.005369756 0.027736854 -0.13396296 0.06479631
000210 63 06 27 bd 12 17 4b bd 62 11 df bd fc 6d 87 3d
       -0.040777575 -0.04958255 -0.108919874 0.06612775
000220 d2 6f 51 3d 76 06 46 bd e9 d7 21 3d d5 38 76 b9
       0.05113203 -0.048346005 0.03951255 -0.0002348156
000230 bf 19 53 bc 2b a7 da bd 4d f8 66 3d 91 49 c4 bc
       -0.012884556 -0.10676416 0.05638914 -0.02396086
000240 09 be f2 bc e2 39 99 bc 8c 08 81 3d 23 6a 78 3c
       -0.029631631 -0.018704358 0.06300458 0.015162024
000250 e3 cf 9a 3c 03 1e b0 bc 3b e6 0c 3d 87 88 ae 3d
       0.018897956 -0.021498686 0.034399252 0.08522134
000260 02 d5 a7 3a 8a 47 6e bd 34 6e 4e 3d 0d d1 9c 3d
       0.001280457 -0.058173694 0.050398067 0.07657061
000270 36 00 69 3b 35 5f c9 bb 39 bf c6 3d 1e f6 a4 3d
       0.0035553104 -0.0061453828 0.097044416 0.08054756
000280 26 a8 c2 3d 58 4d b2 bd da e3 4c 3d 6b b3 75 3e
       0.09504728 -0.087061584 0.050021984 0.23994224
000290 98 7a e6 bc 40 a2 a0 bc 1b 59 2c ba ed 32 35 3e
       -0.02813463 -0.019608617 -0.0006574557 0.17695208
0002a0 05 d2 83 3c db 9e 84 3d d5 43 20 3e 35 56 82 bc
       0.016091356 0.06475612 0.15650876 -0.015910247
0002b0 13 5b ef 3d 7f 96 7d 3d 30 76 ac 3d f6 ed b0 bc
       0.11687293 0.061911102 0.0842098 -0.021597844
0002c0 07 57 cb 3c bd 5e c3 3d 7a fc f0 3c e4 55 57 3d
       0.024821771 0.09539554 0.029417265 0.052572146
0002d0 e3 38 84 3d e2 64 12 3c ea 94 63 3d e6 95 21 3d
       0.06456163 0.008935185 0.055561937 0.039449595
0002e0 e4 3b 5b bc 0a 90 d6 3d d3 bf 45 bd a8 66 66 ba
       -0.013380978 0.10476692 -0.04827864 -0.00087891007
0002f0 d0 1a 91 bd 15 92 fe bd 10 5f c8 bc 97 ca e8 bc
       -0.07085192 -0.12430207 -0.024459392 -0.028416915
000300 9f be 6f be 88 1f 84 3d f5 fb a0 3d 66 0a a7 bd
       -0.2341256 0.064513266 0.07860557 -0.0815628
000310 a5 19 1e 3d a5 7f a3 3c 82 0e 42 3d 92 14 85 bd
       0.038598675 0.019958327 0.047377117 -0.06498064
000320 48 fb 18 be ab 0d 2a bd 58 76 39 3e f3 f3 29 bd
       -0.14939606 -0.04151694 0.18111551 -0.041492414
000330 b9 52 68 3d 7f 96 4c bd 88 e9 32 3e 0c dc c2 bc
       0.056719515 -0.04994821 0.17471898 -0.023786567
000340 38 5e 5d bd af f1 bd bc a0 17 65 3d ea ca 4e 3c
       -0.054044932 -0.023186533 0.055930734 0.012621621
000350 6f a0 04 bd 6b d1 a1 bc a4 3b a4 3c 50 d4 f6 bc
       -0.032379564 -0.019753179 0.02004797 -0.030130535
000360 af d5 12 be 4c 74 8f 3c aa 22 ef bc e0 e3 20 be
       -0.14339326 0.01751151 -0.029191334 -0.15711927
000370 fb 31 63 3d 9f 69 a2 3d 51 1d b5 3c f3 9c 1a be
       0.055467587 0.07930302 0.022108706 -0.15098934
000380 d5 f3 8d bd d7 f5 69 3c 44 69 c7 3d 57 38 40 3d
       -0.06931273 0.014279804 0.09736875 0.04692873
000390 f6 b2 36 3d 8c 6d 7e 3d 6f 05 ce 3d b3 f2 5c 3d
       0.044604264 0.06211619 0.1005963 0.053942394
0003a0 0d 07 2e bc 54 af 98 3c 76 9d 1b 3d 39 fd 7e 3d
       -0.010621798 0.01863829 0.037991963 0.06225321
0003b0 21 86 3f 3d b0 ed 00 3d f0 23 b9 3d 7e f1 88 3d
       0.046758775 0.031476676 0.09040058 0.06686686
0003c0 a6 7e 8a 3d a8 c5 55 3c fb ce 21 3c 43 a0 a7 3c
       0.067624375 0.013047613 0.009876008 0.02046216
0003d0 aa 11 8d bc 17 c8 1a 3e 46 d9 ca 3b ed 04 c3 3c
       -0.017220337 0.1511539 0.006190452 0.02380606
0003e0 e0 47 29 3d a9 b3 8d bb a1 b7 ea bc 2d c7 29 3b
       0.04132831 -0.0043243957 -0.028652014 0.0025906072
0003f0 46 c4 ab bd b5 b0 bc bd a5 68 92 bc 55 4b 66 3c
       -0.083870456 -0.09213392 -0.017872164 0.0140560465

fc1.bias f4 [400]
000000 cf 09 47 3e 1d 23 06 be 21 7d 77 bd b6 5f 6b bd
       0.19437335 -0.13099332 -0.060422067 -0.057464324
000010 8d 22 1d be 00 c1 4f 3d 58 23 f1 bd 39 dd 95 bd
       -0.15345211 0.05072117 -0.117743194 -0.073175855
000020 af 88 bf bc 38 16 c8 bc cb 84 13 3e cc 79 20 3e
       -0.023380606 -0.024424657 0.14406125 0.15671462
000030 b5 14 74 3c 22 f6 01 3b f5 fc 06 3e 4b 3e 29 3e
       0.014897515 0.0019830544 0.13182433 0.16527669
000040 38 d3 22 be 0c f6 28 3e 7f e0 0b be 67 22 2a be
       -0.15900886 0.1650011 -0.13659857 -0.16614686
000050 4a 4b 02 be 4c 9f 15 3e 03 fd 84 bd fd a0 3b 3e
       -0.12724033 0.14611548 -0.06493571 0.18323131
000060 25 51 39 3e 33 93 9b 3b c1 e7 86 bd 5c 13 c8 3d
       0.1809736 0.004747772 -0.06587172 0.097693175
000070 03 68 73 bd 1a 06 4f 3e 13 8a da bd 17 47 4a be
       -0.059425365 0.20217171 -0.10670867 -0.19753681
000080 26 40 7c 3d d7 b8 d3 3d c5 79 06 be 39 7a 26 3c
       0.061584614 0.1033799 -0.13132389 0.010160976
000090 e1 e1 3c be 4f ba 66 3d 8d 79 e8 3d f5 5c 47 be
       -0.18445541 0.05633002 0.11351309 -0.19469054
0000a0 53 ca a2 3d 12 ab c8 bd 98 fa d8 3d 2f 54 ea bd
       0.079487465 -0.09798254 0.10594672 -0.11441838
0000b0 e7 15 2c be 05 a5 3f 3e e6 16 83 3d f4 38 68 3d
       -0.1680523 0.18715294 0.06400852 0.05669494
0000c0 31 c6 f1 3c e8 96 18 be 59 b3 31 be c5 79 f9 3d
       0.02951345 -0.14901316 -0.17353572 0.12181429
0000d0 67 cb 95 bd c7 2a 0e bd ae 2d 43 3e c8 13 c0 bd
       -0.073141865 -0.034708764 0.19060394 -0.09378773
0000e0 e6 88 09 bc f9 45 d9 3d e8 f8 63 bd b0 0d e9 bd
       -0.008394456 0.10609049 -0.055657297 -0.11379564
0000f0 0c 20 3c be fd bb f8 bd 29 4c 15 3e ab 4b 27 3e
       -0.183716 -0.12145231 0.14579834 0.16337459
000100 5a c2 ce 3d 66 d1 0c 3e d2 da 1b 3e 41 01 39 3e
       0.10095663 0.13751754 0.15220192 0.18066885
000110 cb 51 cb bd c0 1e 27 3e 45 dd 8d 3c 59 d6 92 3d
       -0.0992771 0.16320324 0.017317424 0.0716979
000120 72 ff 30 3c 49 8c f7 3c c5 51 8f bd 5f 8d 2e be
       0.01080309 0.03021826 -0.06998018 -0.17046116
000130 06 10 44 3d f6 59 84 bd 4e 7b 27 3e d9 c3 45 3e
       0.047866844 -0.06462471 0.16355631 0.19312991
000140 af ef 0e be 94 97 20 3d 5e b1 bc 3d bb fa 78 bd
       -0.1395862 0.039207056 0.092135176 -0.06078599
000150 cf d6 4b bd a1 1d 25 bd 06 ba 1a 3e fc 76 8f 3c
       -0.049765404 -0.04031146 0.15110025 0.01751279
000160 53 6f 26 3e 57 e5 16 3e 18 e2 4c be c1 ea 45 3e
       0.16253404 0.14735924 -0.20008123 0.19327833
000170 8f b5 4c 3d 8b 95 a7 3c 08 5e 37 3e 4b 59 a3 3d
       0.049977835 0.02045705 0.17906964 0.07976016
000180 7e 2d 01 3d 9c 50 1f bd c3 bc 83 bd 2c 6d 10 be
       0.031537525 -0.038895234 -0.06432488 -0.14104146
000190 5d b3 97 bd 17 78 0c bc 50 94 09 3e 34 55 2e 3e
       -0.07407258 -0.0085735535 0.13435483 0.1702469
0001a0 4e b8 83 bd 6c 73 f0 3c 06 63 23 3e 10 c1 0f be
       -0.06431638 0.029351912 0.15955743 -0.14038491
0001b0 2b 51 05 3e c6 6f e9 3d 7e 72 14 3d 61 46 1b 3e
       0.13019244 0.11398272 0.036242 0.15163566
0001c0 60 32 20 3e 58 a9 e1 3d a7 85 a1 3d 8d af aa bd
       0.15644217 0.11018628 0.0788682 -0.08334265
0001d0 84 19 97 3d 08 d1 02 3d 3f 07 ef bc 71 e9 ce bd
       0.073779136 0.03193763 -0.02917826 -0.10103119
0001e0 8c f0 e2 3d 3d 21 d8 bd 16 91 d3 3d 59 c1 db 3c
       0.11081037 -0.10553215 0.10330407 0.026825594
0001f0 0a e1 ea 3d af 8b 4c be 57 01 a3 3d 29 74 3d 3e
       0.11468704 -0.1997516 0.0795924 0.18501343
000200 86 60 fd bd 32 ab 24 be e6 de 48 3e 87 a0 de bd
       -0.12371926 -0.16080931 0.19616279 -0.10870462
000210 84 38 c7 bc c6 cc dc 3d 5a c0 1f 3d 57 d4 06 3e
       -0.024318941 0.10781245 0.0390018 0.13166939
000220 55 7e 32 3e ce 7d 9b 3d 9c 1b d4 bd fa 95 ac 3d
       0.17431004 0.07592355 -0.103568286 0.08427043
000230 28 4d 5c 3d b2 d2 e1 bc 8f c3 00 3e 1b 5d 9c bd
       0.05378452 -0.027566288 0.125746 -0.07634946
000240 fa 15 40 be d6 62 97 bd 22 10 20 3d 92 9f e4 bb
       -0.18758383 -0.07391898 0.039077885 -0.00697703
000250 54 5c 84 bc 40 0c 98 3d f6 45 1c be 69 e8 27 3e
       -0.016157307 0.074242115 -0.15261063 0.16397251
000260 44 52 1f 3e 00 de 3e 3e 04 c1 5e bd 99 ca 14 3e
       0.15558726 0.18639374 -0.054383293 0.1453041
000270 07 e1 98 3d 8c 3e 5e 3d 34 91 ec 3d c9 fb 99 bd
       0.074647956 0.054258868 0.11551133 -0.07518727
000280 40 57 be bd 2d 9c 68 3d f5 c2 1b 3e eb 70 ae 3d
       -0.09293985 0.056789566 0.15211089 0.08517631
000290 2f f4 a7 bd dc 45 04 3e 53 df ef 3d a2 ab 60 3d
       -0.08200871 0.12917274 0.117125176 0.05485118
0002a0 78 a4 cf 3d c8 6c 7f bd e0 aa ec bd 58 b2 8b 3c
       0.10138792 -0.0623596 -0.11556029 0.017052814
0002b0 4a 56 84 3c f2 88 47 3d 30 93 9b bc 21 cd 6e 3d
       0.016154427 0.048714586 -0.018991083 0.058301095
0002c0 33 f8 aa 3d 0c 3a 4a bd 95 10 be bd e9 a4 50 3e
       0.083481215 -0.049371764 -0.092805065 0.20375408
0002d0 9c d8 dc 3d 2c 15 64 bd 70 4d 3f be 78 1a 7c bd
       0.107835025 -0.055684254 -0.18681884 -0.06154868
0002e0 0c b8 12 be 0b 19 db 3c f8 e8 ff 3d ad 8d 44 be
       -0.14328021 0.02674534 0.12495607 -0.1919467
0002f0 51 63 26 be c5 3e 4e be 5c 3f b2 3d 1f 59 1f 3e
       -0.16248824 -0.20141132 0.08703491 0.15561341
000300 b2 9f e4 bd 15 e8 85 bd f7 54 b5 bd a9 6d b7 3d
       -0.11163272 -0.06538407 -0.088540964 0.08956463
000310 08 9c 97 bc 5d 8d 3d 3e 32 02 97 3d 99 ec 93 bd
       -0.018507019 0.18510957 0.073734656 -0.07222862
000320 bb a3 e7 3d 82 3c 9f 3d 0c 96 36 be 8d 8f 49 3e
       0.11310526 0.07775213 -0.17830676 0.19683667
000330 73 36 c8 bc 59 2e f8 bd a7 5f af 3d eb 6c 3e 3e
       -0.024440026 -0.12118215 0.08563166 0.18596236
000340 c3 89 fe bc 9e 1b 5f 3e c3 c0 f7 3d 9e 3c 90 bd
       -0.03107155 0.21787879 0.12097313 -0.07042812
000350 1f cd 11 3e 35 e9 96 bd c4 03 e9 3d b4 67 8a 3d
       0.14238404 -0.073686995 0.11377671 0.06758061
000360 d8 6e 74 3d 19 08 50 3e 27 64 09 3c e6 54 2f 3e
       0.05967602 0.20315589 0.008385695 0.1712223
000370 81 0e 41 3d 89 6c 82 bd 67 ad 06 3e 05 9a 3c be
       0.047132973 -0.06368358 0.13152085 -0.18418129
000380 d4 73 0b bc a7 7e b7 bd 17 3d 32 bd 8e 4f 06 3e
       -0.008511502 -0.08959704 -0.04351529 0.13116285
000390 b3 6d 3a 3e cb b3 e9 3d a3 98 9a 3d 37 e3 b0 3c
       0.1820591 0.11411246 0.075486444 0.02159272
0003a0 47 6b 28 be 70 e0 5a 3d 89 8f d0 3d 79 a9 08 be
       -0.16447173 0.053436697 0.10183627 -0.13345899
0003b0 3f 1e 46 3e 64 c3 8b bc 93 7a 66 bc b0 f5 b7 3b
       0.19347475 -0.017060943 -0.01406731 0.005614005
0003c0 f5 51 46 3e 53 93 2d 3e 98 17 44 3e e8 22 d7 3d
       0.19367202 0.16950731 0.19149625 0.10504705
0003d0 16 5e 7b 3c 12 de 7b bd df 4c db 3d f7 f9 81 3d
       0.015342256 -0.06149108 0.107080214 0.06346505
0003e0 8b ea d8 3b a7 31 e7 bd a8 e0 d0 3d 31 71 d6 bd
       0.0066197566 -0.11288767 0.101991 -0.10470808
0003f0 53 38 45 be fe f0 d9 bd 43 20 07 3e 46 35 32 3d
       -0.19259767 -0.10641669 0.131959 0.043507837

bn1.weight f4 [400]
000000 e8 94 79 3f 91 76 86 3f f3 62 38 3f 10 62 d6 3e
       0.9749284 1.0504934 0.72025985 0.4187169
000010 41 a4 10 3f 09 16 b1 3e 1f e3 68 3e fc 3e 15 3f
       0.5650063 0.34587124 0.2274289 0.5829923
000020 29 c0 ea 3e f7 88 65 3e 96 f7 80 3f 42 46 25 3e
       0.45849732 0.22415529 1.0075557 0.16140082
000030 8c 4c 28 3e a4 3e 84 3f 81 34 4b 3f b3 6e 25 3f
       0.1643545 1.0331616 0.7937699 0.6462204
000040 94 61 51 3f 27 d2 6b 3f d5 1e 6f 3f 80 6d 4b 3f
       0.8178952 0.9211754 0.9340642 0.7946396
000050 9e 36 ee 3e d5 14 b6 3e 94 8a 65 3f 44 f0 2b 3f
       0.46526045 0.3556277 0.8966458 0.6716349
000060 0a 32 43 3f b5 3b 68 3e ef 12 25 3f c2 6a 03 3f
       0.7624823 0.22679026 0.64482015 0.51334774
000070 df 8c ca 3e e5 29 02 3e 3e 93 4b 3f 9f 01 80 3e
       0.395606 0.12711294 0.7952155 0.25001237
000080 fd 66 66 3f 70 f9 23 3f 9b 3a cb 3e 3f d2 ba 3e
       0.900009 0.64052486 0.3969315 0.3648853
000090 28 81 74 3f 29 b2 7f 3f ed b9 ae 3e e8 3e 61 3f
       0.95509577 0.99881226 0.34126225 0.8798661
0000a0 56 81 4f 3f 36 78 14 3f b6 d3 fb 3e bf 06 8f 3e
       0.81056726 0.5799593 0.4918496 0.27934834
0000b0 0d 75 eb 3e 7d a9 37 3f 8f c4 63 3f 7a 9c 3e 3f
       0.4598774 0.71742994 0.889718 0.74457514
0000c0 cd 37 57 3f b0 ee 3b 3f 45 52 9a 3f 81 29 a8 3e
       0.8406952 0.73411083 1.2056357 0.32844165
0000d0 32 95 7b 3f 09 a7 02 3f 1d a8 20 3f 56 c5 28 3f
       0.9827453 0.51036125 0.6275652 0.6592611
0000e0 63 17 3d 3f 46 81 41 3f 14 a7 42 3e c7 be ae 3e
       0.7386381 0.7558788 0.19009048 0.34129927
0000f0 9a ab 48 3f 5e 24 37 3f b9 e0 d2 3e 4c 28 c9 3e
       0.78386843 0.71539867 0.41187075 0.39288557
000100 25 e4 05 3f ff 38 07 3f 19 ce 06 3f f5 dd 4b 3f
       0.52301246 0.52821344 0.5265823 0.79635555
000110 b2 6f 34 3f bc 67 df 3e d7 38 17 3f 7a db 51 3f
       0.70482934 0.4363383 0.59071106 0.8197552
000120 8b 3d f5 3e 66 01 68 3f 11 5c 03 3e 27 ef ec 3e
       0.47898516 0.90627134 0.1282809 0.4627621
000130 82 bc 5a 3f 42 11 4c 3f 93 dc c3 3e c7 2c 5d 3f
       0.8544389 0.79713833 0.38254222 0.8639645
000140 5f 86 54 3f 57 b1 37 3f e5 93 2c 3f 30 66 b3 3e
       0.83017534 0.71754974 0.6741317 0.350389
000150 13 19 2d 3f af e6 be 3e b0 12 89 3f 66 ea 7b 3f
       0.67616385 0.37285373 1.0708828 0.9840454
000160 6c b0 6a 3f c2 b1 20 3f a2 03 7c 3f d2 82 00 3f
       0.9167545 0.62771237 0.98443043 0.50199616
000170 ca 5d 40 3f 17 f9 73 3f 69 a9 2e 3f 79 23 eb 3e
       0.7514311 0.95301956 0.6822725 0.459255
000180 dc b0 12 3f a8 cf 4d 3f df 87 2b 3f c4 14 90 3f
       0.57301116 0.80394983 0.670042 1.1256337
000190 87 7a 6f 3f ef 99 59 3e e6 2b 68 3e cf 03 76 3f
       0.93546337 0.21250127 0.22672996 0.9609956
0001a0 6c 0e 9f 3f 46 bc 59 3f 88 73 48 3f ca 2a 48 3f
       1.2426276 0.8505291 0.78301287 0.7819029
0001b0 86 02 cd 3e 5d 97 be 3e 95 2a 5a 3f 5a d1 74 3e
       0.40040988 0.37224856 0.85221225 0.23907986
0001c0 e4 48 59 3f f6 6b 83 3f 8e 09 d0 3e aa a4 da 3e
       0.8487685 1.0267322 0.4063229 0.42703754
0001d0 c0 45 82 3e 7c ce 40 3e 04 19 4d 3f 06 8a 3e 3f
       0.2544384 0.18828768 0.80116296 0.7442936
0001e0 41 54 8a 3f 5e 3a 29 3e 6f fc 3c 3f 53 21 a8 3e
       1.0806962 0.16526172 0.73822683 0.32837924
0001f0 cd e3 b3 3e c4 fc fe 3e 36 d1 26 3f d5 28 11 3f
       0.35134736 0.4980222 0.6516298 0.5670293
000200 5d 4e 04 3f de b3 91 3f d1 9c 63 3e 4d 25 ed 3e
       0.5168207 1.1383016 0.2222779 0.4631752
000210 41 3f 79 3f 23 58 9c 3e 9c 3e 06 3f 0f 5b 4b 3f
       0.9736214 0.30535993 0.52439284 0.7943582
000220 c4 d0 63 3f af c3 39 3f 7e 79 41 3f 24 3b 64 3f
       0.88990426 0.72564214 0.7557601 0.8915274
000230 aa 55 81 3f 56 4d 24 3f 65 56 54 3f d3 ff 31 3f
       1.0104268 0.64180505 0.8294433 0.6953098
000240 d7 71 59 3e 53 4f 1f 3f e7 b1 d6 3e b8 90 c1 3e
       0.21234833 0.62230414 0.41932604 0.37805724
000250 78 95 52 3e 8f 59 2e 3f f4 4b 78 3e b7 ac 30 3e
       0.2056483 0.68105406 0.24247724 0.17253385
000260 16 00 cd 3e d2 9b 11 3f 46 f1 40 3f a9 8a 3c 3f
       0.40039128 0.5687839 0.75368154 0.7364908
000270 73 7e d3 3e 87 0d 71 3e 2b d5 4e 3f 8a c0 97 3e
       0.4130741 0.23540317 0.8079402 0.29639083
000280 a1 f1 1d 3e 51 02 06 3f d1 31 89 3e 15 9d 22 3f
       0.15424205 0.52347285 0.2679582 0.6352094
000290 72 67 79 3f 71 4b 5e 3f ba 36 80 3e 49 1e 78 3f
       0.9742347 0.86833864 0.25041753 0.9692121
0002a0 d3 72 8a 3f 3b af 47 3f 9d 1e 9c 3e 67 90 45 3f
       1.0816292 0.78001755 0.30492106 0.77173465
0002b0 ad a2 db 3e c7 7b 5c 3f a6 3c 22 3f d7 41 c5 3e
       0.4289755 0.8612637 0.6337379 0.38526794
0002c0 2b bf 10 3f 1d 80 d9 3e 43 d5 6a 3f f6 4d 72 3f
       0.565417 0.42480555 0.9173166 0.9465021
0002d0 c5 0a 4b 3e 81 07 0c 3f b0 2e 51 3f c8 41 54 3f
       0.19828327 0.5469895 0.81711864 0.82912874
0002e0 43 46 6c 3f 7d 21 af 3e 2a 98 49 3f ba 95 8e 3e
       0.9229471 0.34205237 0.7874781 0.27848607
0002f0 1d b6 a2 3e a2 68 1c 3f 8e 1e d4 3e 55 8a 7a 3f
       0.31779566 0.61097157 0.4142956 0.9786733
000300 3d 07 bb 3e 28 e2 56 3f f6 aa 30 3f 84 f3 60 3f
       0.3652896 0.8393884 0.69010866 0.87871575
000310 ac 73 7c 3e 6c 0b 76 3f e5 d1 cb 3e 01 4b 03 3f
       0.246535 0.9611118 0.39808574 0.5128632
000320 62 f7 5b be 66 f3 4f 3f 2e 0e 4f 3e 7a 43 51 3f
       -0.21481088 0.8123077 0.20220253 0.81743586
000330 ee 00 f1 3e 61 a7 da 3e 7e 13 77 3f e9 46 db 3e
       0.47071022 0.42705825 0.9651412 0.42827538
000340 df fa 20 3f 07 41 b4 3f a7 57 0c 3f b9 5f 18 3f
       0.628828 1.4082345 0.54821247 0.5952106
000350 fc be ae 3e ae 31 34 3f 49 85 82 3e 6e d7 95 3e
       0.34130085 0.70388305 0.25492314 0.29265922
000360 dd 12 ef 3e ae 00 a7 3e 64 fd 3e 3f 46 8f c4 3e
       0.4669408 0.32617706 0.74605393 0.3839056
000370 87 8d 76 3e ad 70 2b 3f a2 bf 91 3e ad cb e8 3e
       0.24077426 0.66968805 0.28466517 0.45467892
000380 65 18 fc 3e c0 d9 8e 3f 01 62 80 3f 81 cd 23 3f
       0.49237362 1.1160202 1.0029908 0.6398545
000390 f7 ca 4a 3f d8 e5 31 3f 39 5c 2c 3f 89 c9 78 3f
       0.7921595 0.6949134 0.6732822 0.9718252
0003a0 76 07 0e 3f 6b dd 4d 3f c9 67 5e 3f 8f 79 9f 3e
       0.55480134 0.8041598 0.86877114 0.3114743
0003b0 36 32 85 3f fd 88 58 3f 8c 10 e5 3e 20 64 a7 3e
       1.0405948 0.8458403 0.44739187 0.32693577
0003c0 05 dd 59 3f 14 78 cf 3e dd 32 03 3f ed 6d 2b 3f
       0.85102874 0.405213 0.51249486 0.6696461
0003d0 28 48 2c 3e 3f d7 25 3f 55 72 54 3f b0 18 d7 3e
       0.168244 0.64781564 0.82986957 0.42011023
0003e0 8d 2b 67 3f 68 fc 0e 3f 32 82 87 3e 99 c7 74 3f
       0.9030083 0.5585389 0.2646652 0.9561706
0003f0 37 4c 0d 3f fd 74 60 3f b1 47 ed 3e 7b 88 52 3f
       0.5519442 0.8767851 0.4634376 0.822395

bn1.bias f4 [400]
000000 55 af f8 bb bd 2a 92 3d a0 23 84 bd 7f 34 86 3d
       -0.0075892606 0.07137058 -0.064521074 0.065529816
000010 70 f4 17 bd 2e 1a 17 bd 07 a7 99 bd a3 98 1c 3d
       -0.03709835 -0.0368902 -0.07502561 0.038231503
000020 11 52 0a bd 2a 81 aa 3c fa 9d 17 3d 77 1f 8a bc
       -0.03376967 0.020813543 0.037015893 -0.016860707
000030 ee eb a9 3a 4e ad 0b bd f1 00 16 bd 00 b4 7f bd
       0.0012963989 -0.034100823 -0.03662199 -0.06242752
000040 d7 10 2f 3d ff 12 bb bd 43 75 13 bd 55 eb 80 bd
       0.04274067 -0.091344826 -0.0360005 -0.06294886
000050 86 e9 6c be 79 3d 38 bd d6 30 c1 bd 2c c3 d5 bd
       -0.23135957 -0.0449805 -0.09433143 -0.10437617
000060 01 cb a2 3d bd 92 2b bc 1d 78 ad bd 1a 19 92 bc
       0.07948876 -0.010471997 -0.084701754 -0.017834235
000070 e3 a7 37 bd 8c 0a 09 be 05 a3 bc bd 54 25 1f be
       -0.044837844 -0.1338293 -0.09210781 -0.15541583
000080 0e 8b 79 bd a5 1c 18 be 8f 3d 84 3c e3 7c 32 be
       -0.06092363 -0.14854677 0.016142635 -0.17430453
000090 2a 66 21 be 52 b1 7e 3c be fd 69 3d 1d 43 33 be
       -0.15761629 0.015545206 0.057126753 -0.1750607
0000a0 e7 0e 01 bd 92 b5 21 3d 67 9e 90 3b a6 8a 65 bd
       -0.031508353 0.0394798 0.0044134143 -0.05604043
0000b0 5b 90 e9 bd f1 44 05 bd 3f 2e 15 bc 2e eb 38 bd
       -0.11404487 -0.03253645 -0.009105264 -0.04514616
0000c0 d1 2d d3 bd 53 0a f9 ba 73 4f 8b 3d 58 76 b3 bd
       -0.10311473 -0.0019000269 0.06802263 -0.08762807
0000d0 43 47 60 bb a0 ed b0 bd d5 d1 08 bd d9 3b ae bc
       -0.0034222163 -0.08639073 -0.033403236 -0.021268772
0000e0 8d c8 85 bc d7 74 6b bd eb cb 6e 3c f2 1e 4b bd
       -0.016330982 -0.057484474 0.014574985 -0.04959006
0000f0 fb 1e 4c bd 5d 45 56 3d 74 77 f8 bd 0e 87 13 be
       -0.049834233 0.052312244 -0.12132159 -0.14406988
000100 61 35 62 bd fb ea 96 bc 17 99 10 3d 8a 67 b6 bc
       -0.055226687 -0.018422594 0.035302248 -0.022266168
000110 27 b4 24 be d0 e0 8b bd 7f 51 58 bc 81 65 1c bd
       -0.16084348 -0.06829989 -0.013203024 -0.03818274
000120 83 bb ad bd 9b 6f ee bd ac 94 e9 bd 3f e1 43 bc
       -0.08483031 -0.11642381 -0.1140531 -0.011955558
000130 49 b1 7c bc d1 56 0f bd 6c b3 8c 3d b0 05 03 be
       -0.015423127 -0.034994904 0.068701595 -0.12795138
000140 04 cd d6 bd b1 aa b2 bd 93 02 d0 bc 74 dc 18 bd
       -0.104883224 -0.08723963 -0.025391852 -0.037319615
000150 51 d7 86 bd 2d 34 a6 bd 5e 38 9f bd ff 84 3f be
       -0.06584037 -0.081154205 -0.07774423 -0.18703078
000160 93 fe 09 be 11 43 c1 bd 72 06 d9 bd c9 07 38 bd
       -0.13476019 -0.0943662 -0.105969325 -0.0449293
000170 0d 5b 35 bd c6 d2 02 be 56 c0 ae bd 1b a8 9f 3c
       -0.044276286 -0.12775716 -0.08532779 0.019489339
000180 78 9d 69 bd 6e b3 53 be 35 ee 09 be 85 47 11 be
       -0.05703494 -0.20673916 -0.13469775 -0.14187439
000190 16 c1 cf bd 72 be c0 bd 7c 9e eb bc 61 26 ed bd
       -0.1014425 -0.094113246 -0.028762095 -0.11579586
0001a0 46 de 9d 3c d9 4a 6d bd df e1 c6 bc c8 5d 05 be
       0.019271027 -0.05793271 -0.024277626 -0.13024056
0001b0 cd ca 3c bd b2 e0 f7 bb 1d 3c e8 bd ff 51 07 be
       -0.046091843 -0.0075646276 -0.11339591 -0.13214873
0001c0 5e ef 50 bd cd f9 42 bc 8e c3 95 bd 35 ac 94 bd
       -0.05100953 -0.011900377 -0.0731269 -0.072594084
0001d0 60 4f a1 bd 2e e8 48 bc 87 e3 66 be d2 f0 41 3d
       -0.07876468 -0.012262387 -0.22547732 0.047348805
0001e0 99 c6 9f 3a 0a 2b f7 3c 9e 5a 8a bd 41 17 1e 3c
       0.0012189924 0.03017189 -0.06755565 0.009649099
0001f0 25 6e 8e bd d6 3b 0c be b6 db 35 be 8c cb 86 bd
       -0.06954602 -0.136947 -0.17759594 -0.06581792
000200 94 7f 2d bd 19 ad c4 bc 86 99 6f bc 5e c6 db bd
       -0.042357996 -0.02400832 -0.014624005 -0.10731195
000210 23 c0 ed 3c 90 12 00 bc 3f 17 0b ba ad c0 c8 bd
       0.029022282 -0.007816926 -0.0005305893 -0.09802375
000220 6a ce 1d be e3 1e b3 bd f1 22 73 bd a9 6e d6 bc
       -0.15410772 -0.087461255 -0.059359495 -0.026175814
000230 c0 c2 47 be 49 e8 8b 3d d0 6c 90 3d 73 e5 81 3b
       -0.19507885 0.06831414 0.07052004 0.00396412
000240 da 61 40 bd c3 51 18 3d ca 3f 1a 3e 35 14 99 bd
       -0.04696832 0.03718735 0.15063396 -0.07474557
000250 ba fb 2e bd 5f d3 e8 3c f5 00 dc bd 04 39 9a bd
       -0.042720534 0.028421102 -0.1074237 -0.07530406
000260 43 81 17 bc 3c 72 da bc 1c 2a 65 be e0 51 3b 3d
       -0.009247127 -0.0266658 -0.22379345 0.04573238
000270 bb ac a0 bd 23 0d 51 bd c2 91 34 be 84 2e da bd
       -0.07845446 -0.05103792 -0.17633727 -0.106534034
000280 c8 d3 a8 bd fc 17 3f bc 0a 62 7a 3b dd 87 7a bd
       -0.08243519 -0.011663433 0.0038205408 -0.061164726
000290 75 b5 25 be a6 ac 76 bd eb 8f de bd cb c8 b1 bd
       -0.16182502 -0.060223244 -0.10867294 -0.08680876
0002a0 c6 83 de bd 5d 62 1e be c7 f3 9e bd 37 fe 56 be
       -0.108649775 -0.1546721 -0.077613406 -0.20995413
0002b0 8f 84 08 bd e8 39 5c bc 6d 36 b5 3d 51 f6 8d 3d
       -0.033329543 -0.01344154 0.088482715 0.06931747
0002c0 68 27 f4 bd bf ef 3c be ec a2 ad bd 3e 4c 2e be
       -0.11921579 -0.18450831 -0.084783405 -0.17021272
0002d0 e5 c3 87 3d ea e7 87 bd c4 7a 48 be 15 22 21 bd
       0.06629161 -0.06636031 -0.19578081 -0.039339144
0002e0 aa a4 1f be ae 56 dd 37 ce 35 1a bd 53 d9 86 bd
       -0.15590158 2.6385616e-05 -0.03764897 -0.0658442
0002f0 50 1c 93 3d 8c be bd bc e7 7d b1 bd 75 99 7b bd
       0.071831346 -0.023162149 -0.08666592 -0.061425645
000300 84 07 10 be 95 6d 11 be 2f 3c 46 be b6 0d 62 bd
       -0.14065367 -0.14201958 -0.19358896 -0.055188857
000310 2a 99 83 bd 1c 14 01 be 7f 86 05 be 44 f9 cc bd
       -0.06425698 -0.12605327 -0.13039587 -0.10008481
000320 0b c2 b1 bd ab a5 3b be 00 34 d5 bd 1f 8d 2c bd
       -0.08679589 -0.18324916 -0.10410309 -0.04212677
000330 72 e6 cc bc 02 c7 ee bc e9 16 87 3b 4d d9 74 3c
       -0.025012229 -0.029147629 0.004122604 0.014944387
000340 f1 71 1b 3c 15 22 3e 3d 1c e4 1f be 07 67 8f 3d
       0.009487615 0.046419222 -0.1561436 0.07002073
000350 ca f9 fd bd 8d bc cb 3d 49 d9 8a 3c d4 e9 2d be
       -0.12401159 0.099480726 0.016949313 -0.1698373
000360 20 ad d2 3c 00 25 6b bc 29 b0 94 3c 73 40 03 3d
       0.025717318 -0.014352083 0.018150406 0.032043885
000370 70 dc 5d 3d e2 48 61 bc e2 0e 03 be ef c5 5f bd
       0.054165304 -0.013750287 -0.12798646 -0.054632124
000380 f8 fd 92 3c 43 ce fc bd 64 02 3f 3d 55 e9 26 3e
       0.017943367 -0.12344029 0.04663314 0.16299947
000390 2b b8 9b 3d 9f df d9 3c 54 54 84 bd 51 b5 07 be
       0.076034866 0.026595889 -0.06461397 -0.1325276
0003a0 f5 f6 16 be f9 cb 9a bd c3 b9 71 bd 62 a1 b0 bd
       -0.14742644 -0.07558436 -0.059015047 -0.08624531
0003b0 4e 5a 03 be 11 d4 16 be a3 88 20 bd 33 0c e0 bc
       -0.12827417 -0.14729334 -0.039192807 -0.027349567
0003c0 8f dc 34 be e9 37 54 3d 9c 3e a0 bc 80 74 96 bd
       -0.17662261 0.051811133 -0.019561104 -0.07346439
0003d0 52 5b 16 3c 3a 7e 7b bd 41 b8 0d be 8a f8 27 bd
       0.009177046 -0.061399676 -0.13839819 -0.04100851
0003e0 bc fb 7b be 08 11 0d be 65 b4 36 bd 6f f5 b2 bd
       -0.24607748 -0.13776028 -0.04460563 -0.08738219
0003f0 e5 96 0d bc 94 b4 92 bc 9c aa 83 bd c6 e4 87 3c
       -0.008641933 -0.017908372 -0.064290255 0.01658858

bn1.running_mean f4 [400]
000000 36 f3 45 3e 36 f3 06 be 1c 2a 74 bd 78 bf 6c bd
       0.19331059 -0.13178715 -0.05961047 -0.057799786
000010 9c 66 1d be 1f 9d 4d 3d 69 21 f2 bd b3 ac 98 bd
       -0.15371174 0.05019867 -0.11822779 -0.07454815
000020 38 c4 bd bc 8b 3d cf bc d6 73 12 3e c9 d0 1f 3e
       -0.023164853 -0.0252979 0.14302 0.15606989
000030 ea 87 73 3c 01 6d df 3a 24 3d 05 3e 27 af 29 3e
       0.014863947 0.0017046036 0.13011605 0.16570722
000040 c7 9f 22 be 16 d3 27 3e b1 77 0c be da e8 2a be
       -0.15881263 0.16389117 -0.13717534 -0.16690388
000050 68 a2 02 be 0c 64 14 3e 56 ad 83 bd f4 ac 3b 3e
       -0.12757266 0.1449129 -0.064295456 0.18327695
000060 14 00 38 3e 1e 47 99 3b d5 6b 86 bd 5f eb c5 3d
       0.1796878 0.0046776673 -0.06563536 0.09664034
000070 51 c4 73 bd a6 dc 4d 3e 8d 81 d9 bd 4b 52 4a be
       -0.059513394 0.20103702 -0.10620413 -0.19757955
000080 c0 a1 79 3d 5a ec d3 3d f3 1d 06 be e8 9f 27 3c
       0.060945272 0.10347815 -0.13097362 0.010230996
000090 b5 23 3d be 29 0d 64 3d 5d 86 e8 3d eb 16 47 be
       -0.18470652 0.055676613 0.11353753 -0.19442336
0000a0 91 4f a5 3d d8 41 ca bd b4 83 d6 3d 47 4e ea bd
       0.08071817 -0.0987584 0.10474339 -0.114407115
0000b0 cf d6 2b be cf d3 3e 3e 15 93 81 3d e1 c2 66 3d
       -0.16781162 0.18635486 0.06326882 0.056338195
0000c0 29 64 ec 3c 2a f5 18 be 4c 6d 30 be 70 3b fb 3d
       0.028856354 -0.14937273 -0.17229193 0.12267196
0000d0 8f 6e 97 bd 58 a9 0b bd 67 91 42 3e 2a 50 c2 bd
       -0.07394134 -0.034097046 0.19000779 -0.09487946
0000e0 9d 4c 13 bc 6c ea d8 3d 53 98 67 bd c8 24 e9 bd
       -0.008990434 0.105915874 -0.056541752 -0.113839686
0000f0 89 43 3c be 25 a8 f7 bd f3 d3 14 3e 3e 89 27 3e
       -0.18385138 -0.12092618 0.14533977 0.16360947
000100 bf 6c cf 3d 83 9c 0b 3e eb ae 1b 3e b9 36 39 3e
       0.101281635 0.13633923 0.15203445 0.18087281
000110 3f 2f cc bd ac bd 27 3e f7 6d 96 3c 85 da 92 3d
       -0.09969949 0.16380948 0.018362982 0.071705855
000120 f9 de 32 3c a9 c6 f8 3c ff ae 8f bd aa 59 2f be
       0.010917419 0.030368166 -0.070158 -0.17124048
000130 8a f2 3d 3d 54 2c 85 bd e6 0f 26 3e e2 d1 45 3e
       0.04637388 -0.065025955 0.16217002 0.19318345
000140 4f 3a 0f be 63 09 22 3d cc 33 bc 3d eb 76 78 bd
       -0.13987087 0.039559733 0.09189567 -0.060660284
000150 68 b8 49 bd 56 16 26 bd 2d f9 19 3e a7 0b 99 3c
       -0.04924813 -0.040548645 0.1503646 0.018682314
000160 11 30 27 3e 0b a1 16 3e 6d b5 4c be 89 1f 47 3e
       0.1632693 0.1470987 -0.19991083 0.19445623
000170 73 cd 4c 3d 3e 5b a3 3c 16 28 38 3e 61 a9 a3 3d
       0.05000062 0.019940969 0.17984042 0.07991291
000180 c7 47 fe 3c f6 00 1c bd 01 13 83 bd 07 4f 10 be
       0.031040085 -0.038086854 -0.06400109 -0.14092647
000190 bc 91 98 bd dd 01 0d bc 6b e8 08 3e ef 7d 2f 3e
       -0.074496716 -0.008606401 0.1336991 0.17137884
0001a0 3d d4 83 bd f7 e6 f7 3c 92 1b 22 3e fb b3 10 be
       -0.064369656 0.0302615 0.1583083 -0.14131157
0001b0 dd 17 06 3e a2 17 eb 3d 9b 79 14 3d a9 b8 1a 3e
       0.1309504 0.11479117 0.036248785 0.15109505
0001c0 00 e6 20 3e 20 a2 e4 3d 4f b6 a1 3d 0e b2 a8 bd
       0.15712738 0.111637354 0.07896101 -0.08237086
0001d0 12 7a 98 3d e0 bf 04 3d a0 38 ea bc e0 b9 d0 bd
       0.07445158 0.03240955 -0.028591454 -0.10191703
0001e0 74 9a e1 3d 0b 7a d7 bd a5 ff d3 3d d0 08 dc 3c
       0.11015788 -0.10521325 0.10351495 0.02685967
0001f0 07 c3 eb 3d e3 f5 4b be 47 4c a0 3d cf ae 3c 3e
       0.11511808 -0.19918017 0.07827049 0.18426059
000200 eb 84 fd bd 59 16 25 be 6b bf 48 3e 3a 3b df bd
       -0.12378868 -0.16121806 0.1960427 -0.108999684
000210 c8 68 cd bc 96 5a de 3d c6 0d 26 3d 4b a1 06 3e
       -0.025074378 0.10857122 0.04054048 0.13147466
000220 0a cb 33 3e b0 d4 99 3d c6 c2 d5 bd b1 78 ad 3d
       0.17557922 0.0751127 -0.10437541 0.08470286
000230 ad 47 5e 3d 79 8c e4 bc 39 98 02 3e b5 6c 9c bd
       0.054267574 -0.027899014 0.12753381 -0.07637922
000240 f3 13 3f be 95 f4 98 bd af b6 1c 3d 94 ae d8 bb
       -0.18659954 -0.07468525 0.03826016 -0.006612608
000250 72 8a 80 bc db 5a 95 3d 0d 24 1c be 62 bf 27 3e
       -0.015691016 0.0729272 -0.15248127 0.163816
000260 0f 9a 1f 3e 82 e7 3e 3e bc 3c 5e bd 29 7f 14 3e
       0.15586112 0.18643 -0.05425714 0.14501633
000270 bb fe 98 3d f4 81 5d 3d eb 97 ed 3d cf ea 99 bd
       0.07470461 0.05407901 0.11601242 -0.07515489
000280 f0 d0 be bd d3 80 65 3d a8 66 1b 3e 60 68 ae 3d
       -0.093171954 0.05603106 0.15175879 0.08516002
000290 99 0c a8 bd a0 67 02 3e cc 04 ef 3d 62 33 5e 3d
       -0.08205528 0.12734842 0.11670837 0.05424822
0002a0 93 81 d1 3d a3 7d 80 bd 15 fb ea bd 0d 03 8d 3c
       0.102297924 -0.06273963 -0.11473671 0.017213369
0002b0 0c 6c 84 3c d9 d2 43 3d 53 34 98 bc 25 ad 6d 3d
       0.016164802 0.047808502 -0.018579638 0.05802645
0002c0 14 6e ac 3d 72 b9 4c bd 0d 69 c0 bd 9b db 51 3e
       0.08419433 -0.049981542 -0.09395037 0.20493929
0002d0 ca dc dc 3d 53 d6 61 bd e2 bd 3e be d3 43 7b bd
       0.107843 -0.055136036 -0.18627122 -0.06134398
0002e0 bc 08 13 be 1e 5d d4 3c 2a 4e 00 3e 30 b8 43 be
       -0.143588 0.025923308 0.12529817 -0.1911323
0002f0 95 3f 26 be da 50 4f be 8f 9f b1 3d 8e 10 20 3e
       -0.16235192 -0.20245686 0.086730115 0.15631315
000300 69 9d e4 bd 47 2f 83 bd 11 67 b4 bd 38 41 b8 3d
       -0.11162836 -0.06405502 -0.08808721 0.089968145
000310 b5 3c 99 bc 77 55 3e 3e f3 77 97 3d 26 ff 94 bd
       -0.018705705 0.1858729 0.073959254 -0.07275228
000320 42 8f e6 3d 3b af a0 3d 91 91 36 be 99 d0 4a 3e
       0.11257793 0.078459226 -0.17828967 0.19806136
000330 11 dc c9 bc 4b e3 f6 bd 79 ac ad 3d 64 be 3d 3e
       -0.024641069 -0.120550714 0.08480162 0.1852966
000340 56 94 00 bd f5 60 60 3e b0 25 f9 3d d8 93 91 bd
       -0.031391464 0.21911986 0.121653914 -0.07108277
000350 a9 56 11 3e e1 2b 98 bd 83 3f e9 3d fb cd 89 3d
       0.14193214 -0.07430244 0.11389067 0.06728741
000360 26 50 73 3d c8 12 51 3e 61 e8 ee 3b 8a 03 2e 3e
       0.059402607 0.2041732 0.0072908853 0.16993538
000370 5a 06 41 3d a9 e7 80 bd 75 d7 06 3e 81 46 3c be
       0.047125198 -0.06294186 0.13168128 -0.1838627
000380 48 52 18 bc 07 4b b8 bd 9e 14 34 bd a2 31 06 3e
       -0.009296961 -0.08998685 -0.043964975 0.13104871
000390 04 b6 38 3e 12 6a e9 3d d8 49 9a 3d d0 bb ad 3c
       0.18038183 0.113971844 0.07533616 0.02120772
0003a0 b5 c8 26 be ec 93 5c 3d 63 f4 cd 3d 67 84 07 be
       -0.16287501 0.053852007 0.10056379 -0.13234101
0003b0 10 ee 46 3e 7e 0f 8d bc 2e 9c 58 bc bd ad ac 3b
       0.19426751 -0.017219301 -0.01322083 0.0052697347
0003c0 d4 61 46 3e cc 37 2f 3e b6 e5 44 3e be 3f d9 3d
       0.19373256 0.17111129 0.19228253 0.10607861
0003d0 6a 17 74 3c 7e ee 7b bd 57 58 de 3d ef 6b 81 3d
       0.0148981605 -0.06150674 0.10856693 0.06319415
0003e0 6f c6 b6 3b 06 f9 e6 bd 7c bc d0 3d 8c 81 d4 bd
       0.0055778543 -0.11277966 0.101922005 -0.103762716
0003f0 29 ec 45 be a0 8b db bd 4e 08 08 3e 0b 44 32 3d
       -0.19328369 -0.10719991 0.13284418 0.043521922

bn1.running_var f4 [400]
000000 8f 12 b3 3c fe c5 bf 3c 8a 62 5a 3d 2a 62 70 3d
       0.021859435 0.02340984 0.05331663 0.058687367
000010 6d 8a ed 3d dd 1f 0e 3d 3a a0 ed 3d 35 54 e8 3c
       0.11598668 0.034698356 0.116028264 0.028360466
000020 94 b6 1d 3d c1 db 2b 3d 0f b6 b4 3c 56 9b 8c 3d
       0.0385042 0.04195762 0.022059469 0.068655655
000030 c6 ac 17 3d cc 2f 9b 3d c2 e8 3d 3e 43 24 26 3d
       0.037030004 0.07577476 0.18545821 0.040561926
000040 6e 12 6b 3d 01 51 00 3e ba 90 47 3d fd 08 ef 3c
       0.057390623 0.125309 0.048722006 0.02917909
000050 cb ce 72 3d 3c 85 a1 3d 0c 82 49 3d 3e 44 ab 3d
       0.059279244 0.078867406 0.049196288 0.083626255
000060 2e 08 25 3d ee 45 ae 3d 78 5a 36 3d a3 e0 85 3d
       0.040291004 0.08509432 0.04451987 0.06536987
000070 45 6f 07 3d e2 3e a9 3d bd 88 ea 3c 0b 6f 5a 3e
       0.0330651 0.08263947 0.028629655 0.21331422
000080 76 17 20 3d 7d 14 61 3d 2c d1 b7 3d ad 38 7a 3d
       0.039084874 0.05495118 0.08975443 0.061089206
000090 1e 66 b2 3d 16 b9 1c 3d d6 51 29 3d a1 79 a0 3d
       0.087108836 0.03826245 0.04133781 0.07835699
0000a0 b9 f6 51 3d 89 6f d8 3c d8 1f 71 3c ca fc 54 3d
       0.051260684 0.026420372 0.014717065 0.05199889
0000b0 84 14 58 3d f9 0f 55 3c dd 32 46 3d a8 40 4e 3d
       0.05275394 0.013004296 0.04838835 0.05035463
0000c0 71 39 20 3d 95 69 9b 3d 8c f9 04 3c ae 99 ea 3c
       0.03911728 0.075884975 0.008116137 0.028637733
0000d0 b3 c7 ea 3c 0e af 07 3d 88 de 15 3d e6 54 7b 3d
       0.028659677 0.03312593 0.036589175 0.061360262
0000e0 6d 94 b8 3d 7a c5 a5 3d 73 02 29 3d 59 7d 86 3d
       0.09012685 0.08094306 0.0412621 0.06566877
0000f0 ba b1 37 3d 62 0f ae 3c 03 be 8e 3d 97 6f 36 3d
       0.044847228 0.02124757 0.069698356 0.044540014
000100 d5 d0 dd 3d 11 cc 65 3d 8b 6b 92 3d e1 e0 55 3d
       0.10830847 0.056102816 0.071494184 0.052216414
000110 a5 74 b8 3d ec 31 26 3d de e7 ab 3c 23 df c0 3d
       0.09006623 0.040574953 0.020984586 0.0941756
000120 7f c6 5e 3d 4a b8 9b 3d c3 11 bb 3d 05 4d 2c 3d
       0.05438852 0.0760351 0.09134247 0.04206564
000130 85 1c 72 3d 32 82 02 3d 25 28 2e 3c c5 ba 54 3d
       0.05910923 0.031862445 0.010629688 0.05193593
000140 05 59 e1 3d 1e 8a 9c 3d 6f c0 7c 3d ac 40 20 3d
       0.11003307 0.07643531 0.061706956 0.039124176
000150 bb 49 f6 3c a3 75 4b 3d c2 d7 31 3d 0b 16 eb 3c
       0.030064454 0.049672734 0.043418653 0.028697034
000160 bf a5 9e 3d c0 42 0a 3d 77 a0 81 3d da 8d 59 3d
       0.07746457 0.033755064 0.06329434 0.053113796
000170 f2 fa c0 3d 9a 78 c5 3d 8c b1 ad 3d cc 36 66 3d
       0.09422864 0.096421435 0.0848113 0.056204602
000180 b0 3f cf 3d 6b 25 82 3c e4 2f b3 3d d6 c3 b6 3c
       0.10119569 0.015886983 0.08749369 0.022310179
000190 0a 1e e8 3c 23 b2 45 3d 47 87 80 3d b4 72 26 3d
       0.028334636 0.048265588 0.06275802 0.040636733
0001a0 5f 49 af 3c 7b 4a e7 3c 67 69 96 3d f4 bc b5 3d
       0.02139729 0.028233757 0.07344323 0.088739306
0001b0 03 0e a5 3d 54 c4 97 3d d2 6e 8e 3d 1c ff a0 3d
       0.08059313 0.074104935 0.06954731 0.07861158
0001c0 80 7d 4f 3d d1 d7 56 3d d1 02 0a 3d 19 e7 bd 3c
       0.050656796 0.052451912 0.033694092 0.023181485
0001d0 4f 6a 51 3d 77 86 9b 3d df 1b 14 3d 2b 47 a2 3c
       0.051126774 0.075940065 0.036159392 0.019809326
0001e0 27 59 22 3d 9d a8 63 3d 29 96 d1 3d 19 25 59 3d
       0.039635804 0.055580724 0.10233719 0.053013895
0001f0 57 f5 76 3d 8d d3 5d 3d d0 c4 d0 3d a5 88 e1 3c
       0.060292568 0.05415683 0.10193789 0.027530978
000200 31 12 85 3d 19 19 67 3d 56 a4 fa 3d 6a 07 2c 3d
       0.0649761 0.05642042 0.12238376 0.041999258
000210 a5 d4 8e 3d 61 0e 48 3d db ce 86 3c d2 fb 2a 3d
       0.069741525 0.048841838 0.016456058 0.04174406
000220 be 2e e1 3c 50 b4 a7 3d 70 ae 06 3d 14 ba 4a 3d
       0.027488109 0.08188689 0.0328812 0.049493864
000230 56 77 42 3d c4 7c c4 3d 5c be 5e 3c 16 ec 7d 3d
       0.04747709 0.0959411 0.01359519 0.061992727
000240 2f d2 9b 3d d2 24 98 3d 46 da 78 3d 93 7a b3 3d
       0.07608449 0.07428898 0.060755037 0.087636136
000250 b8 95 85 3c ba 31 21 3d 33 60 bf 3d da 2d ae 3d
       0.016306743 0.039354064 0.093445204 0.08504839
000260 7d fa 7b 3d f1 67 9a 3d f8 49 2d 3d 09 97 5f 3d
       0.06151818 0.075393565 0.04230687 0.054587398
000270 d5 68 ca 3c a7 3e 74 3d 98 76 52 3d 94 19 6c 3d
       0.024708191 0.059630062 0.05138263 0.05764158
000280 b8 2e 33 3d 91 3a 1c 3d bb 7e 78 3d d4 e4 77 3d
       0.043745726 0.03814179 0.060667735 0.060520962
000290 c9 47 a1 3d 44 76 13 3d bb 07 84 3d 26 7f a9 3d
       0.0787502 0.03600146 0.06446787 0.08276205
0002a0 cb d2 a4 3d 0b e7 40 3d 91 04 45 3d c0 8a 10 3d
       0.08048018 0.04709534 0.048100058 0.035288572
0002b0 58 63 88 3d ad 58 c1 3d d6 b9 89 3d 64 29 7c 3d
       0.06659573 0.09440742 0.067248985 0.06156291
0002c0 4f 37 b3 3d 6d f4 3b 3d ce 9a a8 3d 58 08 9d 3d
       0.08750784 0.0458874 0.08232652 0.07667607
0002d0 77 b5 05 3d 4e 55 14 3d 7f e6 7e 3d 92 45 aa 3d
       0.03264376 0.036214165 0.062231537 0.08314051
0002e0 05 70 48 3d 89 6f e5 3c 2a 24 4b 3d 08 a7 4a 3d
       0.048934955 0.028007286 0.049595036 0.0494757
0002f0 40 d9 e4 3d 3f ab 26 3d 73 9a 8c 3d 36 d7 db 3d
       0.1117425 0.040690657 0.06865396 0.107344076
000300 1b aa 2b 3d 0c 84 80 3d 2d 7e 8e 3d f0 f9 02 3e
       0.041910272 0.06275186 0.0695766 0.12790656
000310 46 39 26 3d bf 60 83 3d 30 10 28 3d 6f 1c cf 3c
       0.040581964 0.06414937 0.041031063 0.025282113
000320 7c d4 d5 3c 16 4b 19 3d 96 83 3e 3d e9 f6 83 3d
       0.026102297 0.037425123 0.04651221 0.06443579
000330 07 33 38 3d 0a 4d 29 3d f5 24 88 3c ae db b9 3d
       0.04497054 0.041333236 0.016619185 0.09075104
000340 1c a6 b7 3d cf 29 f7 3b ce a9 8a 3d 43 5a ba 3d
       0.0896723 0.007542826 0.06770669 0.09099247
000350 d6 de 85 3d b6 f9 f0 3c 72 15 75 3d f6 7c 80 3d
       0.06536643 0.029415946 0.059834905 0.062738344
000360 4a f9 9b 3d 66 2b 86 3d 05 4a 60 3d 4d a4 30 3d
       0.076159075 0.06551246 0.05475809 0.04312544
000370 d8 a2 b7 3d 9c 53 ae 3d 91 40 47 3d 1b 79 91 3d
       0.08966607 0.08512041 0.04864556 0.07103177
000380 ad 76 44 3d 2c 72 32 3d 59 c9 58 3d ed 58 e9 3c
       0.04796474 0.043565914 0.052926395 0.028484786
000390 16 12 9c 3d c9 56 89 3c 2e a2 57 3d f2 3b b6 3d
       0.07620637 0.016765015 0.0526449 0.088981524
0003a0 c3 9a 57 3d a6 53 5e 3d 45 f8 1e 3d f2 92 af 3d
       0.052637827 0.054278992 0.038810987 0.085729495
0003b0 6d 5f d3 3c 3f 92 ad 3c 98 2a 7f 3d a5 88 a7 3d
       0.025802338 0.0211879 0.06229648 0.0818036
0003c0 f3 cb 85 3d 0f 32 bd 3c 93 18 29 3d f6 52 f3 3c
       0.06533041 0.023095159 0.0412832 0.029702645
0003d0 60 32 f6 3d c5 7e 87 3d 4b 78 84 3d 73 76 52 3d
       0.12021327 0.06615976 0.064682566 0.051382493
0003e0 54 05 4e 3d c1 22 6f 3d 3c 23 ce 3d 6c 2e 99 3c
       0.05029805 0.058382753 0.10065314 0.018698893
0003f0 4f 3c f5 3c 08 85 d1 3d 0b 27 23 3c a2 97 9d 3d
       0.029935984 0.10230452 0.009958039 0.07694937
