checkpoint_actor.pth (torch_old, 894174 bytes, 16 tensors)

bn0.weight f4 [24]
000000 14 03 87 3e 71 9b fd 3e 7f 51 7d 3e b7 a3 8e 3e
       0.26369536 0.49532655 0.2473812 0.2785928
000010 c3 0e 84 3f 05 21 76 3f 82 7a 18 3f e3 9f f0 3e
       1.0317005 0.96144134 0.5956193 0.46996984
000020 c7 57 20 3f 7c 13 5e 3e 21 09 6d 3e 5e 8e a3 3e
       0.6263394 0.2168712 0.23148014 0.31944555
000030 62 d0 86 ba 5e 39 ec 3e a1 d3 1f 3f d4 1a 18 3f
       -0.0010285492 0.46137518 0.62432295 0.59415936
000040 dc 52 2b 3f 28 bc ba 3e 0e ba 30 3f 62 32 5c 3f
       0.6692331 0.36471677 0.69033897 0.8601438
000050 db fd 81 3f f8 99 10 3f de 2b 66 3e 6e 35 52 3e
       1.0155596 0.5648494 0.22477672 0.20528194

bn0.bias f4 [24]
000000 8c be af ba 84 f6 1f 3a 3c de 96 ba b4 88 78 3a
       -0.0013408228 0.00061021023 -0.0011510323 0.00094808196
000010 79 4b 05 bc 91 08 5b bb 9f 8a 9e ba c7 b0 4c 3b
       -0.00813567 -0.0033421854 -0.0012095756 0.0031233297
000020 4c 7f 85 b9 33 18 f4 ba e4 64 ff 3a 07 41 5e 3a
       -0.0002546258 -0.0018622935 0.0019485024 0.0008478318
000030 f7 68 b5 3a 86 7b 34 ba a1 7c d8 ba b6 b9 f1 3a
       0.0013840486 -0.00068848615 -0.0016516634 0.0018442187
000040 21 57 89 3a 16 58 67 ba 26 28 f9 3a 1a ab 6f bb
       0.0010478237 -0.00088250765 0.0019009158 -0.003657049
000050 11 6a 4c 3b b0 27 97 3b 61 ab 27 ba a4 b1 57 ba
       0.003119115 0.0046128854 -0.0006396082 -0.00082280696

bn0.running_mean f4 [24]
000000 9d 6d ae c0 06 28 3c be 69 74 f7 40 22 cd cc 3b
       -5.4508805 -0.18374643 7.73296 0.0062500397
000010 55 d9 64 3e 2d a9 84 40 69 74 f7 40 22 cd cc 3b
       0.2234853 4.1456513 7.73296 0.0062500397
000020 ec 2f af c0 16 38 39 be db b7 eb 40 ae 60 60 bd
       -5.4746 -0.18087801 7.3661933 -0.0547797
000030 40 49 56 3e 78 65 84 40 db b7 eb 40 ae 60 60 bd
       0.2092638 4.1373863 7.3661933 -0.0547797
000040 99 c0 b0 c0 e2 80 39 be 54 e9 df 40 da 50 10 bd
       -5.5235105 -0.18115571 6.9972324 -0.035233356
000050 76 dc 50 3e f0 e2 83 40 54 e9 df 40 da 50 10 bd
       0.20396599 4.1214523 6.9972324 -0.035233356

bn0.running_var f4 [24]
000000 aa e7 8b 41 87 74 50 3f 06 c2 10 44 4a e1 90 41
       17.488117 0.81427807 579.0316 18.110004
000010 95 78 cf 41 bb 7b 05 40 06 c2 10 44 4a e1 90 41
       25.933878 2.085677 579.0316 18.110004
000020 2a 27 8b 41 1d 68 51 3f ca bd 10 44 84 78 91 41
       17.394123 0.8179949 578.96545 18.183846
000030 6c 35 d3 41 3e de 06 40 ca bd 10 44 84 78 91 41
       26.401085 2.1073146 578.96545 18.183846
000040 bf 96 89 41 74 94 51 3f b5 c1 12 44 ed c4 8c 41
       17.198606 0.81867146 587.0267 17.596155
000050 2d 74 d6 41 72 55 0a 40 b5 c1 12 44 ed c4 8c 41
       26.806726 2.1614652 587.0267 17.596155

fc1.weight f4 [400, 24]
000000 ff 05 23 3d e9 45 cf 3c 2b 32 48 3b 5d cc 71 bd
       0.03980064 0.02530189 0.003054748 -0.059032787
000010 61 bb 19 3e e9 d2 fe 3c 59 10 04 3c 6f 0a 16 be
       0.15012886 0.03110643 0.008060538 -0.14652418
000020 87 e7 53 3d 49 dc f5 3c 9b 16 78 bb 6b b5 95 bd
       0.051734474 0.030012267 -0.003785527 -0.07309993
000030 ea d1 78 3d 51 81 e0 ba b6 8b 4f bd 16 0e 33 bd
       0.060747065 -0.0017128383 -0.050670348 -0.043714605
000040 d8 74 64 3c 0e 1d 76 3d bc 8a a1 39 ef ba a7 bc
       0.013943873 0.060086302 0.00030811678 -0.02047488
000050 3d b0 19 be 9a 49 00 bc e5 cb 36 bd 21 3e 19 bd
       -0.15008636 -0.007830048 -0.044628043 -0.037412766
000060 42 08 b9 bd c9 67 08 3d 72 f0 b0 bd fc 9f 94 bb
       -0.09034778 0.033302102 -0.08639611 -0.004535673
000070 d2 c6 b3 bc e5 2c 43 3e ae ad 2e bd d4 7d 11 bc
       -0.02194539 0.19060095 -0.042646103 -0.008880097
000080 f6 05 5c bd 17 45 19 3d 3c 08 c3 3b 45 7e 93 ba
       -0.053716622 0.037419405 0.0059519093 -0.0011252841
000090 b6 aa 45 3d 2f c4 f0 bb ba 48 6a 3d 59 3f 94 bd
       0.048258506 -0.0073476057 0.057198264 -0.07238645
0000a0 9b 9c df bc 65 9a 04 bb e8 49 93 3c 34 48 a1 3d
       -0.027296355 -0.0020233628 0.017979577 0.078751
0000b0 bd a2 27 3d 23 ca 3e be b7 80 86 bd ec eb 3b 3d
       0.040926684 -0.18631797 -0.06567519 0.04587929
0000c0 91 d2 56 3c ee 84 c7 bb 98 fb 8f bd 2f c3 48 bd
       0.013111726 -0.0060888445 -0.070304096 -0.049014267
0000d0 6f a6 92 3c 96 58 86 bd 60 35 0f bd 3d 0d 01 bd
       0.017901627 -0.06559865 -0.03496301 -0.031506766
0000e0 25 8f 81 bc 74 29 05 3c f5 30 f3 bb a1 a3 95 bd
       -0.015815327 0.008127559 -0.0074216076 -0.073066
0000f0 3e 51 31 bd b7 d8 9e 3d eb 02 5a bd a6 06 eb bd
       -0.04329037 0.07756179 -0.05322544 -0.114758775
000100 83 90 3e 3c 31 83 44 bd 09 33 39 bd f4 59 c6 bc
       0.011631134 -0.047976676 -0.045214687 -0.024212815
000110 6f 34 88 3d 7b 12 a5 3e 85 4a 15 bd f8 a1 9f 3b
       0.06650626 0.32240662 -0.03644802 0.004871603
000120 28 b0 9c bd 37 13 3f 3d fd 60 67 bd ff 76 99 bd
       -0.07650787 0.046649184 -0.05648898 -0.074934
000130 16 00 b1 bc e3 7b 58 bd 73 c3 4e bd 14 c4 f6 bd
       -0.021606486 -0.052852523 -0.050479364 -0.12049118
000140 25 b3 59 bd 85 50 62 3c 38 b6 cb bc aa 5a 92 3c
       -0.05314936 0.013813143 -0.024867162 0.017865498
000150 ec c3 50 bc d8 46 d2 bc 71 a8 00 3d 6a fd 93 bd
       -0.012742024 -0.025668547 0.03141064 -0.07226069
000160 8c 07 1f 3d 89 98 e6 3d d1 8c 6e 3e 78 f4 97 3d
       0.038825557 0.112595625 0.23295905 0.074196756
000170 b2 31 03 3d 28 16 94 bd 84 b0 31 3e b9 07 a1 3d
       0.032029815 -0.072307885 0.17352492 0.07862801
000180 69 8a 18 bd cc 78 ee 3c 5d 76 06 be 44 e5 47 3b
       -0.037241373 0.029110335 -0.1313109 0.0030501643
000190 06 f5 0f 3d 7d af 73 3d f5 16 ac bd 76 35 bf 3c
       0.035145782 0.05949353 -0.08402816 0.023340922
0001a0 bd 52 86 bd 23 3c 82 3d 7f 3a b8 bd a2 e6 96 3d
       -0.0655875 0.063591264 -0.08995532 0.073682085
0001b0 27 b6 30 3b 0c 3f 12 3e 74 a0 d3 bd 5d 1c bc 3c
       0.002696404 0.14281863 -0.103333384 0.022962743
0001c0 c6 81 10 be b3 f7 1c 3a 42 f9 10 bd 50 eb 9f 3d
       -0.14112005 0.0005987838 -0.03539396 0.07808554
0001d0 ec a0 62 bd 05 2b db 3d 06 0b 8b bd a9 78 03 3e
       -0.05532925 0.10701565 -0.06789212 0.12838997
0001e0 e8 80 80 3c d0 a8 b2 bb a9 71 6c 3e 91 38 f5 bd
       0.015686467 -0.005452253 0.23090233 -0.1197368
0001f0 36 c5 13 bd a5 1f 57 3d 15 90 64 3e 60 ef e5 bc
       -0.036076747 0.052520413 0.22320588 -0.028068244
000200 60 a8 d3 3c 6b cd d0 3c a5 84 ed bd 51 0d 8c 3d
       0.025837123 0.025488576 -0.115975656 0.068384774
000210 75 23 97 bc 99 c2 37 bd 21 01 ba bd d9 d0 8e 3d
       -0.018449524 -0.044863317 -0.090822466 0.06973428
000220 69 4b 82 3d 9f 72 69 bd fc 31 3d 3d ab 61 b9 bb
       0.063620396 -0.056994077 0.046190247 -0.005657395
000230 5f 24 9c bc 87 2f d2 bd 43 6a 81 3d 77 96 f0 bc
       -0.019060312 -0.10262971 0.06319096 -0.029368622
000240 90 aa 33 bc 7c d5 08 bc 1c 7e 94 3d d4 45 c7 3c
       -0.010965958 -0.00835168 0.07250616 0.024325289
000250 aa 5d 03 3d d2 8c 33 bd c8 14 34 3d b5 3f c1 3d
       0.032071747 -0.04383547 0.04396513 0.09435979
000260 0b 33 75 3c d3 e5 94 bd 9c bf 2f 3d 81 e4 92 3d
       0.014965783 -0.07270398 0.042907342 0.0717249
000270 d3 56 b6 3c cb 73 13 bd 4d 34 b7 3d af f1 9a 3d
       0.022258198 -0.0359991 0.089455225 0.07565629
000280 0d 3c c8 3d 02 42 e7 bd 27 98 e3 3c 29 74 81 3e
       0.09777079 -0.11291887 0.027782513 0.25283936
000290 ce 70 43 bc 14 fa 07 bd 02 c5 ba bc 6b 5c 42 3e
       -0.01192875 -0.033197477 -0.022799019 0.18980567
0002a0 35 aa a7 3b 53 0d 6b 3d 82 21 36 3e 90 61 0d 3c
       0.005116726 0.057385754 0.1778622 0.008629218
0002b0 57 6b e2 3d 68 80 45 3d 4c 4a d8 3d 60 ec 44 3b
       0.1105563 0.04821816 0.10561046 0.0030048117
0002c0 54 de d3 3c 61 d3 b1 3d d5 83 53 3d 0f 40 8f 3d
       0.02586285 0.086828955 0.051639397 0.0699464
0002d0 64 e6 4a 3d c4 e6 18 bc 70 c5 9f 3d 26 ba 68 3d
       0.049536124 -0.009332363 0.0780133 0.05681815
0002e0 48 bd 27 bc 8a 0e d7 3d 63 9d 25 bd 3c f3 c5 3b
       -0.010237999 0.1050082 -0.0404333 0.0060409587
0002f0 de 9f a1 bd c7 b4 1c be 51 16 88 bc b2 50 b0 bc
       -0.0789182 -0.15303336 -0.016612204 -0.021522854
000300 bc 23 84 be d8 09 8b 3d 6c 22 2f 3d ea 31 b6 bd
       -0.25808513 0.06788987 0.042757437 -0.08896239
000310 dd f6 24 3d b2 bb c4 3c aa 16 41 3c 6a bd 94 bd
       0.04027449 0.024015281 0.011785189 -0.0726269
000320 0a 12 14 be 3e d4 45 bd 81 49 51 3e 02 19 4e bd
       -0.14460006 -0.048298113 0.20438196 -0.050316818
000330 9e 83 23 3d 06 6c 41 bd 20 df 4a 3e 4b 83 05 bd
       0.03992044 -0.04722216 0.19811678 -0.032595914
000340 1b 6c 52 bd 87 6c a4 bc 70 23 83 3d cd 74 d3 3c
       -0.05137263 -0.020071281 0.064032435 0.02581253
000350 87 cc 1b bd 8f 68 24 bc 5c 34 e8 3c 26 4a 8b bc
       -0.03803685 -0.010034694 0.02834528 -0.01700313
000360 47 c7 12 be cc 36 15 3d 4a 5c 38 bd 6c c5 40 be
       -0.14333831 0.03642921 -0.04500989 -0.1882531
000370 b2 62 91 3d 20 98 73 3d fa 30 cc 3b ec 8d 3a be
       0.07098903 0.05947125 0.0062314244 -0.18218201
000380 80 22 8a bd 76 58 07 3d 6f 59 c4 3d 69 76 6d 3d
       -0.067448616 0.033043347 0.095873706 0.057974253
000390 45 ec 55 3c 20 1e 32 3d 52 88 cb 3d 18 c2 84 3d
       0.013056819 0.04348576 0.099381104 0.06482333
0003a0 73 24 ac bc 70 6b 3f 3d 39 b9 56 3c 3e 4a 80 3d
       -0.021013474 0.04673332 0.013105684 0.062641606
0003b0 ce d8 78 3d 42 2c 2f 3c 5e 6d 86 3d 30 01 8a 3d
       0.060753636 0.010691704 0.06563829 0.06738508
0003c0 ae 20 6e 3d 1a 99 e2 3c 70 83 cb 3b 5b 13 b9 3c
       0.058136635 0.027660895 0.006210737 0.022592237
0003d0 c8 ac 2f bc fa 83 2c 3e 2d 85 2c 3b 00 cd d3 3c
       -0.010722347 0.1684722 0.0026324496 0.025854588
0003e0 a9 8b d6 3c 25 2d a1 39 59 18 1e bd a4 83 d3 bb
       0.026189642 0.00030741948 -0.03859744 -0.006454902
0003f0 31 64 38 bd 70 fa b5 bd a7 1f e4 bc 19 e9 aa 3b
       -0.045017425 -0.08885658 -0.027847124 0.0052157757

fc1.bias f4 [400]
000000 ef 39 47 3e 80 0e 06 be 4f b1 77 bd 3f 8c 6b bd
       0.19455694 -0.13091469 -0.06047183 -0.057506796
000010 dc 06 1d be e3 8d 50 3d ce 26 f1 bd 68 e7 96 bd
       -0.15334648 0.050916564 -0.117749795 -0.07368356
000020 f4 53 c4 bc 78 2e c7 bc b2 7e 10 3e 7c 93 20 3e
       -0.023965813 -0.02431415 0.1411083 0.15681261
000030 25 1d 73 3c 7a 36 15 3b a0 c4 06 3e a2 35 29 3e
       0.014838492 0.0022768066 0.13160944 0.16524366
000040 9e 01 23 be d0 e7 28 3e a8 89 0c be b5 3f 2b be
       -0.15918586 0.1649468 -0.13724387 -0.16723521
000050 a7 8a 02 be 0a 7b 15 3e 65 ab 86 bd c1 f3 3a 3e
       -0.12748204 0.14597717 -0.0657566 0.18257047
000060 4a 8c 38 3e 00 0c 9c 3b 82 02 86 bd 56 1e c9 3d
       0.18022266 0.0047621727 -0.06543447 0.09820239
000070 ae 2d 73 bd 65 54 4f 3e db 76 da bd e1 44 4a be
       -0.059369735 0.20247038 -0.10667201 -0.19752838
000080 d6 5f 7b 3d 9b a4 d3 3d 24 5c 06 be bb b6 26 3c
       0.061370693 0.103341304 -0.13121086 0.010175402
000090 b1 9b 3d be be f3 65 3d bd 8f e8 3d f4 d2 47 be
       -0.18516423 0.056140654 0.11355541 -0.19514066
0000a0 43 76 a2 3d 42 bd c9 bd 5e 77 da 3d bd 80 e9 bd
       0.07932713 -0.09850551 0.10667299 -0.11401508
0000b0 01 84 2c be 5b 7c 3d 3e 13 a7 83 3d a6 aa 69 3d
       -0.1684723 0.18504469 0.06428351 0.05704751
0000c0 9b 44 f4 3c 8f d3 18 be a5 f7 31 be 10 f8 f7 3d
       0.02981787 -0.14924453 -0.17379625 0.12107861
0000d0 3e ee 97 bd 1a 13 0e bd f7 3e 43 3e 1d 8c bf bd
       -0.07418488 -0.034686185 0.19066988 -0.09352896
0000e0 e3 9a 0a bc 26 bc d9 3d d4 8c 64 bd 00 17 e9 bd
       -0.008459779 0.106315896 -0.055798367 -0.1138134
0000f0 9c e7 3b be 9b 91 f8 bd e3 60 15 3e 9c fb 26 3e
       -0.1835007 -0.12137147 0.1458774 0.16306919
000100 dc bb ce 3d 45 7c 0c 3e c0 fa 1b 3e d9 36 39 3e
       0.10094425 0.1371928 0.15232372 0.18087329
000110 10 53 cb bd 83 a2 27 3e 3c 34 8a 3c 67 68 92 3d
       -0.09927952 0.16370587 0.01687061 0.071488194
000120 e9 cf 2c 3c cc 60 f8 3c a0 4f 8f bd 22 f6 2d be
       0.0105476165 0.030319594 -0.06997609 -0.16988423
000130 40 22 45 3d 70 20 82 bd 24 ff 26 3e 0c 83 45 3e
       0.048128366 -0.06353843 0.16308266 0.19288272
000140 09 97 0e be 3f 83 1f 3d ce 3c bc 3d 77 8a 79 bd
       -0.13924803 0.038943525 0.09191285 -0.060923066
000150 37 78 4c bd cf 67 26 bd 6c 1f 1c 3e 50 b3 8d 3c
       -0.049919333 -0.040626343 0.15246361 0.017297417
000160 78 8d 26 3e ce 3e 17 3e 20 43 4d be 34 12 45 3e
       0.16264904 0.14770052 -0.20045137 0.19245225
000170 f6 ef 4b 3d 4f 09 ab 3c dd 6d 37 3e 98 dd a2 3d
       0.04978939 0.020878462 0.17913003 0.07952422
000180 11 bb 00 3d 4f 9d 1c bd 5f 14 84 bd 19 6b 0f be
       0.0314284 -0.03823596 -0.06449198 -0.14005698
000190 07 2b 97 bd 03 9d 0b bc 7b 93 09 3e 45 1c 2f 3e
       -0.07381254 -0.008521321 0.13435166 0.17100628
0001a0 8e a4 84 bd f6 77 f3 3c 7a 62 23 3e 87 d2 0f be
       -0.06476699 0.029720288 0.15955535 -0.14045154
0001b0 7a ed 04 3e d7 1d e9 3d 8c 9e 15 3d bd 73 1b 3e
       0.12981215 0.113826446 0.036528155 0.1518087
0001c0 a7 8b 1f 3e 6b a7 e1 3d a8 c3 a1 3d 39 99 ab bd
       0.15580617 0.110182606 0.078986466 -0.08378834
0001d0 5f 08 97 3d b4 e2 02 3d 3e 6b ed bc e3 a9 ce bd
       0.073746435 0.031954482 -0.028981801 -0.10090997
0001e0 a5 78 e4 3d 85 fa d7 bd 7e 76 d3 3d 62 24 db 3c
       0.111558236 -0.1054583 0.10325335 0.026750747
0001f0 62 f7 ea 3d f2 07 4c be ac ee a2 3d cb 53 3d 3e
       0.11472966 -0.19924906 0.07955679 0.18488996
000200 4d ee fc bd 87 c6 23 be 25 01 49 3e c4 71 de bd
       -0.1235014 -0.15993701 0.19629343 -0.10861543
000210 c0 fa c5 bc 21 61 dc 3d 2e 96 20 3d 37 d2 05 3e
       -0.024167418 0.10760713 0.039205723 0.13068472
000220 6e 43 33 3e b9 28 9c 3d e5 3b d5 bd f2 d7 ac 3d
       0.17506191 0.07624955 -0.104118146 0.08439626
000230 da 42 5d 3d 09 60 de bc 4e 00 01 3e 3d 19 9d bd
       0.054018833 -0.027145403 0.12597772 -0.076708294
000240 7e 26 40 be 4b a5 97 bd a4 62 1f 3d e0 08 e0 bb
       -0.18764684 -0.07404574 0.03891243 -0.0068369955
000250 32 71 84 bc c5 a5 98 3d 7a 49 1c be 7f cb 27 3e
       -0.016167257 0.07453493 -0.15262404 0.16386221
000260 78 37 1f 3e a5 12 3f 3e 33 51 5d bd 44 53 14 3e
       0.15548503 0.18659456 -0.054032516 0.14484888
000270 29 95 99 3d d0 13 5e 3d bf 5b ed 3d 36 42 9a bd
       0.07499153 0.054218113 0.11589765 -0.0753216
000280 e1 34 be bd 7a cc 69 3d 1e a0 1b 3e 04 98 ad 3d
       -0.092874296 0.05707977 0.15197799 0.0847626
000290 7b 9f a9 bd ab 7b 04 3e d8 ae ef 3d b5 ca 5e 3d
       -0.082823716 0.129378 0.11703271 0.054392535
0002a0 b4 b3 cc 3d 42 06 80 bd 2f bc ec bd c8 f6 90 3c
       0.09995213 -0.062511936 -0.11559331 0.0176958
0002b0 85 18 83 3c 4e aa 46 3d 84 3d 9e bc c9 d6 6e 3d
       0.016002903 0.04850226 -0.019316442 0.058310304
0002c0 74 40 ab 3d fa d0 4a bd 34 9e bd bd 11 89 50 3e
       0.08361903 -0.0495157 -0.092586905 0.20364787
0002d0 52 49 dd 3d d4 56 64 bd 93 eb 3e be 93 8c 7c bd
       0.10805 -0.05574687 -0.18644552 -0.0616575
0002e0 1f 1a 13 be 42 df da 3c 04 8f ff 3d 39 d4 43 be
       -0.14365433 0.026717786 0.1247845 -0.19123925
0002f0 72 65 26 be b3 9a 4e be a1 91 b2 3d 6f 26 1f 3e
       -0.16249636 -0.201762 0.08719183 0.15542005
000300 fc 24 e5 bd 80 2e 87 bd 39 0e b4 bd c5 23 b8 3d
       -0.11188695 -0.06600666 -0.08791775 0.089911975
000310 c6 8c 99 bc 12 fd 3c 3e 2f a4 97 3d e5 a0 92 bd
       -0.018743884 0.18455914 0.074043624 -0.071595944
000320 f2 95 e7 3d 3a 15 9e 3d 2b b4 36 be e0 9c 49 3e
       0.11307897 0.077188924 -0.17842166 0.1968875
000330 c3 18 c8 bc 91 9b f7 bd ee 85 b4 3d 90 71 3e 3e
       -0.02442587 -0.12090219 0.088146076 0.18598008
000340 31 38 ff bc ff fa 5a 3e 8a 2d f8 3d fb 18 90 bd
       -0.031154724 0.2138481 0.12118061 -0.07036015
000350 50 f5 11 3e 3b 4b 94 bd 9e 32 e9 3d 77 42 8a 3d
       0.14253736 -0.072409116 0.113866076 0.067509584
000360 de 7f 75 3d 01 32 50 3e 2c 3a 08 3c c4 f0 2e 3e
       0.059936397 0.20331575 0.0083146505 0.17084032
000370 35 fa 40 3d d6 75 82 bd 3a 7f 06 3e ff be 3c be
       0.047113616 -0.06370132 0.1313447 -0.18432234
000380 f6 8d 12 bc 76 12 b7 bd 7b 42 31 bd 97 a6 07 3e
       -0.008944979 -0.08939068 -0.04327629 0.13247143
000390 a2 68 3a 3e d7 3d ea 3d 33 90 9b 3d 7d d1 ad 3c
       0.18203977 0.11437576 0.07595863 0.021218056
0003a0 f8 3e 29 be 51 6c 5a 3d 6f b4 d0 3d c7 a9 08 be
       -0.16527927 0.053325955 0.10190665 -0.13346015
0003b0 96 cc 45 3e 1c b0 87 bc 40 9e 64 bc b4 e4 b5 3b
       0.19316325 -0.016563468 -0.013953745 0.005550945
0003c0 83 a1 46 3e 29 db 2d 3e 89 6f 44 3e 4d 1f da 3d
       0.1939755 0.16978134 0.19183172 0.106505014
0003d0 6d 59 7a 3c c3 9d 7d bd 88 dc dc 3d 96 2d 81 3d
       0.01528011 -0.06191803 0.107842505 0.06307523
0003e0 f2 54 dd 3b 43 48 e7 bd a7 b7 d0 3d 54 cb d8 bd
       0.006754511 -0.1129308 0.10191279 -0.10585657
0003f0 30 09 44 be 2c 90 d9 bd c8 4b 08 3e f8 24 32 3d
       -0.1914413 -0.10623202 0.13310158 0.043492287

bn1.weight f4 [400]
000000 08 6f 7a 3f 5a 1f 87 3f ea a3 37 3f 8e 12 e0 3e
       0.9782567 1.0556443 0.7173449 0.43764156
000010 1b 20 11 3f 63 6a b3 3e b1 60 5b 3e ff 25 18 3f
       0.56689614 0.35042104 0.21423604 0.5943298
000020 99 f8 ef 3e 9f 3d 7b 3e c5 a6 80 3f 74 11 2a 3e
       0.46869352 0.24535225 1.0050894 0.1660822
000030 8b 07 2c 3e 82 63 86 3f 4b ed 52 3f 72 0a 27 3f
       0.16799752 1.0499117 0.8239333 0.65250313
000040 5e 04 55 3f 08 9c 69 3f 5e 28 70 3f 6a ca 4f 3f
       0.8320979 0.9125371 0.93811595 0.81168234
000050 ad 04 f9 3e d1 65 ba 3e 11 fc 64 3f e5 14 2c 3f
       0.4863638 0.36405805 0.8944712 0.6721938
000060 81 25 44 3f a3 40 72 3e 26 0f 24 3f 32 85 00 3f
       0.76619726 0.2365747 0.64085615 0.5020324
000070 7d 20 d3 3e 42 a3 0a 3e b4 9b 45 3f 3e f9 8a 3e
       0.41235724 0.1353884 0.7719071 0.27143282
000080 34 fb 6c 3f f8 d0 23 3f 9c ee cf 3e a2 be b8 3e
       0.92570806 0.63990736 0.40611732 0.3608294
000090 63 89 73 3f 43 91 80 3f 05 28 b5 3e 0d 93 60 3f
       0.9513151 1.004433 0.35382095 0.8772438
0000a0 83 f0 4a 3f da d6 15 3f 01 66 02 3f 23 af 99 3e
       0.7927324 0.5853096 0.50936896 0.3001643
0000b0 5e 28 ea 3e eb 5b 3c 3f 2e c2 63 3f 9b ee 48 3f
       0.45733923 0.73577756 0.8896817 0.78489083
0000c0 40 8a 50 3f 8b fa 3a 3f bb 4f 9c 3f ff a3 a8 3e
       0.8146095 0.7303855 1.2211832 0.3293762
0000d0 cf ca 7b 3f 41 57 fe 3e a8 6f 1b 3f 15 8e 2d 3f
       0.98356336 0.49675944 0.6071725 0.67794925
0000e0 e9 1c 3e 3f 4c 33 40 3f bb 74 43 3e 1c 67 b6 3e
       0.74262863 0.7507827 0.19087498 0.3562554
0000f0 0f bd 4b 3f dc 4a 34 3f 83 d3 d7 3e 82 bd c5 3e
       0.79585356 0.70426726 0.42153558 0.38621145
000100 e8 91 05 3f 2b 9b 03 3f b5 26 0a 3f 94 d0 53 3f
       0.5217576 0.5140864 0.5396531 0.8274014
000110 ff 2a 34 3f 84 9e de 3e ea 4d 29 3f 2d 5c 52 3f
       0.70378107 0.43480313 0.6613451 0.821719
000120 6d dd f9 3e 69 b4 66 3f 39 e8 0e 3e b2 c1 f4 3e
       0.48801747 0.90119034 0.13955773 0.47804028
000130 60 ee 4f 3f fb e2 48 3f e6 d7 bb 3e 52 0c 5b 3f
       0.81223106 0.78471345 0.36688155 0.85565674
000140 16 18 54 3f 77 72 39 3f 07 be 2c 3f c3 4d bc 3e
       0.8284925 0.72440284 0.6747746 0.36778077
000150 e5 47 2a 3f 0e bd cb 3e 42 c2 88 3f c9 f8 80 3f
       0.6651595 0.39792675 1.0684283 1.0075923
000160 bb 51 66 3f 4b 60 1c 3f 98 1e 7a 3f f4 b8 03 3f
       0.8996846 0.6108443 0.9770293 0.5145409
000170 17 c5 40 3f 86 8f 78 3f 19 62 2e 3f 84 51 e9 3e
       0.75300735 0.97094 0.68118435 0.45570004
000180 ab 8a 11 3f 90 10 48 3f e8 6d 26 3f 0b 29 91 3f
       0.56852216 0.7815027 0.65011454 1.134065
000190 fe b7 6c 3f 69 be 52 3e b2 72 81 3e c0 57 78 3f
       0.9246825 0.20580448 0.25282818 0.97008896
0001a0 39 db a3 3f ed 8e 56 3f 7b 16 4f 3f 91 c8 46 3f
       1.2801276 0.8381184 0.8089368 0.7764979
0001b0 7b 0e ce 3e aa dd bb 3e fd da 57 3f 4f 17 7b 3e
       0.40245423 0.36692554 0.84318525 0.2452061
0001c0 2f d4 5a 3f 26 a5 83 3f 60 cb cc 3e 97 4d d8 3e
       0.85480016 1.0284774 0.39998913 0.42246696
0001d0 ae a4 80 3e f5 c7 29 3e c0 ba 53 3f 32 52 42 3f
       0.2512564 0.16580184 0.8270683 0.7590667
0001e0 ba 21 8a 3f ab 02 2d 3e 08 78 3b 3f 9a f1 ab 3e
       1.0791543 0.16895549 0.7323003 0.33582765
0001f0 9a 4e b5 3e 44 df 04 3f 3b 49 27 3f ab 84 19 3f
       0.3541153 0.51903176 0.65346116 0.5996806
000200 f4 d6 ff 3e 75 32 92 3f 0a e1 5c 3e 2d d5 f0 3e
       0.49968684 1.1421648 0.2157022 0.4703764
000210 a1 21 72 3f 4a 16 a6 3e e0 23 05 3f af 15 4b 3f
       0.94582564 0.3243888 0.52007866 0.7932996
000220 17 78 63 3f 96 6a 36 3f fa 03 47 3f cb 32 66 3f
       0.8885512 0.7125639 0.7774044 0.89921254
000230 ad 0a 82 3f 6e f4 25 3f 8e f5 66 3f 64 f1 35 3f
       1.0159508 0.64826095 0.90218437 0.7107146
000240 8d a8 6a 3e d6 fc 27 3f 33 ad e9 3e 23 52 c0 3e
       0.2291586 0.6562017 0.45639953 0.37562665
000250 dd 42 6b 3e 53 ec 2f 3f fa b8 70 3e d2 5c 2f 3e
       0.22974725 0.6871998 0.23508063 0.17125252
000260 f8 41 d7 3e d7 b9 11 3f 90 19 48 3f 4c 10 3c 3f
       0.42042518 0.56924194 0.78164005 0.7346237
000270 7e c8 d5 3e dc 73 76 3e e3 e1 4f 3f f8 0e 9d 3e
       0.41754526 0.24067634 0.8120405 0.30675483
000280 9e c7 1f 3e cd a4 09 3f 9c 14 89 3e 29 ac 25 3f
       0.15603492 0.5376709 0.26773536 0.6471582
000290 ff a0 7a 3f 65 13 62 3f b2 2f 8a 3e 96 4e 7c 3f
       0.9790191 0.88310844 0.26989514 0.9855741
0002a0 2c d4 8c 3f 2b da 46 3f 37 6f a4 3e e5 0e 4a 3f
       1.100225 0.7767665 0.321161 0.7892898
0002b0 f0 44 d1 3e fd 35 58 3f 21 dd 28 3f 6a 9e b5 3e
       0.40872908 0.8445738 0.65962416 0.35472423
0002c0 ae 41 13 3f 7f 50 e0 3e a4 8e 74 3f d7 10 72 3f
       0.57522094 0.43811414 0.9553015 0.94556946
0002d0 09 2b 4f 3e 2e d3 15 3f 2e 90 51 3f 23 37 57 3f
       0.2023126 0.5852536 0.81860626 0.84068507
0002e0 ad fc 63 3f ea 77 ae 3e 3e 46 4f 3f e9 1b 92 3e
       0.8905743 0.34075862 0.80966556 0.2853692
0002f0 8d 00 a3 3e e8 89 1c 3f 41 b5 d8 3e 41 2b 79 3f
       0.31836358 0.6114793 0.42325786 0.97331625
000300 40 af c3 3e 13 de 55 3f 3b 73 32 3f 92 f2 5d 3f
       0.38219643 0.83541983 0.6970708 0.8669826
000310 93 85 7b 3e 5a 98 72 3f 91 11 ce 3e b0 40 04 3f
       0.24562673 0.9476372 0.40247777 0.51661205
000320 06 95 67 be da cd 51 3f f1 a9 45 3e 33 30 4e 3f
       -0.22615442 0.8195473 0.19303109 0.80542296
000330 49 09 ef 3e 6b 74 eb 3e d4 3d 7a 3f 92 7c e4 3e
       0.46686772 0.45987257 0.9775059 0.4462629
000340 e0 08 23 3f 45 67 bc 3f 11 ac 0c 3f 18 ce 18 3f
       0.6368542 1.4719015 0.5495005 0.59689474
000350 f7 64 bb 3e 02 35 37 3f d5 16 85 3e 70 33 9b 3e
       0.36600468 0.7156526 0.25993982 0.3031268
000360 8a 95 e8 3e 7f d7 b3 3e c3 a3 44 3f d0 7a cf 3e
       0.4542659 0.35125348 0.7681238 0.40523386
000370 f3 4f 71 3e f3 d8 2a 3f b3 71 84 3e a6 42 e6 3e
       0.23565654 0.6673729 0.25867996 0.44972724
000380 f0 8a fd 3e 95 cd 90 3f cb 8e 7b 3f f3 83 21 3f
       0.49520063 1.1312739 0.9826476 0.63091964
000390 1e 3f 4b 3f bc d4 39 3f 99 aa 2f 3f 3e 65 7a 3f
       0.79393184 0.7259023 0.68619686 0.97810733
0003a0 37 94 14 3f f4 2f 51 3f 77 ed 5f 3f 1c 63 a3 3e
       0.5803866 0.81713796 0.8747172 0.31911552
0003b0 2a f6 83 3f d6 be 57 3f dc 8e f1 3e f1 0e b3 3e
       1.0309498 0.8427557 0.47179306 0.34972337
0003c0 17 f0 54 3f ca 88 df 3e e8 e4 03 3f 28 04 30 3f
       0.8317885 0.4365905 0.5152116 0.6875634
0003d0 6b 61 27 3e c8 91 26 3f 12 63 56 3f f0 97 da 3e
       0.16345756 0.65066195 0.8374492 0.42694044
0003e0 1a 0c 68 3f e4 77 10 3f c4 dc 8c 3e 91 72 77 3f
       0.90643466 0.5643294 0.2751218 0.9665919
0003f0 5d c2 11 3f 44 9c 5e 3f 33 f2 f7 3e 3b 44 56 3f
       0.569372 0.8695719 0.4842697 0.8369786

bn1.bias f4 [400]
000000 8a dc 97 3b d3 79 84 3d 63 aa a9 bd 72 0e b3 3d
       0.0046344446 0.064685486 -0.08284452 0.087429896
000010 a7 e4 28 bd 7c 44 af bc 12 f9 de bd 0d ac 64 3d
       -0.041233685 -0.02139496 -0.1088735 0.055828143
000020 b5 d8 ae bc 12 1d 06 3a 5b cd 14 3d 03 bc a1 bb
       -0.021343568 0.0005116026 0.036328655 -0.004935743
000030 cc 6e e3 bc 2f e4 66 bd 65 12 2f bd 71 6a 60 bd
       -0.027762793 -0.056369957 -0.04274215 -0.05478901
000040 4c fa b1 3c 3d 29 db bd da a3 43 bd 2d 8f 41 bd
       0.021725796 -0.10701225 -0.047763683 -0.047255684
000050 a9 fb 61 be 4e e0 5b bd f1 b4 e7 bd 9c c9 e2 bd
       -0.22068657 -0.05368071 -0.11313809 -0.1107361
000060 cc f0 b3 3d 96 36 8c bc 07 f2 dc bd 03 db 44 bc
       0.08786163 -0.017115872 -0.107883506 -0.012015107
000070 60 97 ae bc 4b d1 18 be 58 99 09 be 9f 8a 21 be
       -0.021312416 -0.14923589 -0.13437402 -0.15775536
000080 27 49 6f bd b8 95 24 be 03 cc d8 3c d4 b2 48 be
       -0.058419373 -0.16072738 0.026464468 -0.19599468
000090 a3 95 2c be e1 1d 18 3d 14 9c 40 3d 5b de 37 be
       -0.16853957 0.03713787 0.047023848 -0.17955916
0000a0 5e 2b 95 bd 46 93 0b 3d b6 2b 7f bc ac a6 60 bd
       -0.07283662 0.034075998 -0.015574386 -0.05484645
0000b0 02 f8 f8 bd 41 ad c0 bc 5d 4c 31 bb e3 6e 1a bd
       -0.12156679 -0.023520114 -0.0027053573 -0.037703406
0000c0 40 84 f3 bd be 69 20 bc df da b5 3d 4f d4 f4 bd
       -0.11890459 -0.009790836 0.08879637 -0.11954557
0000d0 f7 f8 3e bc ae 27 ca bd 6f 49 45 bd d5 d3 27 39
       -0.0116560375 -0.098708495 -0.048165735 0.00016005275
0000e0 20 49 71 b9 19 ed 69 bd b7 59 21 3c 2c 10 95 bd
       -0.00023010792 -0.05711088 0.00984805 -0.07278475
0000f0 a2 33 79 bd 37 1a 22 3c 39 ee 0a be 87 95 29 be
       -0.060840257 0.009893945 -0.13567437 -0.16560946
000100 7f 32 37 bd e3 07 69 bc 35 15 1e 3d 2b c3 ae bc
       -0.04472589 -0.014223072 0.038594443 -0.021333298
000110 c7 4a 1f be 91 49 bd bd 36 1d 8d bb ad 37 41 bd
       -0.15555869 -0.09242547 -0.0043064607 -0.047172237
000120 17 e4 c9 bd 9c 18 f7 bd b3 0a 00 be a3 33 2c bc
       -0.09857958 -0.12065241 -0.12504081 -0.010510358
000130 cf 65 c9 bc d4 2b 24 bd 9c dd 7d 3d ee b8 27 be
       -0.024584679 -0.04008086 0.06197892 -0.16379139
000140 24 59 0a be 2b 8d c0 bd b8 e3 47 bd 1b 7d 35 bd
       -0.13510567 -0.09401926 -0.048801154 -0.044308763
000150 c8 9e ab bd 05 2d 9e bd b3 d1 93 bd 74 ed 56 be
       -0.083798945 -0.077234305 -0.07217731 -0.20989019
000160 0e db 17 be 74 17 ce bd 2b bd fe bd 24 7c f7 bc
       -0.14829656 -0.10063067 -0.12438425 -0.030210562
000170 de ae c7 bc ad 3d 08 be be d4 bb bd 08 b6 f4 3c
       -0.024375375 -0.13304777 -0.09171437 0.029871956
000180 4d f6 6f bd 13 2f 82 be bf aa 29 be cd 15 0c be
       -0.0585845 -0.2542654 -0.1656904 -0.13680191
000190 ec 89 ac bd 05 af 04 be 8f 0e af bc b9 23 14 be
       -0.08424744 -0.1295739 -0.021369247 -0.14466752
0001a0 c2 5f 62 3c b0 ec 83 bd b1 9f 85 bc 98 f9 02 be
       0.013816776 -0.06441629 -0.016311498 -0.12790525
0001b0 9e 80 1f bd 77 6f 15 bc 6a 70 f4 bd 72 e1 1b be
       -0.03894102 -0.009120814 -0.11935504 -0.1522272
0001c0 a4 7d a7 bd 04 0c b2 bc 41 7c bf bd 4f 1c e1 bd
       -0.08178261 -0.021734245 -0.093498714 -0.109917276
0001d0 3b f7 b4 bd 8d 17 c4 bc f1 43 60 be 9b 37 76 3d
       -0.08836218 -0.023937011 -0.21900918 0.060111623
0001e0 5c 8a ef bb d6 95 91 3c db 4c 77 bd fb b9 57 3c
       -0.007310195 0.017771643 -0.06037603 0.0131669
0001f0 42 88 84 bd 25 91 0c be dc a4 41 be 4f c3 48 bd
       -0.064713016 -0.13727243 -0.18910545 -0.049014386
000200 6e 41 01 bd 83 a9 13 bd 90 00 aa bc ac 91 dc bd
       -0.03155654 -0.03605033 -0.020752221 -0.10769972
000210 0e 6a 0d 3c 34 60 43 bc 4a 3c 99 bc b9 7a dd bd
       0.008631242 -0.011924792 -0.018705506 -0.10814423
000220 b4 2c 20 be 5d 6e e4 bd e8 c9 63 bd 62 3f 22 bb
       -0.15642053 -0.111538626 -0.055612475 -0.0024757017
000230 fd 89 54 be ad ff a2 3d 3c 3a ca 3d 27 67 91 bb
       -0.20755763 0.079589225 0.098743886 -0.0044373455
000240 b6 d5 32 bd 8e 9a 24 3d e2 3c 16 3e f8 d1 e2 bd
       -0.043660842 0.040186457 0.14671662 -0.110752046
000250 56 9b 41 bd be f2 18 3d 75 2f f6 bd 24 71 c0 bd
       -0.04726728 0.037340872 -0.120207705 -0.0939658
000260 20 62 8c bb 7f f2 74 bc a0 83 76 be ae 26 43 3d
       -0.0042841583 -0.014950394 -0.24073648 0.04764431
000270 9e 4c cd bd 9a c1 9e bd 4b 47 3a be 4d 81 f7 bd
       -0.10024379 -0.0775177 -0.18191259 -0.12085209
000280 aa 59 c2 bd 69 db eb ba db 44 73 bc 3d ad 74 bd
       -0.09489758 -0.0017994466 -0.014847959 -0.059735525
000290 6b 6a 35 be d4 82 fe bc f8 7e d0 bd a8 4b cc bd
       -0.17716376 -0.031068243 -0.10180467 -0.09975368
0002a0 ef eb d0 bd 86 92 23 be 64 88 a8 bd d3 4c 5b be
       -0.10201251 -0.15973863 -0.082291394 -0.21416025
0002b0 94 cd 61 bd 77 72 06 bd 3b 9c d0 3d 28 b7 75 3d
       -0.055127695 -0.032824006 0.101860486 0.059989125
0002c0 7b 8e 05 be 03 fd 4f be 35 97 7e bd 1a 7c 45 be
       -0.13042633 -0.2031136 -0.06215592 -0.19285622
0002d0 39 09 56 3d 96 ca 4d bd 52 1c 4f be 93 09 4f bd
       0.05225489 -0.05024203 -0.20225647 -0.05054624
0002e0 53 84 39 be 1d 73 56 bb 34 6c fd bc 95 b7 87 bd
       -0.18116884 -0.0032722421 -0.030935384 -0.06626812
0002f0 b5 5a bd 3d a4 41 04 bd b2 cf c7 bd 13 ec 85 bd
       0.092458166 -0.032289162 -0.097564116 -0.06539168
000300 b4 5d 1d be bf d4 27 be 30 2a 59 be 2b ed 8b bd
       -0.15367776 -0.1638975 -0.212075 -0.068323456
000310 81 5b b2 bd e4 a1 e4 bd fb bc 05 be e9 ea a9 bd
       -0.08708859 -0.11163691 -0.13060372 -0.08296759
000320 64 d7 db bd a1 f0 4a be 84 6a 06 be aa f1 12 bd
       -0.10734442 -0.19818355 -0.1312657 -0.035875
000330 f6 8d 5f bd 3c bf d3 bc 2a 17 b6 3b 1a 14 d1 bb
       -0.054578744 -0.025848024 0.0055569606 -0.00638057
000340 ed b0 29 3c 7e d2 c2 3d bc ea 3e be 52 a5 a3 3d
       0.010357124 0.095128044 -0.18644232 0.07990517
000350 38 d5 ec bd 7c c6 fb 3d fa 87 cf 3c ac f6 2b be
       -0.11564106 0.12293717 0.025333393 -0.16793317
000360 d4 dd cd 3c 62 2e 07 3c 13 b7 00 3d 0f 8c 4a 3d
       0.02513019 0.008250805 0.031424593 0.049449977
000370 af 2f 3a 3d ac 3c 87 bb cb 9f 1f be 69 44 8e bd
       0.04545563 -0.0041271057 -0.155883 -0.06946642
000380 0b a1 ad 3c d3 93 03 be fa 8a 21 3d e5 48 34 3e
       0.021194955 -0.12849359 0.03943918 0.17605932
000390 95 6a 70 3d ad b4 4b 3d dc f9 64 bd 57 be 28 be
       0.058695395 0.049732853 -0.055902347 -0.16478859
0003a0 93 a1 11 be 1f 6a 9c bd 99 38 af bd b4 a9 a8 bd
       -0.14221792 -0.076374285 -0.08555717 -0.08235493
0003b0 16 1d 18 be 61 b5 07 be b6 37 2a bc bc 22 a2 bc
       -0.14854845 -0.13252784 -0.010389259 -0.019791953
0003c0 f4 30 45 be 81 d2 d1 3c 37 ab 34 bd 68 b1 9c bd
       -0.19256955 0.025613071 -0.044108596 -0.07651025
0003d0 a3 b1 42 3c f9 02 94 bd 84 cf 15 be 11 44 6a bd
       0.011883172 -0.072271295 -0.14629942 -0.05719382
0003e0 4a 16 86 be e4 70 0e be d6 10 1d bd 23 49 ba bd
       -0.2618888 -0.13910252 -0.038346134 -0.09095981
0003f0 be c2 1e bc 0d e6 db bc 35 2d 84 bd 36 2e 16 3c
       -0.009689985 -0.026843095 -0.06453935 0.009166291

bn1.running_mean f4 [400]
000000 bb d2 44 3e 38 7f 07 be 7a a2 71 bd 53 0b 6d bd
       0.19221012 -0.13232124 -0.05899284 -0.057872128
000010 f7 76 1d be b8 d7 4c 3d 56 63 f2 bd 14 e2 9b bd
       -0.15377413 0.050010413 -0.11835353 -0.0761148
000020 c6 7f c7 bc 95 74 d1 bc 58 55 0e 3e cc 17 1f 3e
       -0.02435292 -0.025568286 0.13899744 0.15536422
000030 1d 15 6c 3c 12 28 15 3b 6d 3d 06 3e b8 4b 29 3e
       0.014409331 0.002275948 0.1310937 0.1653279
000040 dd 38 23 be 33 bc 28 3e 92 f1 0c be e4 e8 2a be
       -0.1593966 0.16478042 -0.13764027 -0.16690403
000050 ff 0e 03 be 3e c6 13 3e b0 a4 84 bd ea 19 3b 3e
       -0.1279869 0.14431092 -0.06476724 0.18271604
000060 9f 7e 36 3e 27 14 bf 3b 27 ea 83 bd a2 66 c6 3d
       0.1782174 0.00583126 -0.064411454 0.096875444
000070 3c db 70 bd df ee 4e 3e ce a7 d8 bd 36 e1 49 be
       -0.05880283 0.2020831 -0.10578881 -0.19714817
000080 66 06 7b 3d b4 65 d3 3d 14 c3 05 be 37 65 2c 3c
       0.0612854 0.10322133 -0.13062698 0.010522178
000090 30 56 3d be 12 ac 5c 3d 80 95 e8 3d bc 7f 47 be
       -0.18489909 0.053875037 0.1135664 -0.1948232
0000a0 0b 6c a4 3d f2 08 cd bd 95 39 d6 3d 25 77 e8 bd
       0.0802842 -0.10011472 0.10460202 -0.1135085
0000b0 9a 3f 2c be 54 26 3d 3e f4 6a 80 3d 4f ce 65 3d
       -0.16821137 0.18471652 0.062704 0.056104954
0000c0 d2 ac e9 3c e2 7f 19 be de 46 30 be 2c 32 f9 3d
       0.02852479 -0.1499019 -0.17214534 0.12167773
0000d0 67 b4 9a bd b8 11 0d bd 23 ba 41 3e fa 83 c2 bd
       -0.0755394 -0.034440726 0.18918662 -0.09497829
0000e0 6a aa 17 bc 78 83 d9 3d 2b 08 68 bd 70 f8 e9 bd
       -0.0092569385 0.10620779 -0.056648415 -0.11424339
0000f0 68 55 3b be 1c 2d f8 bd b0 a7 14 3e f2 01 27 3e
       -0.18294299 -0.12117979 0.14517093 0.16309336
000100 6d a2 cf 3d 6d a4 0a 3e b2 b7 1b 3e 1f d6 39 3e
       0.10138402 0.13539286 0.15206793 0.18148087
000110 fe d6 cb bd 61 4f 28 3e b3 18 8c 3c 73 10 91 3d
       -0.09953116 0.1643653 0.017101621 0.070832156
000120 a8 11 2d 3c 95 6b fd 3c c1 45 8e bd e7 bf 2e be
       0.010563292 0.030935088 -0.06946898 -0.17065392
000130 69 36 3e 3d bf ec 81 bd 1e 4e 24 3e 2e 26 45 3e
       0.04643861 -0.06343984 0.16045424 0.19252846
000140 69 53 0e be f0 5b 20 3d 0e 58 ba 3d 10 66 76 bd
       -0.13899006 0.03915018 0.09098826 -0.060155928
000150 a7 8a 46 bd 93 a5 26 bd f9 8a 1b 3e 66 be a2 3c
       -0.048472073 -0.040685248 0.15189733 0.01986618
000160 14 fa 27 3e fd 29 17 3e c2 33 4c be 80 ce 46 3e
       0.16403991 0.14762111 -0.19941619 0.19414711
000170 be 86 4a 3d e7 bd a9 3c a1 71 38 3e ed 4e a4 3d
       0.049444906 0.020720435 0.18012096 0.080228664
000180 e2 b3 fd 3c 01 39 14 bd 1c 0e 84 bd 44 9a 0e be
       0.030969564 -0.036187176 -0.06448004 -0.13926035
000190 7b 71 97 bd 61 e7 04 bc 33 48 08 3e 9c d6 30 3e
       -0.073946916 -0.008111806 0.13308792 0.17269367
0001a0 ca 5c 82 bd 5c c7 ff 3c f8 1f 22 3e 04 8d 10 be
       -0.06365354 0.031222992 0.15832508 -0.14116293
0001b0 01 49 05 3e 88 b6 eb 3d 56 1e 15 3d e8 3e 1b 3e
       0.1301613 0.115094244 0.036405884 0.15160716
0001c0 cc 2b 21 3e 79 ff e5 3d 2f 9a a4 3d a5 ff a7 bd
       0.15739363 0.11230368 0.08037221 -0.08203057
0001d0 3a bc 99 3d 6b f0 05 3d dd f5 e4 bc 55 f5 d1 bd
       0.075066045 0.032699984 -0.027949268 -0.102518715
0001e0 79 14 e1 3d 1d 80 d6 bd 09 bf d3 3d 51 a7 d9 3c
       0.10990233 -0.104736544 0.103391714 0.02656904
0001f0 01 89 ec 3d cb 52 4c be 2c 72 a2 3d 2b a6 3c 3e
       0.11549569 -0.19953458 0.07931933 0.18422763
000200 0a 20 fd bd 53 14 23 be ca 4b 49 3e fa ca de bd
       -0.123596266 -0.15925722 0.19657817 -0.108785585
000210 6e 90 ce bc e6 ab de 3d b4 c7 2a 3d 1d f3 04 3e
       -0.025215354 0.10872631 0.041694358 0.12983365
000220 57 9a 35 3e 58 c8 99 3d 01 b1 d8 bd 09 8d ae 3d
       0.17734657 0.07508916 -0.10580636 0.08522994
000230 a8 a0 62 3d 91 c3 e1 bc 06 30 04 3e 0d 47 9d bd
       0.055328995 -0.027559074 0.12908944 -0.076795675
000240 4a 4d 3f be 92 d7 97 bd d9 35 1a 3d ac 07 c4 bb
       -0.18681827 -0.07414164 0.03764901 -0.00598236
000250 66 1d 80 bc 6b 5e 94 3d bb 5c 1c be de ed 26 3e
       -0.015639018 0.07244571 -0.15269749 0.16301677
000260 c7 71 1f 3e 32 f6 3e 3e 54 ea 57 bd 5c 64 13 3e
       0.15570746 0.18648604 -0.052713707 0.14393753
000270 52 df 99 3d 83 53 5c 3d 4c cb ee 3d 55 d0 97 bd
       0.07513298 0.05379058 0.116598696 -0.07412783
000280 07 83 bf bd e8 85 64 3d 38 6c 1b 3e bf 3b ae 3d
       -0.09351163 0.055791765 0.15178001 0.085074894
000290 3e 95 a9 bd 94 02 02 3e 9f 35 ee 3d d5 43 60 3d
       -0.08280419 0.12696296 0.11631321 0.05475219
0002a0 1c 0a d0 3d 95 80 81 bd 44 ba e9 bd dc fa 92 3c
       0.10158178 -0.06323353 -0.114124805 0.017941885
0002b0 dd 06 8a 3c 3f 35 41 3d 8f 46 9d bc 37 cb 6b 3d
       0.016848976 0.04716992 -0.019198684 0.057566848
0002c0 c2 e3 ac 3d 81 c3 4d bd 7e dc bf bd 03 6b 51 3e
       0.08441879 -0.050235275 -0.093682274 0.20450978
0002d0 4a b5 dd 3d 63 03 63 bd cd dc 3d be d3 57 7a bd
       0.10825594 -0.05542315 -0.1854126 -0.061118912
0002e0 4b a3 13 be 0c 96 cc 3c 13 51 00 3e 4d 4a 42 be
       -0.1441776 0.024973892 0.12530927 -0.18973656
0002f0 59 b8 26 be 03 ef 4f be c4 5d b2 3d 46 4b 20 3e
       -0.1628126 -0.2030602 0.087092906 0.15653715
000300 4a ea e2 bd ea bf 83 bd cd 57 b0 bd 05 1b ba 3d
       -0.11079843 -0.06433089 -0.08610497 0.09087185
000310 b9 aa 99 bc 07 40 3d 3e 0d 02 98 3d a4 88 92 bd
       -0.018758165 0.18481456 0.07422266 -0.071549684
000320 1f 04 e4 3d 2d ed a1 3d 6e e6 36 be 63 d2 4a 3e
       0.111335985 0.07906566 -0.1786134 0.19806819
000330 f2 57 c7 bc 5a 34 f4 bd c5 8f b1 3d 92 8d 3e 3e
       -0.024333928 -0.11924048 0.0867 0.18608692
000340 52 3d fb bc bf 8c 5d 3e 88 b9 f9 3d d8 45 8f bd
       -0.030668888 0.21635722 0.121935904 -0.069957435
000350 16 2e 11 3e 54 40 98 bd 44 ab ec 3d b8 ff 8a 3d
       0.14177737 -0.074341446 0.11556104 0.06787056
000360 e5 ee 71 3d 09 e2 50 3e fd 60 d5 3b ef d0 2c 3e
       0.05906572 0.20398726 0.006511806 0.16876577
000370 db 90 3f 3d 90 b0 80 bd 23 fb 06 3e 65 83 3c be
       0.046769004 -0.062836766 0.13181739 -0.18409498
000380 f2 53 23 bc b7 b2 ba bd 2a d0 34 bd 61 86 06 3e
       -0.009968745 -0.091161184 -0.044143833 0.13137199
000390 0d 48 38 3e 30 18 eb 3d d0 ef 9a 3d ab 89 ad 3c
       0.17996235 0.11479223 0.07565272 0.02118381
0003a0 2e ba 26 be 15 46 60 3d 90 91 ce 3d 87 fc 06 be
       -0.1628196 0.054754335 0.100863576 -0.13182269
0003b0 cc 3c 47 3e de 6a 8b bc fd 79 5c bc 48 47 99 3b
       0.19456786 -0.017018732 -0.013456819 0.004677687
0003c0 bb 6d 47 3e b5 9f 30 3e 35 24 46 3e ac 45 de 3d
       0.19475453 0.17248423 0.1934975 0.108531326
0003d0 09 b7 70 3c b7 2b 7e bd 4d e7 e0 3d 55 55 81 3d
       0.0146920765 -0.06205341 0.10981617 0.06315104
0003e0 d3 c1 c3 3b 3e d0 e8 bd f1 8b cf 3d f5 64 d5 bd
       0.0059740334 -0.11367844 0.101341136 -0.10419647
0003f0 8f 06 46 be 25 3a db bd a6 f8 09 3e 14 8e 32 3d
       -0.1933844 -0.107044496 0.13473758 0.043592528

bn1.running_var f4 [400]
000000 22 eb ad 3c 9a 4a e3 3c 39 9e 60 3d 54 9e 8c 3d
       0.021230284 0.027745534 0.054838393 0.06866136
000010 84 ed fc 3d b9 5a 43 3d c7 61 fa 3d 2c ea 0b 3d
       0.1234999 0.04769394 0.12225681 0.03415887
000020 7c 91 44 3d 86 69 17 3d c7 c9 b5 3c 56 52 89 3d
       0.047990307 0.03696587 0.022190941 0.067051575
000030 79 9f 0e 3d 9b ae 96 3d 23 e1 49 3e a1 70 26 3d
       0.034820054 0.07357522 0.19714789 0.040634755
000040 8b 08 4a 3d 5f 2e 25 3e b7 0f 57 3d 3a 33 03 3d
       0.049324553 0.1613097 0.05250522 0.032031275
000050 e1 06 84 3d 27 33 9c 3d db ec 6a 3d 57 75 a1 3d
       0.064466245 0.07626944 0.05735479 0.07883709
000060 0c 69 61 3d 95 d2 ac 3d bc 8d 22 3d 0c 34 99 3d
       0.05503182 0.08438603 0.03968595 0.0748063
000070 00 2f 22 3d 9d 94 bd 3d 5e 19 f8 3c 84 5b 74 3e
       0.039595604 0.09256861 0.030285534 0.23863035
000080 d1 5d 34 3d 1d 38 59 3d 5b 43 a3 3d c2 94 9b 3d
       0.044034783 0.05303203 0.079718314 0.07596733
000090 20 38 c4 3d 49 3f 53 3d 9e 6f 36 3d 71 e2 e2 3d
       0.095810175 0.051574025 0.04454004 0.110783465
0000a0 df 9c 62 3d 3c f5 eb 3c da cf 94 3c ec 3f 7a 3d
       0.055325385 0.02880346 0.018165518 0.061096117
0000b0 de 24 99 3d c9 5d 65 3c 1f 0b 63 3d 88 20 8b 3d
       0.07477735 0.013999411 0.055430528 0.06793314
0000c0 3f a3 2f 3d f6 ad a3 3d 97 73 11 3c 27 70 03 3d
       0.042880293 0.07992165 0.008877656 0.03208938
0000d0 45 62 0e 3d 00 ae 3d 3d 9d b2 0c 3d 06 71 78 3d
       0.034761686 0.046308517 0.034350026 0.060654663
0000e0 c1 07 d1 3d 82 2d c7 3d c4 44 50 3d 5e 20 8e 3d
       0.10206557 0.09725477 0.05084683 0.06939767
0000f0 92 a8 35 3d cb 75 d0 3c 5d 0e 84 3d 22 99 68 3d
       0.044350214 0.025446793 0.06448052 0.056786664
000100 ba cd c8 3d 17 46 7f 3d 20 5e b0 3d 84 a5 5c 3d
       0.09804864 0.062322702 0.08611703 0.053868786
000110 10 97 c9 3d 30 35 48 3d 29 e6 d6 3c e7 0c c7 3d
       0.09843266 0.04887885 0.026232796 0.09719258
000120 08 61 90 3d a7 2a b0 3d d7 89 e1 3d 8c 44 5a 3d
       0.07049757 0.08601885 0.11012619 0.053288028
000130 15 f2 82 3d b5 ed 1d 3d 7c d9 33 3c 9f 24 84 3d
       0.0639383 0.038556773 0.010977145 0.064522974
000140 40 d5 e8 3d 9f 22 9d 3d 1a c7 8e 3d 0e 20 33 3d
       0.11368799 0.07672619 0.06971569 0.04373174
000150 27 b8 07 3d fe 8d 87 3d 39 f2 60 3d ad 73 18 3d
       0.033134606 0.0661888 0.0549185 0.037219692
000160 9b 43 a3 3d b0 0f 3e 3d 30 98 95 3d a8 d3 8c 3d
       0.07971879 0.04640168 0.07304418 0.06876308
000170 02 c2 da 3d 08 e9 cf 3d b0 44 b9 3d 24 ea 91 3d
       0.10681535 0.10151869 0.09046304 0.07124737
000180 52 8c b2 3d 6b 25 80 3c 14 9a a3 3d e6 3e c2 3c
       0.0871817 0.015642842 0.079883724 0.023711633
000190 63 03 03 3d 03 da 88 3d 45 da 82 3d 28 74 4e 3d
       0.03198565 0.066822074 0.06389288 0.050403744
0001a0 60 24 ac 3c ea 85 0b 3d 92 b7 9d 3d f3 5d c6 3d
       0.021013439 0.034063257 0.07701029 0.09685888
0001b0 64 c6 c0 3d 4c ee ad 3d e0 b3 a1 3d 1b 77 a1 3d
       0.0941284 0.08492717 0.078956366 0.07884046
0001c0 de d1 7a 3d 75 ed 82 3d ae c5 43 3d 1b 05 f3 3c
       0.0612353 0.063929476 0.047795944 0.02966552
0001d0 31 43 43 3d dc 1a b6 3d 13 1d d8 3c 6d 50 a2 3c
       0.0476715 0.08891842 0.026381051 0.01981374
0001e0 b8 2c 3f 3d 9c 1f 80 3d 1d 39 cd 3d 37 7e 87 3d
       0.046673506 0.06256029 0.10020659 0.066158704
0001f0 a0 81 91 3d 83 36 4b 3d 0f 00 08 3e 69 9f 20 3d
       0.07104802 0.049612533 0.13281272 0.039214525
000200 25 61 9e 3d 57 99 88 3d 04 81 e0 3d 31 9b 4e 3d
       0.077333726 0.06669872 0.10962108 0.05044097
000210 cd 8b b9 3d 70 df 84 3d 12 15 7f 3c 8a 5e 48 3d
       0.09059868 0.0648793 0.015568988 0.048918284
000220 b5 93 09 3d 81 db c8 3d fb 0d 1f 3d 3c 4b 84 3d
       0.03358813 0.09807492 0.038831692 0.06459662
000230 bf 2e 6b 3d fa a2 ee 3d c4 65 48 3c 94 61 75 3d
       0.057417627 0.11652179 0.012231294 0.05990751
000240 e0 4a c2 3d 8a 8e b7 3d 3f 08 75 3d b8 47 b4 3d
       0.094869375 0.08962734 0.059822317 0.08802742
000250 02 6d d6 3c 53 b7 47 3d b1 de e9 3d 6a b3 c8 3d
       0.026175026 0.048758816 0.11419428 0.097998455
000260 1c da 93 3d 57 7f b0 3d e2 ca 4a 3d c6 f4 67 3d
       0.072193354 0.08618038 0.04950989 0.05662992
000270 ea 0c f9 3c 4d 5b 89 3d 6b 68 6d 3d e0 a4 83 3d
       0.030401666 0.06706867 0.05796091 0.06427932
000280 73 7d 54 3d b0 d6 24 3d 20 25 8a 3d 7f 62 92 3d
       0.05187745 0.040243804 0.06745362 0.07147693
000290 25 ab b7 3d f2 ba 02 3d 4b aa 90 3d b4 4d c3 3d
       0.0896819 0.031916566 0.07063731 0.09536305
0002a0 bb 93 cd 3d c7 74 4f 3d 91 60 65 3d da 6f 10 3d
       0.10037943 0.050648477 0.056000296 0.03526292
0002b0 73 91 86 3d 1f a7 b8 3d 74 54 b3 3d ec 0f 9b 3d
       0.06570711 0.09016251 0.087563425 0.07571396
0002c0 10 6e 97 3d 56 0c 34 3d d7 c2 b6 3d ef 71 bd 3d
       0.0739404 0.043957077 0.089238815 0.09250247
0002d0 ff e7 17 3d 09 ed 38 3d 0d 91 9b 3d 2d ae b1 3d
       0.037086483 0.04514793 0.075960256 0.086757995
0002e0 57 3f 8f 3d e5 bb da 3c 5f 48 54 3d 04 4a 53 3d
       0.06994503 0.026700923 0.05182683 0.05158426
0002f0 3f 57 05 3e 9a f0 41 3d 2c 55 bf 3d 95 f7 e0 3d
       0.13021563 0.047348596 0.09342417 0.109847225
000300 20 9d 40 3d b2 35 a0 3d dc b5 ad 3d 8f 77 06 3e
       0.047024846 0.078227416 0.084819525 0.13131545
000310 0a 3b 4d 3d 65 d8 a1 3d 2e f0 39 3d d4 1e 0a 3d
       0.050105132 0.07902602 0.04539507 0.033720806
000320 8c 76 94 3c f6 d4 21 3d 79 34 4b 3d 30 db 76 3d
       0.018122934 0.039509736 0.04961059 0.060267627
000330 5a d5 4f 3d 3a 56 56 3d 7a 00 c4 3c 53 e5 c8 3d
       0.050740577 0.052328326 0.023926008 0.09809365
000340 c2 46 b3 3d f5 34 a8 3b 42 e8 98 3d 9b d1 e0 3d
       0.0875373 0.005133266 0.07466175 0.10977479
000350 02 a5 b7 3d c8 d1 e1 3c 98 20 85 3d a3 d3 ae 3d
       0.089670196 0.027565852 0.065003574 0.0853646
000360 c3 d1 a6 3d bc 4c a6 3d 92 96 6b 3d 41 41 42 3d
       0.081454776 0.08120105 0.057516642 0.047425512
000370 cd 5b c6 3d 69 87 ca 3d 10 01 70 3d 62 be af 3d
       0.09685478 0.09889109 0.058594763 0.085812345
000380 61 5e 49 3d 0a a8 32 3d 12 ee 89 3d 53 8f 0f 3d
       0.049162272 0.043617286 0.067348614 0.035048794
000390 9e d8 b5 3d 50 4e a5 3c 7a ec 75 3d 55 45 fb 3d
       0.08879207 0.020178944 0.060039975 0.122690834
0003a0 d5 3d 64 3d ad 64 6a 3d 76 03 4a 3d 20 6b d3 3d
       0.05572303 0.05722492 0.049319707 0.10323167
0003b0 0e cd f4 3c d5 6f 91 3c 20 27 99 3d 44 99 98 3d
       0.029882934 0.017753521 0.074781656 0.07451108
0003c0 76 bc 6a 3d a1 57 97 3c 74 50 59 3d 88 46 02 3d
       0.057308637 0.018474402 0.05305524 0.031805545
0003d0 8e ef 01 3e 81 c3 9b 3d a2 7d b6 3d cb 54 86 3d
       0.12689039 0.07605649 0.08910681 0.06559142
0003e0 23 e9 7a 3d fa 37 8b 3d 2a 51 eb 3d 2a 84 a7 3c
       0.061257493 0.06797786 0.1149009 0.020448763
0003f0 ea c6 18 3d be 35 c3 3d 4f dc 58 3c e5 d0 b1 3d
       0.037299074 0.09531735 0.013236119 0.086824216
